CNN_Classfier.pth (torch, 317388 bytes, 10 tensors)

conv1.weight f4 [64, 6, 6]
00000000: fbc0 d53d a819 413e 7b28 76bc 715a 473e
00000010: a473 f2bd b268 8f3d b080 dcbc 412e d5bc
00000020: 8fa5 ea3d f8ea 103e b2c1 fdbd e35e 193e
00000030: 1493 20be 6852 9f3c d00d d53c 27ad c2bd
00000040: 1ebc f83d 8532 8abc 1298 d33c f2fc f63c
00000050: 3b17 b53d 5ec1 073b 29b4 813c 7ca2 03be
00000060: e32c 1cbe 067d 0d3e 5969 92bb 5890 a9bd
00000070: c84e ff3d f972 f1bc 09b8 ad3d 3b47 4d3d
00000080: e2c4 1bbe 5287 ba3c 0936 02be 58f5 1f3d
00000090: e439 933d 36e0 973a b4d0 6dbd c6fd c9bd
000000a0: bb88 ca3d a62a 213e 5063 a43d acd9 093e
000000b0: e8b6 78bc f31c 533e 5ca3 0ebd 6824 0d3e
000000c0: 02ac 14be eb7e 293d 7187 50bc d563 063e
000000d0: b02a 01be 886c c9bd c1c8 5ebd d3da 0f3e
000000e0: 2dbc 3ebd 9e37 ec3d 171e fc3c 2b77 d8bb
000000f0: d6e2 85bd 2782 d9bd 92ad c53d 70aa 8b3d
00000100: 2848 9d3d b032 133e 754a b1bd c4dc a3bc
00000110: f473 f5bd 9ae8 ad3d 5282 54bd 4adc 933b
00000120: 3b20 473d ae7c c0bd 10e8 343e bf7b 9a3d
00000130: d15b d23b cd30 3ebd ea4e 823b ad32 933d
00000140: ee73 eb3d 880a 293e 8a6f fa3b 8f9e 483d
00000150: f631 bcbc 91fc 04be 4390 b4bd b04b 803d
00000160: 5926 23bd fa73 0f3e 312a ad3d 63c8 e63d
00000170: ee54 84bb b007 07be 4e18 803d b45f a63d
00000180: d4c4 b23d 70c2 febd 7727 fa3d 4067 923d
00000190: 4d43 d8bd d276 dc3d fbb9 26be acde 1dbe
000001a0: 40b1 833d 1e2b ee3c 0061 eabd cced 153d
000001b0: f5ea d93c 2e13 843d 1ae6 023d 2d9d 1abe
000001c0: 211b b43c 14e4 53be 97e8 d9bd da4c b83d
000001d0: b7d1 2fbe d27d bcbd e76b bc3d c94f 69be
000001e0: 27aa 73bd 7006 eebd f7e1 24be e376 f13d
000001f0: 4c22 d03a 7f69 9fbd 5d28 6a3d 09ef 0a3a
00000200: e568 f0bd 00ee bdbd c5a5 c9bb d0f2 20bd
00000210: 1ec5 7a3d 3928 0fbe 2739 273d 633e ef3d
00000220: 4383 033e 317b 083e 8109 2c3e 1e8b aabd
00000230: 2e03 b0bd 1f50 ed3c 006f e43d 7c65 aabc
00000240: 4c28 b8bd 2565 c13d c4fd 91bd bebf b4bd
00000250: 8c1d 393c e183 133c f066 b93d 2624 6dbd
00000260: 3122 1dbc 6650 23be 0af4 e33d dd11 143d
00000270: 7dac 0b3e e02e 063e 9acb 693d 7990 1f3c
00000280: 879b c93d 52b5 073e faeb b73b 9c48 eb3d
00000290: ee7e 26be ac92 3f3c 234a 183e d35a bb3d
000002a0: 87eb 07be c500 3cbe aaa8 3939 5247 02be
000002b0: 3e43 ff3c 9486 d3bc f516 16be 34dd c43c
000002c0: a5dd 08be 2203 babd 7dc5 f5bd 9a6d 0abe
000002d0: 6ba5 96bd 9ac5 00be 5e2b 32be 48a0 003d
000002e0: d212 253e 5b4e 223e 8fd7 00be 451b 0f3e
000002f0: 8892 f63d 5167 c9bd a1cc cd3d f33c bbbd
00000300: cb6e 2b3c 26ed 143e 968c 17be be57 0d3e
00000310: bd8c dfbd 3889 86bd 7e6f 163e 09fd 10bd
00000320: 49f3 dfbd 1fd8 94bd 50cf ebbd e7e2 233d
00000330: 3152 e13d 6172 b73d 637f 8bbd a0b4 c23d
00000340: 6c20 9bbd 0805 163e 7094 81bd 35fe 09bd
00000350: b4c6 0c3e 68b3 f5bd 5b61 13be 2251 be3c
00000360: 3e83 f5bc 991f 87bd 3ded c23d f076 2a3d
00000370: 221d 093d 8898 02be eb21 623e 1a88 1d3e
00000380: e4df ee3d 9e03 4c3e 9334 95bc c4d7 0d3e
00000390: eb4f 453c cfcb f13d 521e b5bd f60a b93d
000003a0: 9d1f df3c 6a22 123e 4161 a43c 0474 dd3d
000003b0: 4c73 3bbc 3035 3b3d 7d47 25bd 0936 a7bd
000003c0: ff02 a73d d408 e4bd bd5f 4c3d 4eab b5bd
000003d0: 5660 193e 2a14 24be 9cca 1cbe a20b c0bd
000003e0: 3fa4 473d 7f68 61bd 0c8b f43c 4130 9e3d
000003f0: ed60 313e 7576 173e 16f9 2bbe 14c1 c7bd
0.10437199 0.18857443 -0.0150243 0.19468094 -0.11838463 0.07002391 -0.026916832 -0.026023032
0.11457359 0.14152133 -0.1239046 0.14977603 -0.15681106 0.019448474 0.026007563 -0.095056824
0.121452555 -0.016869793 0.025829349 0.03014991 0.088423215 0.002071462 0.015832977 -0.12854952
-0.15251498 0.13817224 -0.004468125 -0.082794845 0.12466198 -0.029473769 0.084823675 0.05011676
-0.15211824 0.022769604 -0.12715925 0.039052337 0.07188776 0.0011587206 -0.058060363 -0.098628566
0.098893605 0.15738925 0.08026755 0.13461941 -0.015180327 0.20616512 -0.03482376 0.13783419
-0.14518741 0.041380804 -0.012727604 0.1312402 -0.1261394 -0.09835154 -0.054390673 0.14048319
-0.046566177 0.11534046 0.030776067 -0.006606003 -0.06537406 -0.10620528 0.096522465 0.06819618
0.07679778 0.14374804 -0.0865678 -0.02000273 -0.11985007 0.08491631 -0.051882096 0.0045123445
0.04861472 -0.09398781 0.1766665 0.07543134 0.006419637 -0.04643326 0.0039766924 0.071874
0.11496721 0.16507924 0.007642691 0.04897934 -0.022973042 -0.12986971 -0.08816578 0.06264436
-0.039831493 0.14009085 0.08455313 0.112686895 -0.0040384447 -0.13186526 0.06254636 0.08123723
0.08728948 -0.1243943 0.122145586 0.071485996 -0.105597116 0.10764851 -0.16281883 -0.15416974
0.06430292 0.029073294 -0.114442825 0.036603734 0.026601294 0.06448971 0.031957723 -0.1509902
0.021985592 -0.20692474 -0.10640066 0.08999033 -0.17169844 -0.09203686 0.09200268 -0.22784342
-0.05948844 -0.116223216 -0.16101824 0.11790254 0.0015879362 -0.07783794 0.0571674 0.0005299901
-0.11738757 -0.092739105 -0.0061537945 -0.039294064 0.06122314 -0.13980187 0.04082599 0.11681821
0.12843041 0.13328244 0.168005 -0.08327316 -0.085943565 0.028968869 0.11153984 -0.020800345
-0.08992061 0.0944312 -0.0712848 -0.088256344 0.011298548 0.00900361 0.09052837 -0.057895802
-0.009590671 -0.15948638 0.11130531 0.03614985 0.13640018 0.13103819 0.057078935 0.009739035
0.098441176 0.13252762 0.0056128474 0.114884585 -0.16259357 0.011692684 0.14872031 0.09148183
-0.1327344 -0.18359669 0.00017705807 -0.12722519 0.031159993 -0.025821008 -0.14657195 0.02403126
-0.133658 -0.09082629 -0.120005585 -0.13518372 -0.0735577 -0.12575379 -0.17399356 0.031402856
0.1612046 0.15850203 -0.12582229 0.13975246 0.12039667 -0.09834159 0.100487955 -0.091424845
0.010463427 0.1454359 -0.14799723 0.13803002 -0.109155156 -0.06569141 0.14690968 -0.035397563
-0.10935075 -0.07267784 -0.11514151 0.040011313 0.11002005 0.08957363 -0.068114065 0.09507108
-0.07574543 0.14650357 -0.0632714 -0.033689696 0.13747674 -0.1199711 -0.14392607 0.023232047
-0.029969808 -0.06597824 0.09517906 0.041617334 0.03347505 -0.12753499 0.22083251 0.1538395
0.116637975 0.19923255 -0.018213546 0.1385184 0.01204298 0.118064515 -0.08843674 0.09035294
0.027236754 0.1427094 0.020065906 0.10813144 -0.011441063 0.04570502 -0.04035138 -0.08164603
0.08154868 -0.11134496 0.04989599 -0.088705644 0.14978155 -0.16023317 -0.15311664 -0.09377219
0.04874062 -0.055031296 0.029851459 0.077240475 0.1732213 0.14791282 -0.16794237 -0.097536236

conv1.bias f4 [64]
00000000: 44ba c4bc 0993 d93b 8443 a03d 5ea6 cf3d
00000010: 0f13 bfbd 4b49 ff3d e718 7abd 47c6 a4bc
00000020: 3934 fe3b 5d9a ec3c 0213 bebd ff9b b43d
00000030: 118d d0bd 6e68 ed3d e0b8 1f3e 0e61 79b9
00000040: fdcc ca3d 35ad 80bd 808c b4bd 02ce 29be
00000050: 874d 09be 3bbb 173d 8ea7 70bc b77f d33d
00000060: bd37 f23d ca87 d03c 5412 ea3d 059c e33c
00000070: b0a1 babc 74c2 083e a8e8 d0bc a4c7 1d3d
00000080: 3647 9dbd 1729 a1bc fca4 19bd 1737 6ebd
00000090: ed05 373c 5db0 87bc b282 b9bd e5c2 37bc
000000a0: 0e28 9d3d bc49 f43d 3b07 773d 285b 083e
000000b0: e971 53bd c019 40bd c889 1c3e e17b 03be
000000c0: fc24 193e eeb6 ecbd 71b1 1c3e e2f4 06be
000000d0: bba9 093e 2965 8b3d 12e9 a73c 2833 c63d
000000e0: 8eb3 433d bd44 063e 189d 1bbe 1126 f73d
000000f0: 1a83 e2bc 304d 353e 8320 27bd 734c debc
-0.0240146 0.0066398424 0.078253776 0.10139154 -0.09329807 0.124651514 -0.061058905 -0.020114077
0.0077576903 0.0288822 -0.09280969 0.088188164 -0.10183156 0.11592184 0.15597868 -0.00023782646
0.0990238 -0.062830366 -0.08815861 -0.16582492 -0.1340848 0.03704379 -0.014688386 0.10327094
0.118270375 0.025455374 0.11429277 0.027784357 -0.022782177 0.13355428 -0.025501564 0.03852047
-0.07679598 -0.019672913 -0.037510857 -0.058158007 0.011170846 -0.016563589 -0.09058131 -0.0112159
0.076736555 0.11928126 0.06030963 0.13316023 -0.051622305 -0.046899557 0.15286934 -0.12840225
0.14955515 -0.115583286 0.15302064 -0.13179353 0.13443653 0.06806404 0.020496879 0.09677726
0.04777866 0.13112159 -0.15196645 0.120678075 -0.027650405 0.17705226 -0.04080249 -0.027136063

conv2.weight f4 [64, 64, 6]
00000000: 1c9f 4cba 23ca c93c 3bc3 d3bb cead 43bd
00000010: 1f29 953d fa9c 3ebd 5fd5 b23c 298a 6c3d
00000020: 0953 d93c b7f4 603d ef26 84bc f2ca 0fbd
00000030: 021c 39bb ef3f 4c3c c1ec 4bbc 46fc 0a3d
00000040: 4fb9 a2bc 076a f63c 25a0 0abd a66d a7bc
00000050: 3027 363c 6316 173d 51e3 8ebd 0a45 78bc
00000060: 7111 b13c ba10 6ebb b89e a43c a4f3 33bd
00000070: 4a4f c03c 23a5 ba3b 1685 133c fbe9 2bbd
00000080: fdfd 313c 4681 993c 4249 643d 04bd 4ebc
00000090: 92f0 f43c f9ec 183d 4f68 993c 69cb 943d
000000a0: 7b09 b33c 4cbf 943d 9d48 0cbb b1a3 eb3c
000000b0: efaa 8f3c d080 193b cd3d 3a3b aa96 8dbc
000000c0: bec5 d63b 1375 923c b9df 573d df94 2a3d
000000d0: 19c5 bfbc 1349 db3b 6998 cdbc a401 d13c
000000e0: 7441 af3c e39e 2f3c 13dc 753d 2bd5 7ebc
000000f0: 383b dd3c 98a4 373d 1c3a 14bd 1eeb 18bd
00000100: 83a9 183d c5d1 4a3d b698 3abd 5d40 0e3d
00000110: 13d5 0b3d d8a6 2f3c 6008 9fbc 3524 62bd
00000120: 9fa1 4fbd b3e2 c43b 3356 6e3b 8fc9 7ebd
00000130: d4e9 f9bc 00dc 9ebc 614a 95ba 44c5 993c
00000140: 3cc9 693c ecfc 76bc a256 aebc e760 23bd
00000150: 14c8 303d 3ffa 21b9 f7a6 893d 749f b53a
00000160: a89a 13bc 7ff3 7dbb 343d f7bc 4e2a 0b3c
00000170: 4152 ad3a 92a4 ad3b a5df 1c3d cbed a33c
00000180: 2b44 de3c 65b3 32bd 443c 9ebb 6273 d5bc
00000190: 7afe dd3c e377 0dbc 8b2a d83c c323 fa3a
000001a0: ac01 de3c 164b 9cbb 5a36 643c a2b3 823b
000001b0: 1205 d4bc 7300 95bc e837 04bd cfcc 0f3d
000001c0: c456 9a3b f511 853c 7ed6 04bd 7280 213c
000001d0: 3e98 4b3c f21a 983c cbd8 b6bc c85d be3b
000001e0: b077 783d 6fc4 d6bc 1d86 c5bc 49c6 443d
000001f0: 7c9c b4bc 93c8 f3bb c223 223d a19a 553b
00000200: 8166 0bbc c9ee cdbb 135f ebbb d4d4 2d3d
00000210: b2f4 52bc de0f fd3c 5c57 5dbd 61ad 783c
00000220: 5359 803b 92df babb 5c40 8f3c 9556 033d
00000230: e0da 67bd a9cc cdbc b546 1abc 91a1 0fbd
00000240: 6e9f febc 8cb8 3ebd 2137 0c3c 1797 28bc
00000250: e5e0 113c 4904 6dbd a6d6 4abc 149f d7bc
00000260: 8cfa fc3c f923 393c 9f04 dd3c 20b2 763c
00000270: 9ac5 92ba 4fef dfbc 5ad3 c6bc 1928 dfbc
00000280: 71da 5c3c c33f d3bc c5c6 91bb 2369 08bd
00000290: 3c3a 1a3d ca3e 8cbd c7d3 813b 0776 35bc
000002a0: 76a8 71bd acc3 4dbc 7755 2dbd 99f2 b9bc
000002b0: 80b4 77bd 8c2e 51bd 0117 3ebd ff21 473d
000002c0: 0b30 babc 0589 193d 3a23 073d a6c6 32bd
000002d0: 58d6 a8bc 4117 fb3c 281a 44b9 1fc7 d23c
000002e0: d8c4 33bd 0a18 db3c 9d01 27bd af5b e53c
000002f0: 4d74 043d e62d 61bc e05b 83bd 6413 16bc
00000300: 84a8 40bb 0cda 85bc d551 32bd f740 7abd
00000310: 1fd3 04bb 4faf 1fbd b867 533d 578b 06bc
00000320: 97be f13c b748 cdbc bd2f 3cbd 51dc fc3c
00000330: 3487 07bb bffa 033d fc18 a2bc 09a0 3c3d
00000340: 7c05 52bd fc52 263d f18c 1cbd f8a9 c3ba
00000350: 5dc0 65bc f574 bb3c 2d5c 573d 42c2 4e3b
00000360: e4ba c33c d386 a33c fa7f 453c e67e 203d
00000370: 34ea 03bd 99e9 9bbc d8c2 be3c a7b7 453d
00000380: 1f27 a43c 4100 613d c2cc 153d 0eff 99bc
00000390: 2f4a 063c 2c23 9a3c d697 f43c a825 943c
000003a0: 6844 62bd 9fc2 26bd c899 233d 6cb0 ebbc
000003b0: 6fed 0ebd 8c86 67bd cfa5 51bc 9b9c e1bc
000003c0: 449a 31bd e2d6 7e3d a9a9 18bd 8eb1 fbbc
000003d0: 0c92 f3bb 9647 693d e501 00bd 834f 903c
000003e0: 1179 f23c 413f f7bc 1918 5c3d 3103 e2bc
000003f0: a7d0 fdbc 6f82 c63c 51ff 09bd 8ec1 9a3c
-0.00078056916 0.02463252 -0.0064624823 -0.047773175 0.07283234 -0.046536423 0.021830259 0.057748947
0.026528852 0.05492088 -0.016131846 -0.035105653 -0.0028245454 0.012466415 -0.012446583 0.033931993
-0.019863753 0.030079855 -0.033844132 -0.020438027 0.011117741 0.036886584 -0.06976951 -0.015153179
0.021614762 -0.0036325888 0.020095214 -0.043933526 0.023475308 0.0056959554 0.009003898 -0.041971188
0.010863778 0.0187384 0.055733927 -0.012618307 0.02989987 0.03733537 0.018726496 0.0726536
0.021855107 0.072630495 -0.0021405586 0.028764578 0.017537562 0.0023422725 0.0028418184 -0.017283756
0.0065543344 0.017878091 0.052703593 0.04164588 -0.023409413 0.0066920607 -0.025097089 0.025513478
0.021393515 0.010719034 0.060024332 -0.015553753 0.027005777 0.044834703 -0.03618823 -0.0373336
0.037271034 0.049516458 -0.045555793 0.03472935 0.03413875 0.010720931 -0.019413173 -0.05521031
-0.050691243 0.00600847 0.0036367297 -0.06220394 -0.030507006 -0.019392014 -0.0011389964 0.018770821
0.014269169 -0.01507495 -0.021281544 -0.039887335 0.04315956 -0.0001544738 0.06721299 0.0013856725
-0.009009041 -0.0038749871 -0.030180551 0.008493973 0.0013223366 0.0052991593 0.03829922 0.02001085
0.027132114 -0.043628115 -0.0048289616 -0.026055995 0.027098883 -0.00863454 0.026387474 0.0019084144
0.027100407 -0.004769693 0.013928974 0.003988699 -0.025881324 -0.01818869 -0.03227988 0.03510743
0.0047100503 0.016243914 -0.03243112 0.009857284 0.012426434 0.018567536 -0.022320172 0.0058095194
0.060661018 -0.026216714 -0.024111802 0.048040662 -0.022047274 -0.007439682 0.039584883 0.0032593387
-0.008508326 -0.006284569 -0.0071829646 0.042439297 -0.012875723 0.030891355 -0.05403839 0.0151780555
0.0039168983 -0.005702921 0.017486744 0.032064993 -0.05660522 -0.025122004 -0.009416272 -0.03506619
-0.031081881 -0.046562716 0.008558066 -0.010289929 0.008903717 -0.057865415 -0.012380278 -0.026320972
0.030881189 0.01130008 0.026979743 0.015057117 -0.0011197806 -0.02733579 -0.024270702 -0.0272408
0.013479815 -0.02578724 -0.004448744 -0.03330339 0.037653193 -0.068479136 0.0039620134 -0.011075503
-0.058998547 -0.012558859 -0.042317834 -0.022698687 -0.060474873 -0.05106978 -0.046408657 0.048616406
-0.022727987 0.037484188 0.03299258 -0.043646477 -0.02061002 0.030650737 -0.0001870176 0.025729714
-0.043888897 0.026744861 -0.040773023 0.02799782 0.032337476 -0.013743853 -0.06414008 -0.0091598965
-0.0029397318 -0.016339324 -0.043535072 -0.06109711 -0.002026744 -0.038985547 0.051612586 -0.008211932
0.029509826 -0.025059087 -0.045943964 0.030866774 -0.0020679953 0.032221552 -0.019787304 0.04605106
-0.05127476 0.040606484 -0.03822035 -0.0014927974 -0.014022914 0.022882918 0.05257814 0.0031548892
0.023892827 0.01996175 0.012054438 0.03918352 -0.032205775 -0.019032286 0.023286268 0.048270848
0.020038186 0.054931883 0.036572225 -0.018798377 0.008196398 0.0188156 0.029857557 0.018084362
-0.05524102 -0.04071295 0.03994158 -0.028770648 -0.034894403 -0.0565248 -0.0127958795 -0.027540496
-0.04336001 0.062216647 -0.037271176 -0.030724313 -0.0074331816 0.056953035 -0.031251807 0.01761604
0.029598745 -0.030181529 0.05373392 -0.027589412 -0.030983282 0.024232117 -0.033690754 0.018891122

conv2.bias f4 [64]
00000000: 7cb0 28bd db54 2c3d fdd5 d7bb cc3a 133d
00000010: 8944 95bb a645 9c3c 62ff f8bc 545f 1c3c
00000020: aef1 90bc 5383 e43c 4828 3bbd f38e 47bd
00000030: 7eb7 0d3d 0dc5 b1bc 8acf 15bd 39c9 56bd
00000040: d268 80bc 2cea a53b 198d 643d 6cb2 28bd
00000050: 09ef fc3c 8383 513c 1054 c7bc be00 22bd
00000060: 2bbb edbc a382 0dbd 4e4d 253d 75d4 13bd
00000070: b877 e9bc 0202 38bc 5c53 8fbc d993 dc3b
00000080: b82d 25bd 21af 30bd f28a 403d c10c 37bd
00000090: c8ba af3c c737 a73b a564 a23c 73b3 a1bc
000000a0: 73e2 8ebc 5b1e 003d fa37 2f3d 9e57 f83c
000000b0: 8549 173d 0a45 a03c 1262 533c 57f8 2b3d
000000c0: 891e f4bc 2f73 473c b6be 14bd 30c7 09bd
000000d0: a6fa 21bd 2f8f 3b3c ab50 4a3c 3941 5bbd
000000e0: 7837 ecbc aab2 eebc 3c5b f0bc 83de 60bd
000000f0: 9282 6abd 8b09 0bbc 8710 29bd 675f e83c
-0.041183934 0.042073112 -0.0065867887 0.035944745 -0.004555289 0.01907618 -0.030395214 0.009544212
-0.017693367 0.027894652 -0.045692712 -0.04872031 0.03459882 -0.021700406 -0.036574878 -0.052437995
-0.015674982 0.005063316 0.055798624 -0.04118578 0.0308757 0.0127877025 -0.024332076 -0.03955149
-0.029019913 -0.034548413 0.040356927 -0.036091287 -0.02849947 -0.011230947 -0.017495804 0.006731492
-0.040326804 -0.043135766 0.04700751 -0.044689897 0.021451369 0.0051030847 0.019823382 -0.019738888
-0.017441964 0.03127895 0.042777993 0.030315217 0.036935348 0.01956417 0.0129018 0.041984882
-0.029799717 0.012173458 -0.03631469 -0.033637226 -0.039545678 0.011447712 0.012348334 -0.053528998
-0.028835043 -0.029137928 -0.029340379 -0.054899704 -0.057253428 -0.008486162 -0.041275527 0.028365804

conv3.weight f4 [64, 64, 3]
00000000: a643 073d 101c 3a3c 6018 15bc d844 0ebd
00000010: 882e 5bbd ca21 463d 0c92 143d e2e0 883d
00000020: c0cc ff3a a85c 5d3d a675 86bd da0b 2bbd
00000030: 5fcf 4fbd e4a0 f93c 26c9 0d3d 94a8 7a3d
00000040: 241d 243d 1490 dc3c 347f 09bd e4fa 893c
00000050: 2c7f 253d 221e 563d b880 623c e841 cdbc
00000060: bb23 6cbd 533c 17bd ee22 0d3d 4423 6c3d
00000070: 18d4 763c 58ed 5a3d b465 e23c 10a1 b63c
00000080: 4093 0ebb 0b71 25bd 98d6 3cbd 307c 2e3c
00000090: 2cfa 5bbc 94d1 793d 801d 45ba 0c04 f33c
000000a0: f403 64bd 0e86 74bd ae24 893d 3a57 1bbd
000000b0: 658d 23bd 026d dfbc 0dd8 76bd 7453 39bd
000000c0: 0286 3d3d 924e 133d f07f 12bc ba46 863d
000000d0: b096 c33b 18df 5abd de50 0a3d 385c 843d
000000e0: 1023 cebb 5432 92bd e8bf 583c 5471 e6bc
000000f0: 3e15 55bd 901e 613d c4d6 4c3d 88bb b63c
00000100: b6ae 173d c007 f73c 0ebe 49bd 80e3 7d3d
00000110: d463 18bd bc66 a53c a9a3 15bd 5843 de3c
00000120: 2457 c13c 2640 333d 2cc5 d0bc ccd6 76bd
00000130: cccf 81bd b08f e2bc 64b3 4fbd e427 b2bc
00000140: 8c40 763d a0e3 9d3c 377e 86bd 389f 603d
00000150: b047 c6bb 8a5d 5fbd 3818 d0bc 983f 8cbd
00000160: 7000 953c fab4 92bc faa7 863d 156b 86bd
00000170: 0c9c e13c b02e 21bc d8a0 143d c0f7 003d
00000180: 5c20 7f3d f7e8 05bd e800 613c 1059 2fbc
00000190: d2c1 8ebd 203d 563c 4817 103c a085 8fbd
000001a0: b066 9c3b e227 a3bc 8066 ba3c 08fa 353c
000001b0: 2077 313c 19ad 93bd 2c0d 243d fc15 523d
000001c0: 9ebb 8a3d 1a79 923d 9c9f 66bd 5529 2dbd
000001d0: d887 653d 026b 3cbd bc70 5ebc f6e1 033d
000001e0: c0ed 99bb d889 8dbd 8818 e53c 08e8 5e3d
000001f0: 80af 1d3d 92f0 fbbc 00af 59bb 00be c93b
00000200: 44e4 663d 2a40 043d c4b0 623d c01c 323d
00000210: 86c8 893d ba49 9bbc 167b 1a3d 0e45 60bd
00000220: 25e1 13bd 0cd2 3c3d 7284 b2bc 0ef5 85bd
00000230: 2790 05bd c40f 2dbd e026 79bb 5cf6 983c
00000240: 85d6 48bd 8a3f 3f3d 9109 36bd 0450 2a3d
00000250: dfec 5ebd 22f3 8d3d b2f9 533d 20cd a73c
00000260: 643e f73c c013 7e3d c010 d3bb 3e20 eabc
00000270: da47 64bd 00f4 e638 1076 93bb c4e8 babc
00000280: ac77 d23c 12b0 8ebc bc9c eabc 0809 593d
00000290: 846e 46bc 118e 42bd 8857 a7bc 60aa 343d
000002a0: 0e81 823d 4a2b 69bd 3a5e 843d 10f8 e93b
000002b0: 2812 5d3d 8bd9 82bd 6808 5a3d b6b5 4dbd
000002c0: b0b9 313d 9c8e cd3c 3024 953b 2a3c 6abd
000002d0: 0cfc 6a3d 4e13 163d c8d1 873d ac37 8c3d
000002e0: f42e 9f3c dc6b 63bc eb11 10bd 0b02 69bd
000002f0: 8045 02bd c095 503c 207c 123c ec73 2cbc
00000300: 3899 73bc 66c1 273d 5ac8 58bd 807d 2dbb
00000310: b8a8 59bc c028 f33c 60a9 3c3c b080 643c
00000320: 00b0 1db8 ac26 5c3d 90e3 ffbb 2830 8c3d
00000330: ca06 573d 1e61 2fbd 6040 9e3c 1012 f6bb
00000340: a0ae efbb f04e f83b 5f8b 68bd 1cd0 ae3c
00000350: 7af6 50bd e838 4ebc 10ab 223d a4a5 5abc
00000360: 006b b03b 2c9f 92bd 7107 84bd 5957 3abd
00000370: 392f 20bd c09a e13c 780b dfbc e011 2ebb
00000380: 902b 4ebc e175 4cbd 660a edbc a067 13bb
00000390: 7e6a 803d 9a8d 933d f83c 123d b625 143d
000003a0: 4070 efbb 0d9e 66bd a2d1 cdbc 8c59 633d
000003b0: f1c9 44bd 70cf f0bb 6064 88bd 546e 2ebd
000003c0: 6ce2 0e3d 96fa 50bd 8a8e 8e3d 48ed 663c
000003d0: c47c f43c b491 8cbc 0020 9237 2003 713d
000003e0: 70ca 20bd fc38 2dbd 98be 3bbd a72c 86bd
000003f0: c9ff 71bd 121b d5bc 0096 a73c 0845 5c3c
0.0330235 0.01135923 -0.00910005 -0.034733623 -0.053511173 0.048372068 0.036272094 0.06683518
0.0019515976 0.054043442 -0.065654084 -0.04175935 -0.050734874 0.030472226 0.03461566 0.061195925
0.040066853 0.02692417 -0.033568576 0.016843267 0.040404484 0.05227483 0.013824634 -0.02505584
-0.057651263 -0.036922764 0.03445714 0.05765082 0.0150652155 0.053449005 0.027636386 0.022293597
-0.0021755248 -0.04039101 -0.04610309 0.010649726 -0.013426345 0.060990885 -0.00075193495 0.029665016
-0.055667832 -0.059698157 0.06696449 -0.037924983 -0.039929766 -0.027273659 -0.060264636 -0.045245603
0.046270378 0.035963602 -0.0089416355 0.06556459 0.005968891 -0.053435415 0.033768527 0.06462902
-0.006290801 -0.071385056 0.013229348 -0.028130211 -0.05202221 0.054960787 0.050009504 0.022306219
0.03703185 0.030155063 -0.049253516 0.06198454 -0.03720458 0.02019059 -0.03653303 0.027131721
0.023601122 0.04376235 -0.025484644 -0.06026344 -0.06338462 -0.027656406 -0.05070819 -0.021747537
0.06012015 0.01927358 -0.06567042 0.054839343 -0.0060510263 -0.054532565 -0.025402173 -0.06848067
0.018188685 -0.017908562 0.06575008 -0.06563393 0.02754023 -0.009837791 0.036286205 0.031486273
0.06228672 -0.032692876 0.013733126 -0.0107023865 -0.06970562 0.013076097 0.008794613 -0.07007909
0.0047729835 -0.019916479 0.022753954 0.011106975 0.010831624 -0.0721075 0.040051624 0.051290497
0.067740664 0.071520045 -0.05630456 -0.042275745 0.056037754 -0.046000488 -0.013576683 0.032197915
-0.0046975315 -0.06911057 0.027965799 0.0544205 0.038497448 -0.030754361 -0.003321588 0.006156683
0.056370035 0.032287754 0.055344358 0.04348445 0.067277 -0.018956054 0.03771504 -0.054753356
-0.036103386 0.046098754 -0.02179167 -0.06540881 -0.032608178 -0.042251363 -0.0038017556 0.01867216
-0.049032707 0.046691455 -0.044442717 0.041580215 -0.054425117 0.069311395 0.0517518 0.020483553
0.030181117 0.062030554 -0.0064412057 -0.028579827 -0.055732585 0.00011012703 -0.004500158 -0.02281607
0.02569183 -0.017417941 -0.02863919 0.05298713 -0.01211131 -0.047498766 -0.02042748 0.044107795
0.063722715 -0.05692605 0.06463285 0.007140167 0.053972393 -0.06389149 0.053230673 -0.05022212
0.043389976 0.025092416 0.004551433 -0.057186283 0.057369277 0.036639504 0.066318095 0.06846556
0.019431569 -0.013880696 -0.035173338 -0.056886714 -0.03180456 0.012731016 0.0089407265 -0.010525685
-0.014868073 0.040955923 -0.052925445 -0.002647251 -0.013284855 0.029682517 0.0115149915 0.013946697
-3.759563e-05 0.053747818 -0.00780911 0.068451226 0.05249671 -0.042817228 0.019317806 -0.0075094774
-0.007314518 0.0075777695 -0.05677354 0.021339469 -0.05101631 -0.01258681 0.03971392 -0.013345156
0.005383849 -0.07159266 -0.06446732 -0.045493457 -0.039107535 0.02753961 -0.027227148 -0.0026560947
-0.012583628 -0.049917106 -0.028935622 -0.0022492185 0.06270312 0.07204743 0.035702676 0.036168776
-0.0073070824 -0.056303073 -0.025124375 0.05550532 -0.04804415 -0.007348947 -0.0665977 -0.042585686
0.0348839 -0.051020227 0.06960781 0.014094658 0.02984465 -0.01715932 1.7419457e-05 0.05884087
-0.03925556 -0.042290673 -0.04583606 -0.065514855 -0.059081826 -0.026013885 0.020457268 0.013444193

conv3.bias f4 [64]
00000000: 9ece 1e3d e854 523c acb6 2f3d 24f9 ab3c
00000010: 2cc8 56bc 080b 143d b4b7 c3bc 7424 77bc
00000020: a958 91bd c81e 213c 149c 633d 400d 323b
00000030: 6079 9a3c 76e8 4f3d 761d b2bc 46dc 3abd
00000040: 44f5 4ebc 8a43 d2bc 4896 8c3d 7ac9 27bd
00000050: 3600 833d a08d bfbc 40ba 88bb 9e85 813d
00000060: 7ba8 69bd f891 013c ae52 a4bc bc9a 7e3d
00000070: 2824 ccbc d22c 1bbd d665 ebbc 7c67 7c3d
00000080: 48f1 9d3c 289a 16bc 0aa6 293d e2a6 8d3d
00000090: e03a 8e3b d6fd 173d 46f3 89bd 612d 04bd
000000a0: 8625 553d 6c64 0bbd 74ae 393d 22ba 403d
000000b0: eb45 10bd a05f 8cbb ea83 463d f415 303d
000000c0: d664 92bc c860 333c dd82 12bd aebe 3e3d
000000d0: 80ce 103c a983 53bd 84be b43c 0d90 1dbd
000000e0: 7043 fcbb aca9 7a3d 24f7 903d 6c70 9f3c
000000f0: d005 4e3d 2ec3 92bc d813 943c d733 76bd
0.038771264 0.012837626 0.04289882 0.020992823 -0.013109248 0.036143333 -0.023891307 -0.015084375
-0.07096989 0.009833999 0.05556877 0.0027168542 0.018856704 0.0507588 -0.021742564 -0.045620225
-0.012631718 -0.02566697 0.068646014 -0.040963627 0.063965246 -0.023382962 -0.0041725934 0.063243136
-0.05704544 0.007908337 -0.020058956 0.062159285 -0.024919584 -0.03788454 -0.028735083 0.061622128
0.01928009 -0.009192027 0.041418113 0.06916596 0.0043405145 0.03710731 -0.06735854 -0.03226984
0.05203774 -0.034031317 0.045332387 0.04705251 -0.03522293 -0.0042838603 0.048465647 0.042989686
-0.017870348 0.010948367 -0.035769332 0.046568565 0.008838296 -0.051639233 0.022063501 -0.038467456
-0.007698469 0.061196968 0.07078388 0.019462787 0.050298512 -0.017915335 0.018075868 -0.060108032

fc1.weight f4 [100, 384]
00000000: c4e7 413d 3031 0c3d 670f 053d c03f 98bc
00000010: 350c f33c 2d3d 80bc d1da e7ba 4a5a 60bc
00000020: c8f9 ebbc f43f a4bc 4f17 213b 66c7 923c
00000030: 7ab6 d1bc c2e8 853c ae16 37bd 4247 5ebd
00000040: 7169 8c3c e848 41bd 34bc da3c 4dde c5bc
00000050: c19c eebc 285a 47bd ef67 bfbc 5c7c 93bb
00000060: d840 983c ea34 02bd 3b5f e5bc 67bf c63c
00000070: 2343 c6bb 23ab e1bc 98d0 5e3c 32fd 32bd
00000080: 80b4 bfbb 6893 9c3b 1450 ba3c 1a97 483d
00000090: f863 79bc b439 1e3c 4099 713a 4384 01bd
000000a0: 123b 03bd 14e1 61bc 3c4e efbc f5fc d0bc
000000b0: 83ee 693d 5286 513c 2787 4b3d 54ce 0a3d
000000c0: 665b 983c 8fa2 f13b db07 953c c729 d83c
000000d0: f12d 3dbd 8a5e d1bc c19b 663c c3f7 793c
000000e0: 4f74 d0bc fa91 253d c575 c83c 0b5c 12bd
000000f0: 2b56 76bd c283 a9bc 224d 053d 34c0 83bc
00000100: f356 56bc 3bcc a33b 641e 6abd ed23 36bc
00000110: 6f12 c8bc 1483 4bbd 9033 13bd 4707 e43b
00000120: 0f57 3dba 52d6 3dbd f14e 62bc 827c dfbc
00000130: 14ce f43c c957 ecbc f992 f6bc 1eed b73c
00000140: 7286 d6bb 7550 bbbc c004 1fbd 48fc 103c
00000150: c02f f03c e820 7f3c 60e5 043c c0c6 2cbc
00000160: 16a0 02bd 0a39 1f3d 1313 09bd 3cfa a2bc
00000170: 77e4 d6bc 6feb 19bd 829e 5fbd 9090 4abd
00000180: 4718 863c 4dbb c6bc c0d2 903c 5aa9 21bd
00000190: 137b 5c3c 32da 243d f8c7 85bc bc1e 9d3c
000001a0: 8aff 0fbd 06ff e03b 3d6e 8db9 91a6 31bb
000001b0: cbb0 32bc 8e9c f53c c7a2 6ebd f614 27bd
000001c0: 0755 07bd faad 7a3a b833 c43c 40b1 8bbc
000001d0: 206d 98bc 0026 9c3b 98a0 c33b 24ab cb3c
000001e0: 1c7d 653d 135c 713c 07f9 183d 8023 0bbd
000001f0: 6aa3 4b3d 4384 373d 745a 64bd c537 ae3c
00000200: 9918 1f3d c1a3 5dbd 47c3 4bbd 9bf9 c1bc
00000210: 9355 993c 9f9c 24bd 0e9f 59bb c0d8 a0bc
00000220: 4d06 213d f93c 50bd d0d9 05bd ff77 413c
00000230: a462 3dbd 4ca4 d63b 990f 26bd ccba 01bd
00000240: 8b02 093d 62d1 0c3d bca6 9ebc 0c9e 74bc
00000250: 56e2 0dbd 6d45 203c 52c6 94bc 54ea 69bc
00000260: c4cf 083c 3a55 eabc d299 123d 51f7 d1bc
00000270: 7b77 61bd b5f2 50bd 9d5a 8abd 157b ae3c
00000280: 874e 4abd 993c 923b 6ecb 3dbd a0df 7c3b
00000290: c243 403d f6bc 343d 326e 4f3d f976 c2bc
000002a0: 3b47 b73c 898d be3c b96d d53b c51e dabc
000002b0: 8d62 efbc f1be 27bd 681b d23c 6823 6abd
000002c0: 1d62 9a3c 90c8 4bbd 7217 3fbd 5f6b 22bd
000002d0: 8556 af3b ffb2 12bd 9f68 a3bb 7adb 2ebd
000002e0: be69 5abd 6889 db3c e1eb 11bc 3399 59bc
000002f0: 25d0 cdbc fe50 723c f32a e43b 02ca a03c
00000300: 44ba b63c f29a 19bd f0c8 403d 6cf5 1e3d
00000310: e3dd 4cbc 3626 483d 0d3a 48bd 9fc7 59bd
00000320: e033 433c 3e70 ca3b 7069 e23c 5261 3fbd
00000330: 20af e63c bada 12bd 9161 a1bb 302f a43c
00000340: 9dac c73b 8420 5abd c7c0 d93b 01c4 3f3c
00000350: fb9e 5abd 0ed9 e4bc 2a2b 143c 46fe 64bd
00000360: 48e1 7cbc 08f0 213c 4ce9 d63c f47b 80bc
00000370: 90d6 45bb ffff 503c ef65 773d 242b 2f3d
00000380: 8c4c 1bbd fc16 203c 742e 7c3d 2b4c 07bd
00000390: cd8f 3dbd 0013 ec3a e1cd 16bc d23d 9ebc
000003a0: ac0c eebc c81d 633c 64d0 133d dea1 11bd
000003b0: 5f89 31bd a0a9 b23b 74c8 8f3c 7a0b 4f3d
000003c0: 1752 d9bc 5bd6 be3c 958e 183d 7be1 483c
000003d0: eff0 6d3c 6b3e c8bb 70da 403d a8d8 3f3c
000003e0: 50ab ba3b a0a1 8a3a bb15 20bd 0030 8c3c
000003f0: 77ad 8a3a cd7b 3c3d dd45 b1bb 204c b33c
0.04734017 0.034226596 0.032485392 -0.018585086 0.029668907 -0.01565417 -0.0017689114 -0.013693402
-0.028805628 -0.020050026 0.0024580543 0.017917346 -0.025599707 0.01634634 -0.044699363 -0.054267175
0.017140122 -0.04718867 0.02670107 -0.024153853 -0.02912748 -0.048669964 -0.02336499 -0.004500909
0.018585607 -0.031788744 -0.027999511 0.02426119 -0.006050484 -0.027547425 0.013599537 -0.043698497
-0.0058503747 0.0047783144 0.022743262 0.048972227 -0.015221588 0.009657312 0.00092162564 -0.031620275
-0.032038756 -0.013786573 -0.02921211 -0.025511244 0.057112228 0.012788372 0.04968944 0.033888176
0.01859827 0.007374115 0.018192222 0.026387108 -0.04618639 -0.025557775 0.014075221 0.015256825
-0.025446085 0.040422417 0.02447022 -0.03573231 -0.06014077 -0.02069271 0.032544263 -0.01608286
-0.013082254 0.0049987114 -0.05715789 -0.011116964 -0.024422852 -0.049685553 -0.035937846 0.0069588753
-0.00072227506 -0.04634697 -0.013812766 -0.02728105 0.029883422 -0.028850453 -0.030099379 0.022451933
-0.006546789 -0.022865513 -0.03882289 0.008849211 0.029319644 0.01557181 0.008111328 -0.010545433
-0.03189095 0.038872756 -0.033465456 -0.019894712 -0.026231987 -0.037578043 -0.054594524 -0.04945427
0.016368998 -0.024259234 0.017678618 -0.039468147 0.013457078 0.04024715 -0.016330704 0.019179694
-0.03515581 0.0068663387 -0.0002697575 -0.0027107338 -0.010906409 0.029981878 -0.058260705 -0.040791474
-0.033040073 0.00095626677 0.023950443 -0.017052293 -0.018606722 0.004765272 0.005970072 0.02486188
0.056027517 0.014731425 0.037346866 -0.033969402 0.04971639 0.04480387 -0.055750325 0.021266827
0.038841818 -0.054111246 -0.049746778 -0.023678591 0.018717563 -0.040188428 -0.0033206376 -0.019634604
0.03931265 -0.050839398 -0.032678425 0.011808394 -0.04623665 0.0065503474 -0.04054222 -0.031672284
0.03344969 0.03437937 -0.019366615 -0.014930259 -0.03463968 0.009782177 -0.018160973 -0.01427706
0.008350316 -0.028605092 0.035791226 -0.025630625 -0.055045586 -0.051012713 -0.06755564 0.021298924
-0.049391296 0.00446279 -0.046336584 0.003858544 0.04693962 0.04412552 0.0506422 -0.023738371
0.022372833 0.023260849 0.006513324 -0.026626 -0.029221797 -0.04095358 0.025647834 -0.057162672
0.018845612 -0.04975182 -0.04665322 -0.03965318 0.00535089 -0.035815235 -0.004986837 -0.042689778
-0.0533235 0.026798919 -0.008906336 -0.013281154 -0.025123665 0.014789818 0.0069631278 0.019627575
0.022305615 -0.037501283 0.04706663 0.03880827 -0.012504074 0.048864566 -0.048883487 -0.05316889
0.011914223 0.006177931 0.027638167 -0.04672367 0.028159678 -0.035853125 -0.004924961 0.020042032
0.006093575 -0.053253666 0.0066452953 0.011704446 -0.05337427 -0.027935531 0.009043494 -0.055906557
-0.015434571 0.009883888 0.026234291 -0.015684105 -0.0030187704 0.012756347 0.060399946 0.04276575
-0.037914798 0.009771105 0.06156774 -0.033031624 -0.046279717 0.0018011034 -0.009204359 -0.019316588
-0.029058777 0.013862081 0.03608741 -0.03555476 -0.043343898 0.00545235 0.017551638 0.050548054
-0.026528401 0.023295572 0.03724535 0.01226079 0.014522775 -0.0061109564 0.04708332 0.01170937
0.0056966916 0.0010576732 -0.039083224 0.017112732 0.0010580261 0.046016503 -0.0054099397 0.021886885

fc1.bias f4 [100]
00000000: b586 dd3b 2543 5d3d fad1 0e3d 3111 ce3c
00000010: a013 f2bc fdea 023d 627e 2b3d eb2b 973c
00000020: 2d83 dabc 90e6 ba3c 6472 05bd 1ccf 483d
00000030: 361e c53c 7c37 e7bc c8a6 d7bb 144b efbc
00000040: 84ad 5d3a f06b a43c 848a 313d 3479 c4bc
00000050: 9608 3bbd 9c91 b03c fff0 00bd 8685 943c
00000060: 0e34 c33b 3fbc 423d 1b1e ee3b 795c e1bb
00000070: fae0 04bc 88c6 eb3c 9b8d 27bd 12aa 6abc
00000080: 0e5a 18bd 9f1d 0cbd cdc4 cf3c fa6f f23c
00000090: 3495 b93b b614 7e3c 1550 543c 6a7f 253d
000000a0: 7f3c a1bc ae60 463c 23b7 22bc bfab d5ba
000000b0: 2d85 62bd 7e92 92bc f412 e43c e36e 97bc
000000c0: b2b4 a03a 95b9 783d 3304 eebc 3d02 11bd
000000d0: 8c2a dfbc 65ca b93c 0296 193d 56a2 1e3d
000000e0: 4422 27bd 3b63 683d 85f0 8b3c 1f6d 833d
000000f0: 060c 28bc a6c4 4b3d aea9 1a3c e1a3 733c
00000100: 8fae 09bc 8504 14bd 3e05 953b 3510 34bd
00000110: b790 b53b ffb7 763d 2065 56bd 7ba3 013d
00000120: 651c e0bc bf31 893c fdfb 2b3d 6416 0b3d
00000130: ed92 5abb 929f 95bc 4355 efbc 693b 9ebc
00000140: 3a37 d6bc f34f bdbb 128b 12bd 0963 7abc
00000150: 5f54 19bd fb17 353d 3c18 01bd 17ab efbc
00000160: c6b6 143b 316b bfbc 0c89 1e3d 8193 ed3c
00000170: 2625 8b3c a4d8 0ebd 02fe 20bd a178 80bc
00000180: 4686 e93c 899e 5f3d 6f52 4dbd 84af c13c
0.006760443 0.054019112 0.034868218 0.025154682 -0.029550374 0.031962384 0.041868575 0.018453559
-0.026673878 0.022815019 -0.032579795 0.04902564 0.024062257 -0.0282247 -0.006581161 -0.029210605
0.0008456337 0.020071 0.04334499 -0.023983575 -0.045662485 0.021553807 -0.03147983 0.018130075
0.005957133 0.047542807 0.0072667724 -0.0068774787 -0.008110279 0.02878119 -0.04090653 -0.0143227745
-0.037195258 -0.034207936 0.025362397 0.02959441 0.0056635384 0.015507868 0.012958546 0.040404715
-0.019682167 0.012108011 -0.0099313585 -0.0016301795 -0.055302788 -0.017892119 0.027841069 -0.018485492
0.0012260883 0.06072386 -0.029054737 -0.035402525 -0.027241968 0.022679517 0.037496574 0.038729034
-0.040804163 0.05673526 0.017082462 0.064172976 -0.010256773 0.049748085 0.009439869 0.014870615
-0.008403434 -0.036137123 0.004547744 -0.04396077 0.005540933 0.060234066 -0.052342534 0.031650048
-0.02735729 0.016747354 0.04198836 0.0339569 -0.0033351735 -0.018264566 -0.02921546 -0.019315438
-0.026149381 -0.005777353 -0.03577716 -0.015282401 -0.03743398 0.044212323 -0.031517252 -0.029256387
0.002269195 -0.023366543 0.038704917 0.029001 0.016985487 -0.034874573 -0.03930474 -0.01568252
0.02850641 0.05459455 -0.050127443 0.023643263

fc2.weight f4 [5, 100]
00000000: 555d c7bd a1b4 d73d dcbc 863c c6c6 a63c
00000010: e528 01bd 7cd4 ca3d 769e 5bbd d7ca 983d
00000020: 7505 ac3d 0867 d83d 325e 733d 1336 363d
00000030: 384e e8bc 2e1d 86bd 3f30 98bd e3c6 ad3d
00000040: 7fd8 b13d 0f9c 6cbd dcc2 483b c0d8 55bd
00000050: b4e7 cabd aad9 65bd 1702 a33d 4843 9ebd
00000060: 5853 4b3b 78cb 6c3d 5427 223d 9ce7 c4bc
00000070: b3a0 4abd 93cf 2b3d a0db 70bc 2e02 06bc
00000080: 1a71 7a3d eaa0 18ba 02c3 37bd b208 c8bc
00000090: 4b49 2bbd 32ca 0c3d 7e3d fe3b 2d49 9a3d
000000a0: 9487 303d c2c9 ecbd b95d cbbc 50b8 5d3d
000000b0: b73f ba3d c47f b63d b56c 51bd 78fe 823d
000000c0: b100 53bd f8b9 f43c 3da3 ddbc 79e6 833d
000000d0: acaa 78bd befb 27bd ec84 8a3d 9551 a33c
000000e0: ed2b 703d 0a56 033d 345a e5ba 7256 b13c
000000f0: a281 c33d 39d7 e73d eaae dd3d e6eb 84bd
00000100: 5d70 203d 9427 8abd 8b79 db3d ba37 df3d
00000110: fbef 85bd b076 3e3d 62dd 513d bb86 6c3b
00000120: 4ffd 9ebd 9229 4abd 4144 ebbd 1b93 0abd
00000130: c2da d33d 3b22 bfbd 4bb3 6e3d a62c ae3d
00000140: f56a 04bc 3625 e6bd c10d 803c 13cd 293c
00000150: f3c9 a7bd a184 9b3d f490 de3c 6422 97bd
00000160: 41b9 a63d c01e dc3c 0fc5 bcbc 2870 4bbd
00000170: fd11 c6bd 2eeb 82bc 6459 d1bd 0425 c33d
00000180: ba4f 8abd 0e33 153d 5fed 803c 4488 56bd
00000190: 264b 8e39 7897 333d 0778 3a3d 676e b43d
000001a0: 5710 bbbd d871 123d 7efb 5cbd 2eb8 22ba
000001b0: c1bc 163d 967d e9bc 3972 6d3d 0de7 c2bd
000001c0: d2d4 963c 455d 503c 0b85 7c3d 1de1 e0bd
000001d0: 2352 b7bd 92a1 993d 6e22 14bc fd2c 7e3c
000001e0: 3e10 2cbc 627e bf3d 6c08 373d 1789 373c
000001f0: e249 873d 7d51 24bb 9943 c2bc 25f6 a8bd
00000200: 7f6b d9bc 7c06 a93d 0562 083d b55a 8e3d
00000210: a757 afba 8d16 b1bc 0008 b43d ee39 0ebd
00000220: 234b febd 1d60 953d c9d5 13bc 1b7e fc3b
00000230: 438c 5ebd ff8f c4bd e29a c9bc 1159 00bd
00000240: 931a 483d 82f3 87bd d4a2 aabc 594c 8bbc
00000250: ecc5 7f3d d43c 54bd d172 863c 3e19 a8bd
00000260: bbb6 ba3d 2503 8fbd b277 133d af6a c93d
00000270: 5b57 c2bd ddc8 2cbd 35a6 bfbd 49ad a9bd
00000280: 515f 4cbd 265d 1bbd 6b7d 233d aff3 a3bd
00000290: d117 48bd 8bd2 803d c208 c13d 5c85 93bd
000002a0: 9235 17bd 3386 2e3d cdce 473d b1b0 3c3d
000002b0: 9903 d6bc c83f c43c 7566 0cbd bfc5 8dbd
000002c0: 7baf 92bd bcfb 8fbb d4f6 9b3c f725 bbbd
000002d0: d873 b1bd eab0 48bb a8c5 51bd d3d8 b6bd
000002e0: e613 033d 1447 d0bd 293c 29bd dde9 a9bd
000002f0: 4298 1f3d aec4 a3bd cb76 923d 71b6 5fbd
00000300: 5780 94bd b099 e4bd e65e 1a3c 1bca c2bd
00000310: d82b a03d ed58 9fbd 85c9 30bd 4aa3 843d
00000320: 0b8f 283d c148 0bbe a031 bc3d 26ba 963c
00000330: 4575 0dbe 51c0 58ba 8967 993d 4bcc f6bd
00000340: 4de5 f73c 1daa e9bd 84fe 11bc 7326 b1bd
00000350: fa94 9dbd d098 733c 588d 4cbd 07d5 8d3d
00000360: 707b 723c 98bd d9bb 9e6e 8d3d ed53 fc3d
00000370: df41 623d 9a5f 5dbd aeaf dbbc d398 17bd
00000380: 641b a5bd 7bfa 8ebd 48b2 b23d b658 05be
00000390: b338 153c 02bd 9f3d a512 a4bb 0734 d33a
000003a0: d58e 0ebc d154 413d 3764 2a3d 9146 d7bd
000003b0: 57be f53d 7254 543d 96be 323d 456d 8b3c
000003c0: 9327 84bd 326f 973d a790 863d afe1 93bd
000003d0: f26c 03bd f553 5bbd 9e66 c9bd 593e 35bd
000003e0: 8045 073d 94b8 783d ea41 993d 2f3b 9cbd
000003f0: 6ba7 3d3c 8ba5 8cbc 7d2a 8a3d d669 b0bd
-0.097345985 0.10532499 0.016447477 0.020358454 -0.03153314 0.099038094 -0.053617917 0.07460564
0.08399478 0.10566527 0.059416004 0.044485163 -0.02835761 -0.06548534 -0.07431077 0.084852
0.086838715 -0.057766017 0.0030633723 -0.052208662 -0.09907475 -0.056115784 0.07959383 -0.07727677
0.0031025019 0.05781123 0.039588287 -0.024036221 -0.04946966 0.041946005 -0.0147008 -0.008179231
0.06114302 -0.0005822318 -0.04486371 -0.024418209 -0.041817944 0.034372516 0.0077587953 0.075334884
0.043098047 -0.1156192 -0.024824964 0.054130852 0.09094184 0.08911088 -0.05112906 0.06396192
-0.05151433 0.029873833 -0.027055377 0.064404435 -0.06070964 -0.041011564 0.06763634 0.019936362
0.05863564 0.032064475 -0.0017498196 0.021647666 0.0954621 0.11320347 0.10824378 -0.064903066
0.039169658 -0.0674583 0.10716542 0.10899301 -0.06539913 0.046499908 0.051236518 0.0036091048
-0.077631585 -0.04935605 -0.11487628 -0.033831697 0.10344459 -0.09332701 0.058276456 0.0850461
-0.008082141 -0.11237566 0.015631558 0.010363835 -0.08192816 0.07593656 0.027168728 -0.07379606
0.08140803 0.026870131 -0.023043184 -0.049667507 -0.096714 -0.015981283 -0.10222128 0.095285445
-0.06753488 0.036425643 0.015738187 -0.052376047 0.0002714034 0.043845624 0.045524623 0.0881012
-0.09133976 0.0357531 -0.05395078 -0.00062072545 0.036801104 -0.028502267 0.05797026 -0.09516726
0.018412028 0.01271755 0.061650317 -0.10980437 -0.08951213 0.0750152 -0.009041412 0.015513656
-0.010501919 0.093502775 0.044685766 0.011202118 0.06605889 -0.0025072985 -0.023713874 -0.08250073
-0.026540516 0.0825319 0.033296604 0.06950895 -0.0013377563 -0.021617198 0.087905884 -0.034723215
-0.12416675 0.07293723 -0.009023138 0.0077054626 -0.054332983 -0.095977776 -0.024609987 -0.03133494
0.04885347 -0.06638242 -0.020829596 -0.017004179 0.062444612 -0.051815823 0.01641217 -0.082079396
0.09116884 -0.06983022 0.036002822 0.098348014 -0.09489318 -0.042183746 -0.09357873 -0.08285005
-0.04989559 -0.03793063 0.03991453 -0.08005463 -0.048850838 0.06290158 0.094254985 -0.07203171
-0.036916323 0.04260845 0.048781205 0.046066944 -0.026124762 0.023956195 -0.0342774 -0.06922483
-0.071623765 -0.0043940227 0.019038595 -0.091381006 -0.086646736 -0.0030623027 -0.05121389 -0.08928075
0.0320014 -0.10169807 -0.04131714 -0.08296559 0.038963564 -0.07996498 0.07151564 -0.05461735
-0.072510414 -0.11162126 0.00942204 -0.09511205 0.078208625 -0.07780633 -0.043160934 0.064764574
0.04115204 -0.13601972 0.09189153 0.01839931 -0.13814266 -0.00082684035 0.07490451 -0.120506845
0.030260706 -0.114094 -0.008910779 -0.08649912 -0.07694431 0.014867976 -0.049939483 0.06925397
0.014799938 -0.006644916 0.06905864 0.12320695 0.0552386 -0.05404625 -0.026817169 -0.03701098
-0.08061865 -0.06981369 0.08725411 -0.13022122 0.009107756 0.07799722 -0.0050071054 0.0016113528
-0.008701046 0.047200028 0.04159948 -0.10511506 0.11999195 0.051838346 0.04363879 0.017019877
-0.06452861 0.07394256 0.06570559 -0.0722078 -0.03208632 -0.053546865 -0.09834026 -0.044248912
0.033025265 0.060722902 0.07483275 -0.07628476 0.01157556 -0.01716878 0.06746385 -0.086139366

fc2.bias f4 [5]
00000000: 6210 8c3c 810e 943c d316 81bd 83b0 bc3d
00000010: 87e8 b2bd
0.017097656 0.018073322 -0.063031815 0.092133544 -0.08735757
