LSTM.pth (torch, 101503 bytes, 6 tensors)

lstm.weight_ih_l0 f4 [256, 30]
00000000: c83f fb3d 6cbf 743d f0e9 d83d 40fa fe3d
00000010: f160 313e c322 183d 0e5b 763e 3c23 e33c
00000020: 01e9 1b3e 839d 843d f5d4 babc 0ba6 c73d
00000030: 84cc ee3d db9b e13d 55ec 963e 4fa2 183e
00000040: 939e a43e a535 c83d 9847 153e 8eae 6b3d
00000050: 655e 2e3e 11ce 293d 27b9 393e af45 223e
00000060: 6965 0d3d 341e 78bd aee5 713d 960e 83bb
00000070: 3405 15bd 0c21 213e d675 dfbe 1c40 edbd
00000080: f813 42be 9b48 98bd d752 27be 9132 83be
00000090: 5a12 05bf a262 64be 44e6 e6bd 84c1 3f3d
000000a0: 1355 48be d012 63be e9bf 4fbe 48a9 cebe
000000b0: d18e 2ebe fee3 24be e778 cdbe 148e 40be
000000c0: 578d 103e 44bd 14be d0d4 433e 371f 833c
000000d0: 5429 bfbc 79ee 67be 9be4 9fbe f893 67bd
000000e0: 79a3 56bd a337 86be 4c31 ccbe bf2d 84be
000000f0: 0323 c53d 508e bebd 5afa 3c3e 5164 233c
00000100: b522 8f3e 034c 9d3c 1cf2 99bb e88e 283e
00000110: cce7 f03a 2146 173e 8512 bb3c 85e3 96bd
00000120: c40e 493d 4fe6 d73d 3985 143e f2aa fd3d
00000130: c083 0f3e 6835 733e 81ad babc e145 eabd
00000140: fd06 babb 9b55 a63e 5f10 b43e d454 b23e
00000150: 7c6c 3b3d b98a c13d ea33 503e c0fb 423e
00000160: c82d 983e 63fc d73d 83e0 f1bd 0cc3 1fbc
00000170: 79f9 b7bd 2c53 feba e14e a0bb 3072 853d
00000180: a360 643e cd33 bcbd f9f4 fcbd 08d4 133e
00000190: b633 6bbe adb8 5d3e f648 14be 62d7 3d3e
000001a0: 14a0 64be 1713 bcbe 1026 1c3e f7e8 3cbe
000001b0: 9a0b 3ebd ef59 bdbb cc7d f7be 1ffa 01be
000001c0: d18b 99bc 41a9 493e 7689 9bbe 9de0 febd
000001d0: 7195 40be d5aa 95bd a437 b2bd c6d1 59be
000001e0: ed75 d4be db3a d5bd f17d 6bbe 9448 5ebe
000001f0: 3809 94be 477e 2bbe 9179 5abe 6628 96be
00000200: febe f9be 5aa6 fabe 9a48 abbe 12b2 c8bc
00000210: a471 7cbe d1c3 e9be de57 063d 039c c0bd
00000220: 3f1e 403d 4eb8 a1bd f1ac 6e3c 4947 2cbd
00000230: a6bd fabd 7b21 95be c213 66be 1336 e93d
00000240: 3221 37be 9eb4 b5bd 3d63 e5be ccf8 103d
00000250: 727d 5fbe 2fdb 36be 5b75 7ebd d689 2b3c
00000260: 4807 7ebd 9263 80bd 9f80 ea3d 2b89 2a3e
00000270: 069a ba3d 2566 11be 4de3 383d be11 e93d
00000280: 146c 2a3e 7cd3 463d e1c7 9fbd ed0f e9bc
00000290: 70ff fa3d a1e6 9cba 6811 053e 9c19 2e3e
000002a0: c658 263e 65f4 25bd c9ad 2cbe efc0 493e
000002b0: e0eb e83d 7e3d 723b 399b 73bd ad3f 7b3c
000002c0: a191 98bd dd3f 20be 52e3 4d3d e1dc ce3d
000002d0: 5089 f9be 9830 a4be 3474 f1be 2679 b0be
000002e0: 65e6 89be 6881 26bf bfcb c1be 55b7 fbbe
000002f0: ed52 663d 9c72 ffbc 4357 cfbd f91d bb3d
00000300: 50dd c3bc 677d 24be e110 173e 6f92 3cbd
00000310: 0606 41be 7154 8ebe b587 d6bd 8c93 62be
00000320: 9602 9fbe 6d52 09bf 372c bbbe 3b3f 4dbe
00000330: 4f87 26bf 0dd4 aabd c8dc 51be 4ecb c6be
00000340: ef2c 10be 791f 043e 0334 223e 51e8 c83d
00000350: 7996 fb3e 5ca2 94bd 3743 8bbe b332 f23e
00000360: 4fcb 31be 52b6 a9bd f63b 893e 576a a43d
00000370: c585 a9bd f0b3 803e d663 88be 77bf 733e
00000380: 749b 8b3d 8d20 2bbe 8267 503c b377 403e
00000390: 1978 e83d d594 683e 7a38 8b3c ac88 a6bd
000003a0: 07c9 13be cd67 3a3e 96cc 253e 7e29 d6bd
000003b0: 1dd1 263e a4ab c63d ad7c 383e 8fb7 54be
000003c0: 1d00 c6bc 60a7 56be 4966 a2be 840f c5be
000003d0: 8416 a43d 1417 14be 8d2f 00be f69a 8fbe
000003e0: 5062 80be e101 c4be 9e52 a0be 3bb8 223e
000003f0: db37 9cbe e4a8 56be ba23 3ebe ca96 a0be
0.12268025 0.059752867 0.10591495 0.12450075 0.17322136 0.037142526 0.24058172 0.027726762
0.15225603 0.064753555 -0.022806624 0.09748467 0.11660102 0.11016055 0.29477182 0.14905666
0.32152233 0.09775857 0.14578092 0.057539515 0.17028196 0.041456286 0.18137036 0.15846895
0.03452054 -0.06057568 0.05905693 -0.0039995415 -0.036381915 0.15735263 -0.4364459 -0.115844935
-0.1895293 -0.074357234 -0.16340195 -0.25624517 -0.5198113 -0.2230325 -0.112743884 0.04681541
-0.19563703 -0.22175145 -0.20288052 -0.40363526 -0.17046668 -0.16102597 -0.40131304 -0.18804199
0.14116417 -0.14525324 0.1912415 0.016006095 -0.023335136 -0.22649564 -0.312291 -0.0565376
-0.052401993 -0.26214322 -0.3988136 -0.25816151 0.096258186 -0.09304488 0.18454877 0.009972648
0.27956167 0.019201284 -0.004698051 0.16460764 0.0018379628 0.14772846 0.02283598 -0.07367615
0.049086347 0.10541975 0.14503945 0.12386121 0.14015102 0.23750842 -0.022787811 -0.114391096
-0.0056771026 0.32487187 0.3516874 0.34830344 0.045757756 0.09450287 0.20332304 0.19041348
0.29722428 0.10546186 -0.118104 -0.009751093 -0.0898313 -0.0019403449 -0.0048922156 0.0651592
0.22302489 -0.09189568 -0.12351412 0.14436352 -0.22968945 0.2165248 -0.14480957 0.18539193
-0.2232669 -0.36733314 0.15248895 -0.18448244 -0.046397783 -0.005778543 -0.48338163 -0.1269307
-0.018743427 0.19693471 -0.30378312 -0.12445185 -0.18807007 -0.07307974 -0.08702019 -0.21271428
-0.4149622 -0.104116164 -0.22997262 -0.21707374 -0.28913283 -0.1674739 -0.21335436 -0.29327697
-0.48778528 -0.4895504 -0.33453828 -0.024498973 -0.24652725 -0.4565721 0.03279864 -0.09404757
0.046903845 -0.078964815 0.0145676 -0.04206017 -0.12243204 -0.29127106 -0.22468475 0.11387267
-0.17883757 -0.088723406 -0.44802275 0.03539352 -0.21825197 -0.1785705 -0.062123638 0.010469874
-0.062018663 -0.062689915 0.11450314 0.16653888 0.09111409 -0.14199121 0.045138646 0.11380337
0.16642791 0.04854153 -0.07801796 -0.028449977 0.12255752 -0.0011970588 0.12994921 0.17001957
0.16244802 -0.040516276 -0.16863169 0.19702505 0.113731146 0.0036962922 -0.059474204 0.015335006
-0.074496515 -0.15649362 0.050265618 0.10100723 -0.48737574 -0.32068324 -0.47158968 -0.3446743
-0.2693359 -0.6504121 -0.37850758 -0.4916331 0.056231428 -0.03118258 -0.10124066 0.09136576
-0.023909241 -0.16063462 0.14752533 -0.046038087 -0.18849954 -0.277988 -0.10475103 -0.22126597
-0.3105666 -0.53641397 -0.3655717 -0.20043652 -0.65050215 -0.08341227 -0.20494378 -0.38826984
-0.14079641 0.12902631 0.15840153 0.09809936 0.4913824 -0.0725753 -0.27199718 0.47304305
-0.17362712 -0.08286728 0.2680356 0.08028095 -0.08277468 0.2513728 -0.2663867 0.23803507
0.0681676 -0.16711636 0.012719991 0.18795662 0.11351032 0.22713025 0.016994704 -0.08131537
-0.14432155 0.1820366 0.16191325 -0.10457133 0.16290708 0.097007066 0.1801631 -0.20773147
-0.024169976 -0.20962286 -0.31718662 -0.384884 0.08012107 -0.14461929 -0.12518139 -0.28047913
-0.25075006 -0.38282683 -0.31313032 0.15890591 -0.30511364 -0.20962864 -0.18568316 -0.31365043

lstm.weight_hh_l0 f4 [256, 64]
00000000: c40b c23e 48b5 b1be 6034 d93e 576a 71bc
00000010: e84c 193e b73a 87bc 17bf 933e 1268 84be
00000020: 3f4f aa3d 8fec 7e3e dbd0 ca3e ad6f c0bd
00000030: b905 62be 9f55 a93e 146d a33d 4e2c a63e
00000040: ed59 d8ba a7b3 3a3e c726 803c 428f e83c
00000050: 2ee9 e23d 4f10 11bd f9cb 05bd d137 7dbd
00000060: c0d7 ffbe ec48 45be 7bef 7dbe 2d8d f53e
00000070: 4faa cfbc 71b1 8c3d d9a0 7b3d 5cf0 ea3e
00000080: d44a 97be 1038 bcbe 9287 fe3e c43d 0cbd
00000090: 68dd d0be 757a 22bd 085b e1be ed0e 363e
000000a0: 8307 803c f558 89be c31e f3bc 9920 acbe
000000b0: 61c1 81be b5ab 0d3e a561 fd3d d806 b9bd
000000c0: 68bb fc3e 683d e7be e7e5 b1bd 2011 543c
000000d0: 62c3 9c3e 08a8 093e 2e01 883e 3219 123f
000000e0: 4c2b 7f3c 2e71 04be 8895 7bbe 7f61 cb3e
000000f0: 2f40 183d bb81 b2bd 6ea9 cebe 0eb6 83be
00000100: 0c03 8dbd 4f86 fb3e cf32 52bd 24c0 9cbe
00000110: 4faa 173e 15bf 333b a61e ed3e 7bfe f0bd
00000120: 8c67 9fbd 459b cabe 5eb4 663d 166f d43e
00000130: 5fdf 1ebe 280e 3dbb a181 1f3f ac4c 90bc
00000140: 9276 5e3e 4ca5 3fbe e8e5 57bc 996b a3be
00000150: febf 26be 84fb b8bd 601f a63e 1864 633e
00000160: 40c7 1abe 8856 dcbd 07b6 c0bd 4f1f 113e
00000170: 237c e33c 94d6 91be f13a c23d ffd4 2b3e
00000180: 2943 92be 929e d43e d9ad 53be 7403 b5be
00000190: 941b 143f 6573 543e 707a 453e 53cd 48be
000001a0: f837 683d 8144 05bd e19b 6bbe 4f2f d0b9
000001b0: 171b 66be 57e6 dcbe 857e 09be 390a a23b
000001c0: 6959 12bd 177e 823e aa87 29be 39c4 d73d
000001d0: e0cf d03d 3a29 b23c 9fba d8be fade fcbe
000001e0: 8a88 ad3d 5036 5ebd 2fe5 febc b82a babe
000001f0: 07d2 8ebc 78f7 4b3d 0698 16bf e400 7fbe
00000200: 9526 99be 5637 0f3d 9738 06bd 976f 263d
00000210: 23e3 133e bcdd d1bc 025b 69be da6b cdbd
00000220: a402 d13d 2b4b 853e 6ca2 86bd 102f 2a3d
00000230: 7c26 0abe 5705 1b3e 8dea 9e3e 1a1b 213e
00000240: d826 f8bc 9364 1ebe d4c5 fdba f640 3e3c
00000250: 7ed4 04bd 53ce 52bd a51f 6a3c bb49 4bbe
00000260: 6257 7abe 2150 31be 7b11 2dbe 1105 1abe
00000270: f465 cb3d d22a 933d fd85 3b3e 84f7 cabd
00000280: 45bc 87be 762d 21be b648 d0be 795e 3abc
00000290: 7a79 b23e 3381 023e 2db3 8abd 7902 29be
000002a0: b432 5e3e 1e80 283e 526e 4abe 7477 633b
000002b0: fa8e 033e 8109 8abd 8d38 d73c 0a8d afbd
000002c0: 22f0 ccbe caca ac3d 82d1 08be 079b ab3e
000002d0: 64c3 78bc 0176 543c 9bae f0bd 2d80 e2bd
000002e0: bcad 273e dfcc 663c b3a3 b13b 208d 38bd
000002f0: 3b57 8ebd d497 1d3d f024 c23d 0c11 26be
00000300: 2894 ff3d 3ec0 0b3e 40d3 9e3d 6566 d0bc
00000310: b865 943d fb0c 223e 84ae 2bbe a0c2 963b
00000320: c071 e43e 8003 0c3c b31c 9a3d d995 843d
00000330: c61b 7ebe 9b8c ba3e d93f 94be 89c4 6d3e
00000340: 16bf 833d 70c6 633e 47a5 18bb 1516 123e
00000350: 309d 07bd 2949 5e3d d8dd b9bc d0ee 0dbe
00000360: e311 3cbe 9b22 05be 99c6 f6bd abd3 033e
00000370: 4614 bf3c 75f6 db3c 109a 5e3d 4325 783d
00000380: 2abe d3be ed49 1e3e 9b8c b5bd 3952 633a
00000390: 530b bdbd a1b6 c03b 9e22 05be 263b 70bb
000003a0: c2a8 59bc 9805 c8bd 5e08 fbbd 67c1 213c
000003b0: 31c9 013d b1ca 7dbd c504 3dbb 064f c33d
000003c0: 3a31 f7bd 8448 193e b7a1 d33d 5e43 e93b
000003d0: f0d8 7c3d 571f 97bd 37c0 d9bd 006c 2d3d
000003e0: 78d3 fe3d dd3b 65be f168 a3bd 5810 ec3d
000003f0: a324 24be 8a18 cd3d 1f1a db3d a575 a93c
0.378996 -0.3470862 0.4242277 -0.014734826 0.14970744 -0.01650749 0.28856727 -0.2586065
0.08315896 0.24894927 0.3961247 -0.093963005 -0.22072496 0.33073136 0.079797894 0.32455677
-0.0016506292 0.18232594 0.01564349 0.028388623 0.11079632 -0.035415944 -0.032665227 -0.06182081
-0.49969292 -0.19266099 -0.24798386 0.4795927 -0.025349764 0.06869782 0.061432693 0.45886505
-0.29549277 -0.36761522 0.49712807 -0.03423859 -0.4079392 -0.039667565 -0.44014764 0.17779131
0.015628582 -0.2682568 -0.029677754 -0.3361862 -0.2534285 0.13835032 0.1237214 -0.090345085
0.4936173 -0.45164037 -0.086864285 0.012943536 0.30617815 0.13443005 0.265634 0.57069695
0.015574288 -0.129338 -0.2456876 0.3972282 0.037170585 -0.087161504 -0.4036364 -0.25724834
-0.06885347 0.49125907 -0.051317986 -0.30615342 0.14811061 0.0027427126 0.46312445 -0.11767288
-0.07783422 -0.39571586 0.056324355 0.41491002 -0.15514897 -0.002884755 0.62307173 -0.017614685
0.21724918 -0.187154 -0.0131773725 -0.31918028 -0.16284177 -0.09032348 0.32445812 0.22206151
-0.1511507 -0.10758692 -0.09409719 0.141721 0.027769154 -0.28484023 0.094838984 0.1678047
-0.28566864 0.4152723 -0.20671786 -0.35354197 0.5785458 0.20747145 0.19284987 -0.19609575
0.056694 -0.032536034 -0.23008682 -0.000397081 -0.22471271 -0.43144485 -0.1342717 0.0049450663
-0.0357298 0.25486824 -0.16555658 0.105354734 0.10195899 0.021748174 -0.4232988 -0.49388868
0.084733084 -0.054251015 -0.031115143 -0.36360717 -0.017434133 0.04979655 -0.5882572 -0.24902683
-0.29912248 0.03496488 -0.032768812 0.040633764 0.14442115 -0.025618427 -0.22788623 -0.10030337
0.10205582 0.2603391 -0.06573948 0.04154879 -0.13491243 0.15138756 0.31038323 0.15732995
-0.03029196 -0.15468054 -0.0019361326 0.011612168 -0.03242921 -0.051466297 0.014289771 -0.19852345
-0.24447396 -0.17315723 -0.169012 -0.15040995 0.099315554 0.07185902 0.18312831 -0.09910491
-0.26510826 -0.15739998 -0.40680474 -0.011375063 0.34858304 0.12744598 -0.06772456 -0.1650485
0.21699029 0.16455123 -0.19768646 0.003470865 0.1284751 -0.06740094 0.026272083 -0.08571823
-0.40026957 0.084371164 -0.13361171 0.33516714 -0.0151833035 0.012967587 -0.11752053 -0.11059604
0.16374868 0.014086931 0.005421126 -0.045056462 -0.06950232 0.038474873 0.094797015 -0.1621744
0.124794304 0.13647553 0.077551365 -0.02543945 0.07245964 0.15825264 -0.16765791 0.004600838
0.44618034 0.008545756 0.07525005 0.06473894 -0.24815282 0.36435398 -0.28954962 0.23219503
0.06432931 0.22243667 -0.0023291872 0.14266236 -0.03310889 0.05426899 -0.022688791 -0.13860631
-0.18366198 -0.13001482 -0.12049598 0.12873714 0.023325097 0.026850918 0.054346144 0.06058241
-0.4135602 0.15457888 -0.08864709 0.0008671615 -0.092306755 0.005881146 -0.13001487 -0.003665635
-0.013284864 -0.09766692 -0.12257455 0.009872771 0.03168601 -0.06196088 -0.0028841954 0.09536557
-0.12069936 0.14969069 0.10333579 0.0071186265 0.061730325 -0.073790245 -0.10632365 0.042339325
0.12442678 -0.22386117 -0.07979 0.11526555 -0.16029601 0.10014446 0.106983416 0.02068598

lstm.bias_ih_l0 f4 [256]
00000000: 8f94 d0bb e919 533e f555 a53c 053b bc3c
00000010: ec10 97be 2208 b83e 5416 753d 5580 a93e
00000020: 5840 f2bc 1c1a dc3d be5d d0be d6d6 463c
00000030: e9af 2dbe c8c7 c5bc 3391 0abd 36e0 8cbe
00000040: bc55 303d 563a 5ebd 2687 003e 15b1 3d3d
00000050: 9dbd 113e 0ce6 053c 9c9b 71bd f68f 01bd
00000060: 6a50 9dbe 21b6 80be 84b0 4abe 341e 20be
00000070: 68f1 2d3e ddda 0fbe fb23 f53c da87 0abc
00000080: 9b9b 2fbe 226e b03d 263f 1b3e e1c1 103f
00000090: 374d 48be dd24 d1bd 7ee0 0bbe ce7e 72bd
000000a0: f409 fb3c c27d 363d 6774 15be e3f6 b1bd
000000b0: 05b6 bd3d a2f0 383e a7ba 1bbe 5022 963c
000000c0: d6ce 92bd b8d5 cfbd ec5e 253e 45e1 adbe
000000d0: 9286 86be 7dba f03d 7d0a d83d 105b 1dbd
000000e0: 90d7 363e 02ea 22be 1e9f b03e f6c6 e43d
000000f0: 27bb 88be 9047 17be df88 ec3c 43eb 3abd
00000100: e240 103e c00b d5bd ca68 123d 2cbf 593d
00000110: 966a 4f3e 9187 8b3e c20e c5bc 03d8 c83d
00000120: 26d9 aa3d fb48 fdbc 1901 b13e 70b1 0f3e
00000130: d191 89bd 17eb 403e 4404 5e3e bd0c 0abc
00000140: dbda c93d ec4b 733e 02b9 b53e 1932 313c
00000150: e751 85bd a97c a33e 667a 963e 3cb8 3ebd
00000160: b95c 5dbc bd6a 103e 6ec1 6f3e 4cb9 1ebd
00000170: 934e 05be fa37 343e f3d8 263e 7d92 de3e
00000180: cd6c bf3e 5b05 f5bd 533f a13e 7e2c d93e
00000190: e372 ffbb 1553 a9bc ddc5 1bbe e999 803e
000001a0: 634d 1ebd ab8a 23bd dc5e b6bd df9d 4b3b
000001b0: 2fe5 0e3e ffd6 b23e 4f3a 2f3e 6b45 a93e
000001c0: f8ea c33e 7e1f 8f3d 0f53 823e 39a7 e3bc
000001d0: 12c9 823d a686 043e b4c2 a63d 98f9 0ebe
000001e0: b48e 873e 08b1 d53d f4c3 b53e fcb8 a7bd
000001f0: 3c4b 35bd 5042 db3d c07b c3bd 3729 243f
00000200: 1a7d 553d b0f9 bd3d 27f0 ae3e ce98 b9bd
00000210: c839 29be a1d8 b23d add1 563e 5ea2 aabe
00000220: 435d 41be f27d ddbc 9960 f9bd 1709 45bd
00000230: ef31 23be 5be1 0f3e aaca 0b3e b85c 2f3c
00000240: d157 cf3c e5d2 19be f3ef 8d3d e922 56bd
00000250: 3eee bbbd 0692 69bd fc96 2b3e be24 b13c
00000260: 4839 27bd 5ecc 21be a4e5 1dbd 4b1f e53d
00000270: 7d69 0ebe af05 153d f4f2 d23c 596d 8f3d
00000280: 6582 4cbe 133b a6bb bffa a9bd a99b 7ebd
00000290: 241a 87be 5535 3ebd 36f6 27be 858c fe3d
000002a0: ef96 b2bc bd63 1b3e 8c9e b7bb a6b7 cbbe
000002b0: f5ce 40be 5808 7b3d 9453 75bd cc23 003e
000002c0: b64a 25be 093c b0bd 95e8 683d 93b3 2cbe
000002d0: aa8d c23d ed1d 893e 8572 153e 4878 a3bd
000002e0: 9c29 c7bd 8171 0dbe 09c0 663e b150 8cbd
000002f0: 6694 52be 130c 1dbe de6d 103e 7b52 01be
00000300: 7817 9d3d 9601 953e 8624 c2bc 673d 4fbd
00000310: 92b9 47be 3a35 0abe 1f4a a13d 46e8 203e
00000320: 315d 693e d7b2 0c3d cfec 073e b890 f7bd
00000330: 8f34 92be fee2 903c 59cd 363c 9129 6bbe
00000340: 74ba 283e afc8 c53d 8ed5 333d dac4 25be
00000350: 3e31 b33c c714 183e 9eb1 d03c 617c 1f3e
00000360: b8ae 2bbe 0585 d3bd 027f 8cbc 52da 3bbe
00000370: 295f a83e a0a2 05be 4703 223e 364f 943e
00000380: 1d77 b3bd 0370 313e 9e93 34bd 891d 52be
00000390: 1cb8 433d a47f 3abd 6d10 b9bb b10a 873e
000003a0: fce1 7dbd 0123 56bd 8c06 44bd 2deb 00be
000003b0: e04e 55bc 45f1 003e 3f9f f53d feaf 3bbd
000003c0: 49df a23a 0407 fd3d 9b0f 50be 3ca1 32bd
000003d0: 0f28 b7be dec5 87bc f34e 933c 7436 ae3d
000003e0: 125e fcbd 8d91 a0be da27 043e b8ce 403d
000003f0: 2b1f cabd 2bfc bdbc 7b64 c9bc de3c aabd
-0.006365366 0.20615353 0.02018259 0.022977361 -0.29505098 0.35943705 0.059835747 0.33105722
-0.029571697 0.107471675 -0.4069652 0.012136182 -0.16961636 -0.024143115 -0.03382988 -0.2751481
0.043050513 -0.054254852 0.12551555 0.046311457 0.14232488 0.008172523 -0.05898629 -0.031631432
-0.30725414 -0.25138953 -0.19793898 -0.15636522 0.1698662 -0.14048333 0.029924383 -0.008455241
-0.17149203 0.08614756 0.15160808 0.56545836 -0.19560705 -0.10212109 -0.13659856 -0.05920296
0.030644394 0.044553526 -0.14595185 -0.08689668 0.09263233 0.18060544 -0.15207921 0.018326908
-0.07168357 -0.101481855 0.16149491 -0.3396093 -0.26274544 0.1175432 0.105488755 -0.038416922
0.17855668 -0.1590958 0.34496397 0.11170761 -0.26705286 -0.14773393 0.028873859 -0.04563452
0.14087251 -0.10402632 0.035744466 0.05316083 0.20255503 0.27251866 -0.024054889 0.09806826
0.08342199 -0.030918589 0.3457115 0.14032531 -0.067172654 0.1883968 0.21681315 -0.008425889
0.098561965 0.2375943 0.35492712 0.010815167 -0.06509762 0.31931046 0.29390258 -0.04656242
-0.013510876 0.14103217 0.23413631 -0.03875093 -0.13018255 0.17599478 0.16293697 0.43471137
0.37387696 -0.11963912 0.31493625 0.42416757 -0.007795678 -0.0206695 -0.15212198 0.25117424
-0.03864802 -0.039927166 -0.08904812 0.003106944 0.13954614 0.34929654 0.17112087 0.33060774
0.38265204 0.069884285 0.25453994 -0.027789699 0.06386007 0.1294199 0.081426054 -0.139624
0.2647606 0.10434157 0.35501063 -0.0818958 -0.044261202 0.107060075 -0.09545088 0.6412539
0.05212126 0.0927614 0.34167597 -0.09062348 -0.16525948 0.08732725 0.20978422 -0.33327
-0.18883233 -0.027037594 -0.12176628 -0.048104372 -0.15937017 0.1405081 0.13651529 0.010703258
0.025310429 -0.15021856 0.06930532 -0.052279387 -0.091763005 -0.057024024 0.16756815 0.021623965
-0.040826112 -0.15800616 -0.03854908 0.11187609 -0.13907428 0.036382373 0.025750615 0.07003278
-0.19971617 -0.00507296 -0.08299779 -0.062160168 -0.2638713 -0.04643758 -0.16402516 0.12429146
-0.021800486 0.15174766 -0.005603617 -0.3978855 -0.18828948 0.061287254 -0.05989416 0.12513655
-0.16141781 -0.08605201 0.056862433 -0.16865377 0.094996765 0.26780644 0.14594467 -0.07981926
-0.09724733 -0.1381283 0.22534193 -0.06851328 -0.20564422 -0.15336637 0.14104411 -0.1262912
0.07670492 0.29102772 -0.023699056 -0.050595667 -0.19504383 -0.13496867 0.078754656 0.15713605
0.22789456 0.034350242 0.13273929 -0.1208815 -0.28555724 0.017686363 0.011157357 -0.22965075
0.16477376 0.09657418 0.043904833 -0.16188374 0.021874066 0.14851676 0.02547532 0.1557479
-0.16765869 -0.10328106 -0.017150406 -0.18345001 0.328851 -0.13050318 0.15821563 0.28966683
-0.087629534 0.17327885 -0.04408609 -0.2051908 0.047783002 -0.045531884 -0.00564771 0.26375344
-0.061983094 -0.052279476 -0.047857806 -0.12589712 -0.013019294 0.12592037 0.119932644 -0.045822136
0.0012426163 0.12354854 -0.20318453 -0.043610796 -0.3577275 -0.016573843 0.017981982 0.0850648
-0.1232263 -0.31361046 0.12905827 0.047072142 -0.09869226 -0.023191532 -0.024584046 -0.08312391

lstm.bias_hh_l0 f4 [256]
00000000: 8d26 4cbe aa0f 133e b0fc 823d 261e bdbd
00000010: 1973 50be e682 db3e 4bfa b13d 3c91 a33e
00000020: 6bdb 043e 1350 143e 3e2c e9be be40 b8bd
00000030: 3877 2dbe d0a8 e3bd ffe8 0cbd 2982 2cbe
00000040: a2d4 b23d 789f 853c a48c 163d cf22 1d3d
00000050: 2167 8f3e efb9 3bbe f4b7 043e 133c d43d
00000060: 5811 9dbe d12f a6be 5ed1 7abe 88d8 eebd
00000070: 6eef a23d cdcb 97bd da08 7cbd 0ccd 443d
00000080: a66a 49bd 79ad 183d 70c7 443e 08b2 dd3e
00000090: 5e95 bbbd 7e75 51be b078 21be ed57 983c
000000a0: 1db7 bb3c af62 13bd 27f9 59bd ea61 013e
000000b0: d7e9 ba3d cabb be3e daaa bcbe 392c a33c
000000c0: 7e20 abbb 0a51 8abb ff9c af3d df87 75be
000000d0: f05f 84be 52e1 1a3c 7004 1d3e 1707 b6bc
000000e0: 6ddd 1b3e 0533 cfbd afb4 9c3e c82d cc3d
000000f0: 7403 97be a96b 8dbd 2f0c 0bbd 067b b5bd
00000100: 9802 773e 0d43 173d f37e 273d 798e 273e
00000110: 726f 0a3e 5c7d 113e 21ee 2fbe 971d 523e
00000120: 0e90 dbbd a352 1ebe 72df 843e 6387 da3d
00000130: 271b 103e ae01 203e 393c 483e 2bdf 033e
00000140: 1cf2 95bd 38c5 7a3e 6050 0a3f a242 a23d
00000150: 4e85 dabd 3745 763e 71e9 4c3e c928 5b3d
00000160: 9618 b2bd b958 2c3e 2abe 103e 9842 20be
00000170: 0bb5 adbd 9659 fa3c 4366 533e 64e7 f73e
00000180: 86fa a23e bc3c 05be a4d2 3a3e 22fb ef3e
00000190: d357 4a3c 5c4c 503d 4dc1 56be 861b db3e
000001a0: 31c0 8cbc 2ab5 633d 8447 9abd 64d5 3e3d
000001b0: 51e8 1f3d 8be5 753e 2b7a 053e ba0a ab3e
000001c0: 8a66 b43e 911d af3d bfdc b03e 1e50 023e
000001d0: 950a e63d fc28 e03d 58ea 0abd e559 d5bd
000001e0: 287f 793e 0d13 873c 3dd4 c03e 9c6e 37be
000001f0: d6cd 353e fdd0 903d 0c76 433d c3ce 0a3f
00000200: 6a71 e83d 841d 8b3d d1ff 8c3e 76ca 28be
00000210: 4c03 dfbb 2708 1dba b977 3d3e 020b b9be
00000220: b5d8 85be b4ce adbd 3de1 09bd 97c2 3ebe
00000230: 41d9 20bb 880b 83bc f9e6 883d 8b7c 0a3e
00000240: 7c0e 6f3c 4ea3 5dbd 6415 a83d 49e9 e8bd
00000250: 1487 a43c 78f5 8bbd 0381 f33d bd7f 223e
00000260: 146c 253d 13ca 9cbe 3b44 043d e707 893e
00000270: ebcf a3bb 1b27 16be 5cee 653d e7c9 203e
00000280: 995b b5be f9a8 e73d b71e 1eba bc42 d9bd
00000290: f176 26be aed4 c9bb 0532 20be 41a7 363e
000002a0: e5ef d9bd f31c fd3b 539e c83c 01c9 e7be
000002b0: b781 2ebe ba3b d63d 3244 5d3d f8ca 39bd
000002c0: 62f7 7a3d 0791 08be 723b a03d 868c a7bd
000002d0: 9d5d 183e 3a9f 503e 5442 2d3d 933b 8fbc
000002e0: 3659 dfbd 3858 08be b2f5 863e 5e3f 41bd
000002f0: 3b4e 24be 2087 0fbe ccf7 6c3e 8fab 963d
00000300: 60ca 95bd 7256 8a3e 1f8a e6bc 894c 9a3b
00000310: ab74 f8bd 1e69 d5bd cb49 843e 5a67 5a3e
00000320: dd4d fd3d c76f 0a3d a45c 173e 93c8 103d
00000330: ec60 88be 9088 5cbc 0ecc 223d 1b36 13be
00000340: 6e08 d83d 5a98 c8bd 891c 303e 7353 02be
00000350: 99f0 21be 87fa 8d3e a8b1 1fbe 5c75 6b3e
00000360: a710 21bd 478d 2bbe e5fc 97bd 4774 03be
00000370: 34e2 2b3e 5a47 21be b043 183e f674 943e
00000380: 916a cdbd 4c25 b13d 4ed0 d13d 67b6 50be
00000390: 43ab 543d 003b 04bd ee89 ea3d 44c2 a23e
000003a0: e4ec 403d 7b4f d13d 95b5 95bd 1b45 40be
000003b0: 4b10 9bbc e63a 273e ce71 d53d ef13 32bd
000003c0: 8c30 5d3e 366e 393e a68c 53be 6cf8 82be
000003d0: e5c2 d1be 419b b73d 5d27 7d3d 996d 9c3d
000003e0: 541d 1ebd 0cd7 efbe a07a 9d3d 400c c8bc
000003f0: f230 333d 308a 8dbd 5566 a43c 1b75 3cbe
-0.19936581 0.14361444 0.063958526 -0.09234266 -0.20356406 0.42873305 0.08690318 0.31946743
0.12974326 0.14483671 -0.45541567 -0.089967236 -0.1694001 -0.11116183 -0.03440189 -0.16846527
0.08731963 0.016311392 0.03675522 0.038363274 0.2800837 -0.18332647 0.12960798 0.10363021
-0.30677295 -0.32458356 -0.2449393 -0.11662394 0.07955824 -0.07411919 -0.06153188 0.04804711
-0.049173974 0.03727481 0.19216704 0.4329989 -0.09159349 -0.20454976 -0.15768695 0.018596614
0.022914464 -0.035982784 -0.053216126 0.12635008 0.09126633 0.37252647 -0.368491 0.019918548
-0.005222379 -0.0042210864 0.085748665 -0.23977612 -0.25854445 0.009453135 0.15333724 -0.022220178
0.15221186 -0.10117153 0.306066 0.099696696 -0.29494822 -0.069053 -0.033947166 -0.088613555
0.24122083 0.03692918 0.040892553 0.16362943 0.13519076 0.14207977 -0.17180683 0.205191
-0.107208356 -0.15461211 0.25951725 0.10670354 0.14072858 0.15625641 0.19554223 0.128781
-0.07321569 0.24489295 0.5402889 0.079228655 -0.10669957 0.24049841 0.20010926 0.053505693
-0.08696096 0.1683072 0.14135042 -0.15650403 -0.08481797 0.030560296 0.20644478 0.48418725
0.3183176 -0.1301145 0.18244416 0.46871287 0.0123500405 0.050854072 -0.20972176 0.42794436
-0.017181488 0.055592693 -0.07533172 0.046590224 0.039039914 0.24013345 0.13034885 0.3340662
0.3523448 0.08550561 0.34543416 0.12725875 0.11232487 0.10945317 -0.033914894 -0.10417537
0.24364913 0.016488576 0.37661925 -0.17913288 0.17754301 0.07071111 0.04772 0.54221743
0.11349757 0.06792739 0.27538922 -0.16483483 -0.006805813 -0.00059902895 0.18502702 -0.3614121
-0.26141897 -0.08486691 -0.03366207 -0.18628918 -0.0024543556 -0.01599671 0.066846795 0.13524072
0.014590856 -0.054110818 0.08207205 -0.113726206 0.020083942 -0.06833929 0.118898414 0.15869041
0.040386274 -0.3062292 0.032291632 0.26763842 -0.004999151 -0.14663355 0.05613552 0.1570202
-0.35421446 0.11311526 -0.00060317985 -0.10608432 -0.1625631 -0.0061593866 -0.15644081 0.1783724
-0.106414594 0.0077243983 0.024489557 -0.4527054 -0.1704167 0.10460611 0.054020114 -0.04535958
0.06127108 -0.13336574 0.07823838 -0.081810996 0.1487946 0.2037324 0.042299584 -0.017484462
-0.109056875 -0.13314903 0.26359326 -0.047179572 -0.16045468 -0.1401639 0.23141402 0.07356941
-0.073139906 0.27019078 -0.028142033 0.0047088307 -0.12131628 -0.1042044 0.2583755 0.21328488
0.12368367 0.033798005 0.14781433 0.035347532 -0.26636446 -0.013460293 0.039745383 -0.14376108
0.10548483 -0.09794684 0.17198385 -0.12727146 -0.15814437 0.277302 -0.15595114 0.22993988
-0.03932252 -0.16753112 -0.07421283 -0.12837325 0.16785508 -0.15749875 0.1486957 0.28995484
-0.100300916 0.08649692 0.10244809 -0.20382081 0.05192114 -0.03228283 0.11452089 0.31788838
0.047100917 0.10220238 -0.07310025 -0.18776362 -0.018928668 0.16331062 0.10422097 -0.04347604
0.2160055 0.18108448 -0.20659122 -0.25580156 -0.40969005 0.08965159 0.061805118 0.076380916
-0.03860219 -0.46843755 0.076894045 -0.024419904 0.04374785 -0.06911123 0.020068327 -0.18404047

fc.weight f4 [5, 64]
00000000: a337 6b3e a225 663e 14a9 403c 6aa1 bbbe
00000010: 75d0 c93d b41f 413e c69a e83e 974a 03be
00000020: 7fdd f9bc 6fb6 07be adc1 193e 9ecd bc3e
00000030: 0b36 40be 2ac2 3f3e e7d5 533e e274 1e3e
00000040: adb3 9d3e efd9 5cbd 04c5 bcbd bb7a 99be
00000050: 601b 94be 46c4 2f3e 6dcc 6e3e e6e6 de3e
00000060: 6fee 9bbe 5c96 aebd 2692 79be 5078 473e
00000070: d71e d43e 0185 77be 9428 653d bea1 ca3e
00000080: bdba 47be 29eb 6a3e a911 7a3e 5d58 3ebe
00000090: 4ed7 5d3d b8cf 833e ae20 083e 1edb dfbd
000000a0: 346f 9fbe 5468 afbd 5b24 8ebe 1152 e0bd
000000b0: 14f3 d4be 86d1 76be 21a1 fabd 8cbb 813e
000000c0: a91c 963e cdc8 d73e 31e9 87be 12e2 2e3e
000000d0: 2a58 633e 9db7 b13e 2504 a3be d5f9 c5bd
000000e0: 2684 8f3e e7fe 27be 3a7a af3d b82e c0be
000000f0: 2c01 bfbd b945 383e 1c4e 1abf 1fc6 3ebd
00000100: 253e 39be 814f 63be 0a2b 873d fcf8 ff3c
00000110: d41e bdbe 5b7c 66bd fc84 6f3e 8113 883e
00000120: ebf5 e5be 16f6 b0be 23d6 af3e 841a 8fbe
00000130: aaaa b33e d09e f0bd e94d 80bd ca4b 7ebe
00000140: 5df5 53be b87b c03c dda0 e1bd 3d78 9c3c
00000150: b36c 7a3d 4fc7 54bb 2c2e 46be 976f 00bd
00000160: fa75 50be 42c8 a8bd cff3 9c3e f1dd 36be
00000170: 7cd0 f83d 3ae5 9c3d aa0b d7be 5884 6e3e
00000180: 140a 123d 89fe 12bd 7d44 07be d03e 793e
00000190: f07b ae3d bb19 75be da06 50be 1d6c 3abd
000001a0: e288 503d b8e5 653d 71e1 5e3e ec41 b73e
000001b0: 430f e0bc 1950 b13d 19ac fd3c 25f0 97bd
000001c0: 75af 67bd 5d70 3ebe 7088 803e 9762 a7be
000001d0: 860e 0dbe f95e 55be deec 313e a08e 163e
000001e0: 83b2 16be 3ccb af3e ac7f a7bd 96d4 113e
000001f0: 10c6 d23e fb7c 9cbe 88d5 d1bd 916d 36bd
00000200: 26f0 93be 6ace 973e 64df 57be cb40 783e
00000210: 6db2 7abd 23ab 82be a6cf 8cbe c86b bc3d
00000220: 7ec2 8b3d ff86 653e 7dd5 32be 27b6 16be
00000230: 0217 a83e 83aa 95be bd8f 07bf 2302 94be
00000240: 2b3e bbbe 2538 14be 911a 6c3e 5238 d73e
00000250: 0c41 80be d229 f5bd b144 f6be 9550 adbc
00000260: 967a 71be ab8b df3d 58e3 c7bc b8a4 d5be
00000270: 8022 9cbe e7c1 2b3e d2c7 543e f647 10bf
00000280: b76d 293e ede8 5c3d 6fb1 bcbe 678a a93e
00000290: 977f b5be 2cc0 90be 9464 c13c 4f45 763e
000002a0: eed0 f53d 2922 b3bd 8604 283e 5b74 25be
000002b0: 3343 703e 423b 0b3f 456d 3b3e ca5e f8be
000002c0: 9e73 e2be c9db f33d 975a d23e 2c33 a23d
000002d0: bac6 f2bd d7bc 98be c7c7 333e 6fba 68be
000002e0: e7af 06bf e3ff c3bc 5ca3 83be 6dc7 56bd
000002f0: 20df 24be 4287 ef3b 7e6d d03e 2289 1f3f
00000300: 4679 43be 9a6b 11bd a7b6 8e3d ab4b 143e
00000310: 398e 81be 0ffd 05be c426 e53d 5ccd 683e
00000320: a8ba dbbe 3fd7 9cbe 2152 963d b4de 87be
00000330: 2936 923e bc8a 7dbd 8c78 20bd ffd6 51be
00000340: 0ed3 fbbd e56f 8fbd 4244 18be f00f 5c3e
00000350: f24a ba3d f438 bb3c c40d 02be c352 15be
00000360: a87b 09be 2258 ccbd 3512 813e e0f4 23be
00000370: ae9b 8c3e f6ac 2b3e e5ed c1be 9cd6 793e
00000380: 96b1 3b3d cc8a 56be ead2 47be 8267 1c3e
00000390: f076 4e3e 2a74 76be 29d6 6abe df90 1dbd
000003a0: b518 af3c 87e5 afbd 6871 7d3e 5a5d 923e
000003b0: 1255 a53c 1857 1c3d b924 94bd 0355 8dbe
000003c0: 4644 f5bc d44d 35be ae75 7a3e ebf4 babe
000003d0: 40a0 e0bd 4e16 61bd fa47 813b 66f4 723e
000003e0: cb1b 03be 5789 953e fc40 4bbe f9bb 0e3b
000003f0: 5aea 9c3e b383 9dbe b15f b33c 47d1 313c
0.22970442 0.22475293 0.011759061 -0.36646587 0.09854213 0.1885975 0.45430583 -0.12821423
-0.030501125 -0.13253187 0.15015288 0.36875623 -0.18770616 0.18726411 0.20687066 0.15474275
0.30801144 -0.053918775 -0.09217265 -0.29976448 -0.28927135 0.17164716 0.2332017 0.43535537
-0.30455348 -0.085247725 -0.24372157 0.1947949 0.4142978 -0.2417183 0.0559469 0.39576524
-0.19504829 0.22941269 0.244208 -0.18588395 0.05416041 0.25744414 0.13293716 -0.10930465
-0.3113953 -0.08564821 -0.27762112 -0.10953153 -0.41591704 -0.24103364 -0.12237764 0.253384
0.2931874 0.42145386 -0.26545098 0.17078426 0.222016 0.34710398 -0.318391 -0.09666792
0.2803051 -0.16405831 0.08568235 -0.37535644 -0.093263954 0.17995347 -0.60275435 -0.04657566
-0.18090113 -0.22198297 0.06600006 0.031246655 -0.36937582 -0.05627094 0.23390573 0.2657738
-0.44914183 -0.3456275 0.3434306 -0.27949917 0.35091144 -0.11749041 -0.0626486 -0.24833599
-0.20699067 0.023496494 -0.1101701 0.019100303 0.06113882 -0.003246743 -0.1935355 -0.03135642
-0.20357504 -0.08241321 0.3065476 -0.17858101 0.1214914 0.07660909 -0.42001086 0.23292673
0.035654142 -0.035887275 -0.1320972 0.24340367 0.08519733 -0.23935597 -0.20315114 -0.04551326
0.05091179 0.05612728 0.21765687 0.35792482 -0.027351027 0.086578555 0.030965852 -0.07418851
-0.056563813 -0.1859755 0.25104094 -0.32692406 -0.13775072 -0.2083701 0.17375514 0.14702845
-0.14716534 0.34334743 -0.08178648 0.14241251 0.41166735 -0.30564103 -0.10245806 -0.044538084
-0.28894156 0.2964967 -0.2108131 0.24243467 -0.061205316 -0.25521192 -0.27502173 0.09200245
0.06824206 0.22414778 -0.17464252 -0.14717923 0.32830054 -0.29231653 -0.529537 -0.2890788
-0.36570868 -0.14474542 0.2305701 0.42035156 -0.25049627 -0.11970867 -0.48099282 -0.021156589
-0.23581919 0.109153114 -0.024400398 -0.41727233 -0.3049507 0.16773187 0.2077935 -0.56359804
0.16545759 0.053933073 -0.3685412 0.33113405 -0.35448906 -0.28271616 0.02360753 0.24049877
0.12002741 -0.0874675 0.16407976 -0.16157667 0.23463134 0.54387295 0.18303402 -0.48509818
-0.44228834 0.11907155 0.4108474 0.079199165 -0.1185431 -0.29831573 0.17556678 -0.22727369
-0.52612156 -0.023925727 -0.2571057 -0.05243628 -0.1610074 0.007309825 0.40708536 0.62318623
-0.19089231 -0.035503007 0.06968432 0.1448199 -0.2530382 -0.13084815 0.111890346 0.22734588
-0.42915845 -0.3063297 0.073398836 -0.26537097 0.28556946 -0.061899886 -0.039177462 -0.20492171
-0.12296115 -0.07003764 -0.14869788 0.21490455 0.09096326 0.022854306 -0.12700564 -0.14582352
-0.13426077 -0.099777475 0.25209203 -0.16011381 0.27462524 0.16765198 -0.37876812 0.24398273
0.045823656 -0.20951384 -0.19514051 0.1527386 0.20162559 -0.2406775 -0.22933258 -0.038468238
0.021374086 -0.08588701 0.24750292 0.28586847 0.020182166 0.038168997 -0.07233567 -0.2760392
-0.029939782 -0.1770547 0.24458954 -0.36514983 -0.10968065 -0.054952912 0.003945348 0.23726043
-0.12803571 0.29206344 -0.19849008 0.002177952 0.30647546 -0.3076454 0.021896215 0.010853118

fc.bias f4 [5]
00000000: a671 a5bc 99f5 76be 59c6 6c3d 67bb 9fbc
00000010: 76ac 873d
-0.020195793 -0.24117126 0.057806347 -0.01949854 0.06624691
