LSTM_Classfier.pth (torch, 101765 bytes, 6 tensors)

lstm.weight_ih_l0 f4 [256, 30]
000000 1e 7a 0c be e9 60 41 3d 89 0e d0 3c 65 b9 0a be
       -0.13718459 0.04721156 0.025397556 -0.13547285
000010 aa df ac 3d 68 1b 14 3d 38 dc bb bb 94 86 e8 3d
       0.08441098 0.03615895 -0.005733039 0.11353794
000020 bc 37 1d be 50 2e cc bd 04 4f 14 be 19 ce 1b bd
       -0.15353292 -0.09969771 -0.14483267 -0.038038347
000030 f0 25 43 3d 46 f3 3d bd ea 57 dc bd 9b d7 0c bd
       0.047643602 -0.04637458 -0.10758956 -0.034385305
000040 9a 80 f2 bd d5 5f 79 bc 3a ee 96 3d 92 36 0f be
       -0.11840935 -0.015220602 0.07369657 -0.1398566
000050 53 ec b1 3d 55 de f5 bd 92 0f 40 be 9d fb 89 3d
       0.086876534 -0.12005297 -0.1875594 0.067374445
000060 cb 6c e4 bd b2 b3 4a bd f0 2c d1 3d bd 1c 52 3c
       -0.11153563 -0.049487777 0.10213649 0.012824235
000070 ed 9f fd bd b7 fc 97 3b 49 6d 89 bd 02 d2 5e 3d
       -0.12384019 0.0046382803 -0.067102976 0.054399498
000080 6f ba 42 3d ff 0e 33 bd ac b0 f9 3b 44 1a 19 bd
       0.04754108 -0.043715473 0.007619938 -0.037378564
000090 a0 5a 4b 3d 5e 8f a7 3d 75 70 60 bd 63 1a 9b bd
       0.049646974 0.08181642 -0.054794747 -0.07573392
0000a0 6b 19 3e 3c 1c d4 7e bd ff aa 19 3e f7 62 c0 3d
       0.01160274 -0.062214002 0.15006636 0.09393876
0000b0 c1 7e 7b 3d ac 5c 71 3d d7 b6 2a 3d 4a b2 d5 bd
       0.06140018 0.05892627 0.041678276 -0.104343966
0000c0 1e 63 b5 3b 30 e2 1f 3c fe e8 a9 3d e9 86 c3 bc
       0.0055354973 0.009758517 0.08296393 -0.023868041
0000d0 c5 82 13 bd e2 a5 a3 3d 6f b0 5c bd ae d9 af 3d
       -0.036013383 0.07990624 -0.053879198 0.08586441
0000e0 0d 84 e1 3d cb eb a7 bd 89 44 40 3d 6e ee d6 3c
       0.11011515 -0.08199271 0.04694036 0.026236739
0000f0 36 15 13 3c 70 f5 0c 3d ef 58 ae 3d 9c fd d7 3d
       0.008977225 0.034413755 0.085130565 0.10546419
000100 aa 8c 5c 3d 11 94 ab 3d 4f 3d c3 3d b7 b6 3b bd
       0.053845085 0.08377851 0.09533178 -0.045828547
000110 b1 e7 ec bd 47 86 90 bd 9e 7a 92 3d 77 b5 59 3d
       -0.11567629 -0.07056861 0.071522936 0.053151574
000120 bf e9 9a 3d 95 b0 16 3d 1c 6c 12 3c 46 29 28 bc
       0.07564115 0.036789495 0.008936908 -0.010263747
000130 d1 1a a7 bc ef 4e 36 3e f1 60 83 3d 9b 0e 07 3e
       -0.02039853 0.17803548 0.064149745 0.13189165
000140 0a 9e 06 3e 95 88 61 bd 20 27 9a bd ac 4f 74 bd
       0.13146225 -0.055061895 -0.07526994 -0.059646294
000150 53 a4 d9 3d 60 05 fe 3c e3 56 d4 bb a7 e8 19 bc
       0.106270455 0.031008422 -0.0064800843 -0.009393848
000160 c2 75 ab bd b2 f5 b4 bd 19 92 03 be 59 24 4c bd
       -0.0837207 -0.08835925 -0.128487 -0.04983935
000170 fd d5 37 bc d6 12 ab 3d 7c d6 8c 3d 0a eb 86 bc
       -0.011220452 0.08353202 0.06876847 -0.016469497
000180 75 f9 14 bd 49 85 e9 bd 55 b3 41 be 05 79 d2 3d
       -0.036370713 -0.11402375 -0.18916066 0.10276989
000190 6c f9 83 bd b1 56 1e be 6b 3a fa bd fc 23 3b bd
       -0.06444058 -0.15462758 -0.122181736 -0.045688614
0001a0 5e 15 1e 3d d7 b2 a9 bd e9 50 c1 3c 4f 13 a3 bd
       0.038594596 -0.08286064 0.023598151 -0.07962667
0001b0 9d ab 31 3d 37 38 0e be 4e 0f cd bb 6d 06 55 3d
       0.043376554 -0.13888632 -0.006257928 0.05200808
0001c0 c7 3e 13 be c5 d9 07 be 67 d2 06 3e 32 2e dc 3d
       -0.14379416 -0.13266666 0.131662 0.107509986
0001d0 41 d0 1d bd 71 46 cf bc e8 d3 bc 3d d2 ac 22 3d
       -0.038528685 -0.025302144 0.092201054 0.039715596
0001e0 01 24 3a 3c 68 75 ea bd b0 5a d2 bd b2 23 d7 bb
       0.011361123 -0.11448175 -0.102712035 -0.0065655345
0001f0 60 cd b9 bd c7 d9 31 be 9e 0a 6e bd bf d9 99 3c
       -0.09072375 -0.17368232 -0.058115594 0.018780587
000200 4a bd ac bb f5 54 c3 bd fe 7c 01 3d aa ea 46 3c
       -0.0052715885 -0.09537689 0.031613342 0.012140909
000210 10 78 0a be 93 12 01 be e4 2b d6 bd 93 8c 0d be
       -0.13522363 -0.12604742 -0.1045759 -0.13823156
000220 c8 6b b4 bd e6 6b 37 be ad 2f f7 bd 59 f6 0a bd
       -0.0880962 -0.17912254 -0.1206964 -0.03392634
000230 61 b2 04 be a7 d1 f0 bb 9a fd 1a 3e 08 5b 8b bc
       -0.12958671 -0.0073492113 0.15135804 -0.01701118
000240 8d 88 96 bd c4 d7 00 be 59 8d 81 3d a6 5d e0 bc
       -0.07350264 -0.12582308 0.06325788 -0.027388405
000250 29 10 5b bd 90 40 a4 bd a5 7e 5e 3d 33 66 d7 3d
       -0.05348221 -0.08020127 0.054319996 0.1051754
000260 e6 81 02 3e ef eb 20 3e 68 ec 5f bd 18 2d d9 bd
       0.12744865 0.15715002 -0.054668814 -0.10604304
000270 26 a3 15 3e d0 a8 5d 3d 1d d4 06 3d 56 32 d6 3d
       0.14613017 0.05411607 0.03291713 0.104588196
000280 af 79 62 3c 59 af ba bd 33 14 e1 bd e0 58 eb 3d
       0.013822957 -0.09115476 -0.10990181 0.11491561
000290 78 a0 e8 bc 69 1a cd 3d 8b f6 1f 3a c5 d8 8b bd
       -0.02839683 0.10014803 0.00061021064 -0.06828455
0002a0 37 53 22 3b 4d 80 8a 3c c1 4b e8 3d bf 6f 3c bc
       0.0024768838 0.016906882 0.11342574 -0.011501252
0002b0 39 8f b8 bd eb 2d 49 bc 97 38 01 3c 6f 0e e0 3c
       -0.090116926 -0.012279014 0.007887027 0.027350632
0002c0 37 88 44 bd 99 68 0e 3e d6 64 8e 3d 4d 78 07 3e
       -0.047981467 0.13907088 0.06952827 0.13229485
0002d0 f1 4d cd bd 24 7f 5d 3e b5 c2 80 3d 39 1e 98 3d
       -0.10024632 0.21630532 0.062871374 0.074276395
0002e0 d3 a0 1f 3d 01 4f 4d 3e c4 7a 93 3c d6 13 b2 3d
       0.038971733 0.20049669 0.018002875 0.0869519
0002f0 bd 0b cf 3d 73 a1 48 bc 24 05 b3 3d 8a 71 a0 3d
       0.10109661 -0.012245524 0.08741215 0.07834156
000300 74 24 04 3e ec f7 5a 3d 0b 47 21 3b 0d cb b6 3d
       0.12904531 0.053459093 0.0024608995 0.089254476
000310 b0 5d 26 3e 8e 37 27 3e 9f e3 f5 3d 14 cb 7d 3d
       0.16246676 0.16329786 0.12006306 0.06196125
000320 63 a2 41 bd db 6f 53 bc 67 06 0b 3e b7 d1 00 3e
       -0.047274005 -0.012905086 0.13576661 0.1258
000330 b7 a8 51 bd 70 18 1d 3e ec 92 bf 3a 00 e2 a5 3d
       -0.05118629 0.15341353 0.001461593 0.08099747
000340 bc 7c e7 3c 5a 25 d8 bd 61 f6 7b bd 98 f9 e7 bd
       0.02825772 -0.10553999 -0.061514262 -0.11326903
000350 e3 f7 f4 bd 9b 7e 2b be da 56 8f 3d 32 ba e8 bd
       -0.11961343 -0.16747515 0.069989875 -0.11363639
000360 48 52 00 be a6 fe 32 3b 01 78 7c bb 08 68 d1 bd
       -0.12531388 0.0027312427 -0.0038523676 -0.102249205
000370 67 20 95 bd 91 96 6a 3d ad 35 49 3d bb 6a da bb
       -0.07281571 0.057272498 0.049123455 -0.0066655553
000380 3d 93 09 bd 61 d5 0b 3e 6a 2e c3 bd 02 a6 ff bc
       -0.033587683 0.13655616 -0.09530337 -0.031207088
000390 f9 72 a5 bb 2c 13 8f bd 43 b6 af 3d cf c7 ba bd
       -0.005049106 -0.069860786 0.085796855 -0.09120142
0003a0 cf bd fe bc 93 e9 d2 bd 77 2b 78 bd 5a 7c 20 3c
       -0.031096367 -0.10298457 -0.060588326 0.009795273
0003b0 99 49 89 3d 58 32 e7 3d 80 f8 5f 3d 47 55 10 3d
       0.06703491 0.11288899 0.054680347 0.035237577
0003c0 9b 9c 82 bd 9f f0 dc bc f7 b2 1c bd fa 91 c1 bd
       -0.063775264 -0.026970206 -0.03825661 -0.09451671
0003d0 56 0e 7d 3d 10 6d 69 bd 60 e6 5b 3d ec 4a 58 3d
       0.06178125 -0.056988776 0.0536865 0.052805826
0003e0 b4 d7 0d 3e 1c 4c be 3d cb cf a5 bd ee 60 48 3d
       0.13851815 0.092918605 -0.08096274 0.048920564
0003f0 fc 07 f4 3c 35 54 73 3d 1c c8 2b bd 35 9d d3 3d
       0.029788963 0.059406478 -0.041938886 0.10332719

lstm.weight_hh_l0 f4 [256, 64]
000000 3f 41 9d 3c 2c f6 84 bd fa 69 f9 3d 1c 01 47 3d
       0.01919615 -0.06492266 0.121784166 0.048585042
000010 8a a1 2f bd 6e c9 94 bd 27 b3 5a 3d 0d 8f fb 3d
       -0.042878665 -0.07264982 0.05339351 0.12283144
000020 44 4a 0a 3e 2e 55 ba bd 65 67 1c bd e2 db e4 bb
       0.13504893 -0.09098278 -0.038184542 -0.00698422
000030 c5 3d 79 bd f5 6c 1c 3a 42 ee 0f 3d 6f 15 02 3e
       -0.060849924 0.00059671636 0.03513933 0.12703489
000040 8d 58 ed 3d 10 e0 30 be 09 1a e6 3d 22 f7 eb 3c
       0.11589155 -0.17272973 0.112354346 0.028804366
000050 dd ff 95 bd 2b 04 ed 3b cd 2e ef bb 16 80 3c bc
       -0.07324193 0.007233163 -0.0072992803 -0.011505147
000060 05 4b cb 3d e3 06 27 3c e6 7f 05 3d 18 fb 17 bd
       0.09926418 0.010194513 0.032592677 -0.037104696
000070 f7 69 cf bd 43 e7 03 be fc eb e9 bc d7 f3 27 3d
       -0.10127633 -0.12881188 -0.028554909 0.04100403
000080 00 35 cd 3d 69 1d 46 bd 43 8f bf 3d d1 dc bc bd
       0.100198746 -0.04836789 0.09353497 -0.09221805
000090 2d 55 de bb 21 f1 07 bd 18 a6 fd bc cc 11 d2 3d
       -0.006785056 -0.033188943 -0.030962989 0.10257301
0000a0 54 ed 3e bc 62 23 e8 3b 7e 63 9a bc d5 54 3d 3d
       -0.011653263 0.007084296 -0.01884627 0.04622348
0000b0 27 5c e8 bd 39 43 1f bd 40 87 81 bd f6 bd 30 3e
       -0.11345702 -0.038882468 -0.06324625 0.17259964
0000c0 31 bb 24 bc 03 bd d9 bc 04 08 9a 3c 4f e4 ef 3c
       -0.0100543955 -0.026579386 0.01880265 0.02928367
0000d0 20 e6 81 bd 65 30 d4 bc 4c c4 95 bd 49 6e a2 bc
       -0.06342721 -0.025901983 -0.07312831 -0.019827979
0000e0 ae 8e b9 bd b1 55 0a 3e 2d dd b0 3d 5b 80 8a 3d
       -0.09060417 0.13509251 0.08635936 0.06762763
0000f0 d7 3a d2 bc c5 fa 8f 3d 6d 43 cc bc d3 d6 a1 bd
       -0.025662823 0.07030252 -0.024934495 -0.079023026
000100 2e 7d 8b 3d 07 38 65 3d c8 85 97 bd 4a 3e 7f bd
       0.068109855 0.055961635 -0.073985636 -0.062315263
000110 37 27 bc bd f8 fe ec 3d 89 27 27 be 91 99 db 3c
       -0.09187167 0.11572069 -0.16323675 0.026806625
000120 2d 00 80 bd 5f 9f 90 bd 8f 36 7d 3d 52 76 07 3c
       -0.062500335 -0.070616476 0.06181961 0.008267956
000130 17 05 d9 3d 4d 20 2a 3a 84 9f 0d bd 19 e7 d0 3d
       0.10596674 0.00064897985 -0.034575954 0.102003284
000140 b8 9d bd bc a7 da 37 bd d7 f8 07 be 4b 2c 72 bd
       -0.023146495 -0.044886257 -0.13278519 -0.059124272
000150 89 02 81 bd d1 32 cd bb 13 7d 2d bd 8c 26 f4 3d
       -0.06299312 -0.0062621613 -0.04235561 0.11921415
000160 24 cd cf bd 3d f3 8d bd ac 88 77 bd 73 c6 c9 3b
       -0.10146549 -0.0693116 -0.060433075 0.00615769
000170 ee d0 28 3e 55 03 0e 3e 94 44 1d 3e 8a 26 ee bd
       0.1648595 0.13868459 0.15358192 -0.116284445
000180 5b 8e 07 3e 35 6c 2f 3e 32 0f ef 3d e1 5c 19 3e
       0.13237898 0.17131121 0.1167282 0.14976837
000190 91 27 11 be d3 a4 a5 bd 30 6f 10 be a3 07 06 bd
       -0.1417525 -0.08088078 -0.14104915 -0.032722127
0001a0 66 34 0a 3e ba 1a 00 3e a2 46 eb 3b a6 51 fc 3b
       0.13496551 0.12510195 0.007180051 0.007700163
0001b0 ac e7 d2 3d e4 0e 33 be 8a 18 23 3d b8 1f dc bd
       0.10298094 -0.17486149 0.039818324 -0.10748237
0001c0 36 b1 07 3d 4a 0f fd 3d c9 6a b1 bd 17 19 a1 3b
       0.033127986 0.12356432 -0.08662946 0.004916321
0001d0 c1 b4 36 3c d7 bf 98 3c ba 7a 28 bc dd 43 04 3e
       0.0111514935 0.018646164 -0.010283167 0.12916513
0001e0 2f 91 21 3e da d0 63 3d 3e b3 2c bd 7e e8 c1 bd
       0.1577804 0.0556191 -0.042163126 -0.094681725
0001f0 7e 8c 5d bd 91 c9 00 3e ec 73 9a bd 02 5d 23 3d
       -0.054089062 0.12576891 -0.075416416 0.03988362
000200 31 55 02 be b8 d1 7f 3e 91 10 49 bd 56 3f 61 be
       -0.1272781 0.24982345 -0.049088065 -0.21996817
000210 7e ae 27 be 83 90 77 bd e8 2f 06 3e db 44 35 3d
       -0.16375157 -0.06044055 0.13104212 0.04425512
000220 08 b1 0a bd c3 2d 81 3e d4 89 a5 bd c5 c3 60 bd
       -0.033860236 0.25230226 -0.08082929 -0.0548742
000230 21 92 1b 3e df 55 bd 3a 80 34 a5 3d ac f2 f5 bd
       0.15192463 0.0014445147 0.08066654 -0.120091766
000240 5e 1c 8b 3e a3 e9 08 3d 07 21 df 3c 67 94 1c bd
       0.2717008 0.03342594 0.027237428 -0.038227465
000250 1e 2f f8 3b 95 09 3a 3c bf e6 87 3e db 01 c7 3d
       0.007573976 0.011354824 0.26543233 0.09717151
000260 ac a0 69 3c 03 66 95 bc ea 40 12 3e d5 be 12 be
       0.014259499 -0.01823712 0.14282575 -0.14330609
000270 f4 c8 91 3e 2f 79 24 3d 6b 90 32 3d 66 f2 83 3d
       0.28473628 0.040154632 0.04359476 0.06442718
000280 e8 e1 84 3b a0 be a3 3e 34 92 4e 3d c7 29 3b 3e
       0.0040552504 0.31981373 0.0504324 0.18277656
000290 02 6b 96 be f0 26 36 3d 84 af ba bc 75 46 88 3d
       -0.29378515 0.044470727 -0.02278877 0.066540636
0002a0 ec be 78 3e 12 90 98 3d 86 73 0c 3e 34 66 27 3e
       0.24291581 0.07449354 0.13715944 0.16347581
0002b0 74 c5 de 3d 31 ee 3c be 43 3e df 3d f7 6b 8e 3d
       0.10877505 -0.18450238 0.10900547 0.069541864
0002c0 ae 53 1b 3d 51 ca 94 3e 30 23 39 bc 67 fe d0 3d
       0.0379216 0.29060605 -0.011299893 0.102047734
0002d0 65 4b b0 bd f7 ee 85 3b 2a 0f fd 3c 25 f2 aa bd
       -0.0860813 0.0040873247 0.03089102 -0.08346967
0002e0 a8 21 70 3e c0 9b 84 3e 6d 1a 11 3d ae a6 61 3e
       0.23450339 0.25900078 0.035425592 0.2203624
0002f0 65 df 3d be 3d c5 7f 3e fa 48 42 3d 03 ad 51 3e
       -0.1854225 0.24977584 0.047432877 0.20476155
000300 6d 08 c0 3d dc 92 9c 3d 16 92 c9 3d 91 ad 06 3e
       0.09376607 0.07645199 0.09842317 0.13152148
000310 85 bf 4f bc d0 ce 99 bd 32 31 36 3d bd d1 d1 bd
       -0.012679939 -0.075101495 0.04448051 -0.102450825
000320 e9 10 5d 3d 35 04 83 3d 2e 96 2f be 69 a3 e6 3d
       0.053971205 0.06397287 -0.17147133 0.11261637
000330 cd 48 30 3e cf 2b 8c bd 98 5f 07 bd f1 08 42 bd
       0.17215271 -0.06844293 -0.03305015 -0.04737181
000340 2c c5 3b 3e 7c c9 26 bb b2 d7 b5 bd 58 76 6b be
       0.18336934 -0.0025449684 -0.08879031 -0.22994363
000350 11 a3 a8 bc 1f 3e b8 bc 43 8f f1 3d 79 c2 e4 bc
       -0.020585569 -0.02249056 0.11794903 -0.027924763
000360 9c d5 05 3e 07 50 2c 3c b1 23 f4 bd e6 84 c8 3d
       0.13069767 0.010517127 -0.1192087 0.09790973
000370 4a 87 4e bc a8 f9 8d 3d 74 68 07 3e 56 3e 5d 3c
       -0.012605498 0.06932384 0.1322344 0.013503632
000380 1c 0d b1 bd 12 bd b0 3d 90 91 99 bd 5a 39 9c 3c
       -0.086450785 0.08629812 -0.07498467 0.019070316
000390 ee 23 f7 3a a9 e9 16 3e 54 9f bd 3d 5f b9 98 3d
       0.0018855312 0.14737572 0.09258905 0.07457232
0003a0 e8 18 28 bd b0 ca aa bc 7c 97 16 bc c4 41 b9 3d
       -0.041039377 -0.020848602 -0.00919139 0.09045747
0003b0 21 18 73 bd d6 50 98 bd b4 61 35 3e fb ee fa bd
       -0.059349183 -0.07437293 0.17713052 -0.12252613
0003c0 c6 ab 38 3e 0c 4a 1b 3e f6 8d c2 bd 8d cc 0d 3e
       0.18034276 0.15164965 -0.09499733 0.13847561
0003d0 e6 ef d5 bd 32 43 94 bb 62 91 15 3d 5a 82 1d 3e
       -0.104461476 -0.004524612 0.0365156 0.15381756
0003e0 3f 6b db 3d 4a b0 1c bb 39 f4 ac 3c 00 fd 27 3c
       0.10713815 -0.0023908787 0.021112548 0.010253191
0003f0 72 44 30 be 5c fd ca 3d ab 7a e5 bd 2f 4f 75 ba
       -0.1721361 0.09911606 -0.11205038 -0.00093578076

lstm.bias_ih_l0 f4 [256]
000000 f4 84 70 3b 9f 93 f1 3b 39 d2 62 3e e0 8f 30 bd
       0.003670034 0.007372334 0.22150506 -0.04310596
000010 1e 7d 7d 3e e8 20 ad 3d 08 af 13 bd 79 44 94 bc
       0.2475476 0.08453542 -0.036055595 -0.018099057
000020 48 7d c8 3c 2b a1 3c 3d 6c 02 ce 3d 2c c2 1c 3e
       0.024473801 0.04605214 0.10059056 0.15308446
000030 c6 c8 ce 3d 43 c2 b9 bc f4 6c 81 3c df 6b 09 3b
       0.10096888 -0.022675639 0.015799023 0.0020968837
000040 a0 56 06 be 09 16 87 3e 94 86 c5 3d b9 d6 7a 3c
       -0.13118982 0.26384 0.09644809 0.015309983
000050 18 dc 8e bd 6c 8e be 3d e1 46 e6 3d 70 a2 8c 3a
       -0.06975573 0.093045086 0.11243988 0.0010729562
000060 a6 86 4f 3e 03 25 22 3e 2d 45 9b bd d8 09 08 3e
       0.20266208 0.15834431 -0.075815536 0.13285005
000070 02 58 05 be 6a 3b 11 3d dd 68 82 bd e3 8f 95 3b
       -0.13021854 0.035457052 -0.06367657 0.004564272
000080 b1 12 3a 3c 35 87 ed bd 89 0a c0 3d 02 31 06 be
       0.011356995 -0.11598054 0.093770094 -0.13104632
000090 bc b5 db 38 2b a8 58 bd 7e d2 27 3e b2 7b 6d 3d
       0.000104765844 -0.052894752 0.1638889 0.057979293
0000a0 f4 45 aa 3d 34 b8 18 bd 3f 6b ef 3d 14 62 f2 3d
       0.08314124 -0.037285045 0.116903774 0.11835113
0000b0 db de 6d 3d f8 c2 c5 3c 74 e5 63 3d 88 76 00 bd
       0.05807386 0.02414082 0.055638745 -0.03136304
0000c0 17 2c bc 3c bd 3a 29 3e e5 77 2e 3e 7a 61 17 3d
       0.022970242 0.16526313 0.17037924 0.036958195
0000d0 44 c5 5f bd 6c e7 3b 3d d5 66 94 bc d8 a2 4a 3d
       -0.054631487 0.045874998 -0.01811544 0.049471706
0000e0 7e 89 2c bd a0 19 96 3c 98 f8 b8 3c d0 02 f5 3d
       -0.04212331 0.018322766 0.022579476 0.11963427
0000f0 11 e3 7b 3d 4f 4d ba 3d 51 00 45 3e d7 59 2d 3e
       0.061495844 0.09096777 0.19238402 0.16928802
000100 f7 c1 43 bd 72 fd aa 3d 7b fd dc 3d c4 30 88 3d
       -0.0477924 0.08349122 0.10790535 0.06649926
000110 f8 a5 d4 3d c1 06 3f 3e 9b aa 08 be bc 84 22 3e
       0.103832185 0.1865492 -0.13346331 0.15870947
000120 d9 9c 22 3e 50 b1 d1 3d 5a 47 88 3d 9a 7e a7 3d
       0.15880145 0.10238898 0.06654234 0.08178444
000130 66 0e a4 3d 8d 46 35 3e b5 37 35 bd 2f 62 64 3c
       0.08010559 0.17702694 -0.04424258 0.013939424
000140 32 16 07 3e 2d fa 13 3e 92 e7 41 3e a4 4d 03 3d
       0.1319206 0.14450903 0.18935993 0.032056466
000150 43 8c d7 bd b9 a7 c8 3d 86 ca 7e 3b 2d a9 11 3e
       -0.105248 0.097976156 0.0038878038 0.14224692
000160 70 22 d8 3c b1 cd 2d 3d 52 6a 1e 3d ad db 65 3d
       0.026383609 0.04243249 0.038675614 0.056117702
000170 58 9b 9f bd a6 54 cc 3d 4e 56 22 3d da 15 1f 3e
       -0.07793301 0.09977083 0.039633088 0.1553568
000180 87 c9 c0 3d 2d 98 0b bd ec ea 99 bc 95 9d a0 3d
       0.09413438 -0.034080673 -0.018788777 0.078425564
000190 cd b7 d7 3c b4 ac 41 3e 2e 17 fd 3d b7 f2 9d 3c
       0.02633276 0.18913537 0.12357937 0.019280775
0001a0 ae 69 cc 3d 9e 0f e4 bd 2b 13 6f 3e bc 9a 29 3e
       0.09981094 -0.11135791 0.23347156 0.16562933
0001b0 50 39 5b 3e ca 52 21 3d 46 98 c3 ba f2 7a 31 3c
       0.21408582 0.039385594 -0.00149227 0.010832535
0001c0 f7 7b df 3b 6f c9 ca 3d 1b 22 6d 3e e7 96 26 3e
       0.0068201977 0.09901702 0.23157541 0.16268502
0001d0 80 f2 0d 3d 53 4e cf 3c 12 69 71 bc 60 34 94 3d
       0.034655094 0.025305903 -0.014734523 0.07236552
0001e0 bc 56 88 bd 9e 3d 86 3d 66 5c 2c 3e 5c cd 15 3d
       -0.06657168 0.06554721 0.16832122 0.0365728
0001f0 37 05 bf bc db 15 0d bc 5b a5 20 3e e8 d9 ae 3d
       -0.023317916 -0.008611168 0.15688078 0.08537656
000200 17 91 39 3c 0b 6e 0b 3e 99 6e ff 3d cd 19 d1 bd
       0.011326096 0.13616197 0.12472267 -0.10209999
000210 2a 4a 8c 3c 10 e4 7e bb 63 da 91 3d c5 06 42 3d
       0.017125208 -0.003889326 0.07121732 0.047369737
000220 9c f8 98 3d e7 67 36 3d c9 bb 23 bc 1a 99 7f 3d
       0.074692935 0.044532683 -0.009993502 0.06240187
000230 35 04 0f 3d cf 82 5d 3d 33 06 f7 3d a4 4a e7 3d
       0.03491612 0.054079827 0.12061729 0.112935334
000240 1a 39 11 be d4 1f 97 bc 47 4d 25 be 5d dd c7 3d
       -0.14181939 -0.018447794 -0.1614276 0.097590186
000250 32 57 68 3d 7a 1f bb bd c8 f7 b1 bd 0c 0a 0a 3e
       0.05672378 -0.09136863 -0.08689839 0.13480395
000260 82 3c 04 3e 03 36 89 3d 58 7d 71 3d 38 e2 88 bd
       0.12913707 0.06699755 0.058957428 -0.06683773
000270 03 30 a0 3d 12 07 06 bc 2c 2b 09 bb f1 47 ae 3c
       0.078216575 -0.008180397 -0.0020930273 0.021274539
000280 44 05 86 bd ff ce 5a 3c 31 13 79 3d 86 61 03 3d
       -0.06543973 0.013355016 0.060809318 0.032075427
000290 89 cd 6e 3c 70 cc 13 bd ef 5e a6 3d 60 12 03 3d
       0.014575371 -0.03608364 0.08123576 0.031999946
0002a0 30 84 50 bd 3e 5d bc 3d 9c 70 b0 3c e4 3f 85 bd
       -0.050907314 0.09197472 0.021538071 -0.06506327
0002b0 1f fa 0f 3e c3 92 63 3d 76 0a 1e 3c b7 2a 50 bd
       0.14060257 0.055559885 0.009646049 -0.050821986
0002c0 db 83 8c 3d 38 77 ce 3d de d8 1a be ee d2 2e 3e
       0.06861087 0.10081333 -0.15121791 0.17072651
0002d0 db 66 14 bd bc 4d c9 3c cc 7b 94 3d 0e a2 c7 bd
       -0.036230903 0.0245732 0.07250175 -0.09747706
0002e0 fa 63 85 3d 99 25 d4 3d 6a b7 0b 3e 4a fc 2c 3d
       0.0651321 0.10358734 0.13644186 0.04223279
0002f0 ab a3 60 bd 83 f7 01 3e e2 4a f5 bd 11 c9 24 3d
       -0.054843586 0.12692074 -0.119771734 0.040230814
000300 e7 09 06 3e 0c ca dc bc 9d 00 21 3e 16 5d fd 3d
       0.13089715 -0.026951812 0.1572289 0.1237127
000310 a6 52 30 3e f9 aa f7 bc ce 51 13 3e de 11 2a bd
       0.17219028 -0.030232893 0.14386675 -0.041520946
000320 66 b1 d7 bc f9 8c cc bd 1e fb 9a bd 49 06 00 3e
       -0.026329707 -0.09987826 -0.07567428 0.12502398
000330 24 76 07 bd f3 a7 64 3e 2f 4f 9b 3d 6a 39 b7 3c
       -0.033071652 0.22329693 0.075834624 0.022366244
000340 bf 40 a8 3b a4 cb d2 3d 4d 6f ca 3d f4 b8 ab bd
       0.0051346715 0.102927476 0.0988451 -0.083848864
000350 bf 6f 76 bc f3 a8 10 3e 6c 27 8d 3c 33 dd e1 3b
       -0.015041291 0.14126949 0.017230712 0.006892824
000360 41 13 15 3d 23 18 ca 3d a0 f4 45 3c 1d 22 5e 3d
       0.036395315 0.09867885 0.012082249 0.05423175
000370 92 c4 50 3c 00 aa c3 bd b3 4e 39 3c 2b a4 10 3d
       0.0127421785 -0.09553909 0.011310267 0.035312813
000380 88 a3 26 3e 74 e3 71 bd f9 7d 87 3d 92 b4 85 3d
       0.1627332 -0.059054807 0.06615824 0.06528582
000390 3f 32 de 3d d1 91 06 3d 7b a8 88 3d 38 96 2e 3c
       0.108494274 0.032853905 0.0667276 0.010655932
0003a0 0b 3d 9a bd b5 4c 8b bc 0e 5a 3d 3e 72 7d 27 3e
       -0.07531174 -0.01700435 0.18491384 0.16356447
0003b0 26 19 3b 3e 3d 0e 54 bd ba ea be 3d fa 81 7a 3d
       0.18271312 -0.05177139 0.09322114 0.06115911
0003c0 33 67 9c 3d 18 74 88 3d 5d 6b 2c 3e bb 90 54 3e
       0.07636871 0.06662768 0.16837831 0.20758335
0003d0 48 83 bf bb 88 8d 64 3d 09 8f b0 3d 94 8e 1f 3e
       -0.0058445074 0.055799037 0.08621032 0.15581733
0003e0 62 52 4b bc 6c 52 82 bd 1d 2b 67 3c 6d 29 a1 3d
       -0.012409778 -0.06363377 0.0141094 0.078692295
0003f0 69 e3 2f 3e 87 c1 84 3c 1b 8d 47 3d f2 b4 40 3e
       0.17176594 0.016205562 0.048718553 0.18819025

lstm.bias_hh_l0 f4 [256]
000000 8e 3d 26 bd 7f 18 20 3e b5 4e 4e 3e b2 ba 50 3c
       -0.040586047 0.15634345 0.20147212 0.012739824
000010 a0 08 ff 3d 3f 46 ce bc b3 80 4f bc 45 da 87 bb
       0.12452817 -0.02517998 -0.012664962 -0.004145893
000020 9c d5 d1 3d 56 48 11 bd 1b 73 06 bd 0f 0e da bc
       0.10245821 -0.035469376 -0.032824617 -0.026618032
000030 3f bb d3 3b a2 4b 0a 3d 82 00 c6 3c 49 61 d5 bd
       0.0064615305 0.033763535 0.024170164 -0.10418946
000040 ff d2 66 3c 0a 27 2c 3e 3d c9 24 3e 16 80 78 bd
       0.014088391 0.16811767 0.16092391 -0.060669027
000050 7b 93 ae bd 86 a2 20 3e 78 af a3 bc d7 b8 ef 3d
       -0.085242234 0.15686998 -0.019981131 0.11705177
000060 f1 53 26 3e 39 95 12 3c 15 70 04 be d8 29 70 3e
       0.16242959 0.00894671 -0.12933381 0.23453462
000070 10 f4 54 3b 61 28 dd ba 47 9f 5d 3d 51 ba 0f be
       0.0032494105 -0.0016872996 0.054106977 -0.14035918
000080 f3 69 39 3e ee 40 e7 bd 8c 82 8a 3d df 8e ad 3d
       0.18106823 -0.11291681 0.06763181 0.08474516
000090 1a 5f ad bd 32 1e 05 3e 28 00 8b 3d 44 08 b8 3d
       -0.08465405 0.129998 0.06787139 0.089859515
0000a0 28 05 89 3b ff 5d e3 bd f0 aa 0d 3e bf 82 f0 3d
       0.004181523 -0.11101913 0.13834739 0.11743688
0000b0 10 db 1b 3e 8a f4 f3 bb e5 88 c5 3c b1 92 9c bd
       0.15220284 -0.007444923 0.024113128 -0.07645167
0000c0 9a 70 30 be 76 63 2c bd de 18 88 3e 37 f7 c5 3d
       -0.17230454 -0.04208704 0.26581472 0.09666293
0000d0 fb db d6 3d fa 2e ff bd 51 df 22 bd 17 e5 d4 3d
       0.10491177 -0.12460132 -0.039763752 0.10395258
0000e0 6b 5f 6a 3d ac b6 5c bd 6e 76 17 3d 68 81 ce 3d
       0.057219904 -0.053885147 0.036978178 0.10083276
0000f0 c7 ed 04 3d e3 dd fd bc bb 1c 30 3d b2 87 ce bc
       0.032453325 -0.030989593 0.04299615 -0.025211189
000100 b8 e5 d7 3d 5b 93 8c bd 75 1d cd 3d 1a 54 98 bc
       0.10541862 -0.06864043 0.10015384 -0.01859479
000110 7a df 34 3c cb 5d 52 3e a4 9c 41 bc 9c ed c5 bc
       0.011039609 0.20543592 -0.011817131 -0.024161153
000120 81 06 b8 bb 1d 90 0a 3e 04 fe 1d 3e 1d 62 21 3e
       -0.0056160097 0.13531537 0.1542893 0.15760083
000130 a4 22 c2 3d a2 95 7b 3e 69 80 a9 bd 64 35 0b 3e
       0.094792634 0.24568799 -0.082764454 0.13594586
000140 1e ef 47 3d e3 4d cb 3d 47 52 25 3e 8b 43 35 bd
       0.048812024 0.09926965 0.16144668 -0.044253867
000150 ca 17 a4 bc f3 3e 07 bd 77 5a dd bc fa cb eb 3d
       -0.020030875 -0.033019017 -0.027020676 0.11513515
000160 3b 95 0a 3d 32 46 1f bd 51 fb 73 bd 15 61 67 3e
       0.033833724 -0.038885303 -0.059565846 0.22595628
000170 67 f2 5f bd 39 12 ce 3a 91 7b 0d 3e 79 82 2c 3e
       -0.054674532 0.0015721984 0.13816668 0.16846646
000180 bc d9 1c 3e 8f ec 31 3d 4a aa aa bd 74 8f 31 3d
       0.15317434 0.04343849 -0.08333261 0.0433497
000190 96 3b 08 3e ab 0c b2 bc a4 82 e7 3c 83 4b e0 3d
       0.1330398 -0.021734556 0.028260536 0.10951903
0001a0 f7 29 18 3e d2 ce 00 bd 3e ff 1e 3e ed 76 b4 bb
       0.14859758 -0.03144724 0.15527055 -0.005507341
0001b0 7a 5d d3 3c 78 96 c6 3a 9c 56 88 bd bc e7 39 3e
       0.025801409 0.0015151044 -0.066571444 0.18154806
0001c0 25 12 ce bc 09 98 8e 38 80 20 03 3d 08 ef 20 3d
       -0.025155136 6.7994064e-05 0.032013416 0.039290458
0001d0 97 3d ad 3c 4b ff a7 3d a8 d1 c6 bd 29 5c 23 3e
       0.021147532 0.0820299 -0.097079575 0.15953125
0001e0 c8 1b 82 3c ee d8 df 3d c4 e3 9e 3d 9e bf e5 bc
       0.015882388 0.10930048 0.077582866 -0.028045472
0001f0 95 bd 69 bd cb ba c6 3d 74 e3 57 bb c9 f1 bc bb
       -0.057065565 0.09703597 -0.003294197 -0.0057661277
000200 25 1f 85 3d 0a 4b b6 3d e4 8a 47 bd 9e ec 13 3e
       0.06500081 0.08901031 -0.04871644 0.14445731
000210 54 b4 19 be 52 b0 0f bd 81 38 c3 3d 91 57 59 3d
       -0.15010196 -0.03508026 0.09532262 0.053062025
000220 34 69 2b 3c 8f 6b 83 bd c2 21 f5 bb 5a b0 96 3d
       0.010462094 -0.064169995 -0.007480831 0.07357855
000230 6a aa 2b 3c 4d d0 48 3e 87 78 9b 3d af c5 23 3d
       0.010477642 0.1961071 0.07591348 0.039983448
000240 8e 9e c8 bd c4 bb 09 3e 72 d0 cd bd 65 61 df bd
       -0.09795867 0.13450533 -0.100495234 -0.109072484
000250 9a 1f 45 bc 9a f5 a1 bd 78 28 a7 3d 35 7f 9c 3d
       -0.01203146 -0.07908173 0.08162016 0.0764145
000260 32 d2 2e 3e 4f 8f ba 3d a5 6c d8 bd d5 3d 37 be
       0.1707237 0.09109365 -0.10567597 -0.17894681
000270 5b 51 5f 3c ec 0f 81 3d 0d 38 d2 bc 5d 8d b2 3d
       0.0136302365 0.06301865 -0.025661493 0.08718369
000280 87 7e 17 be 40 01 be 3d 94 86 e0 3d 19 b0 b7 3c
       -0.1479436 0.09277582 0.10963169 0.022422837
000290 85 5a 59 3d e9 77 ea bc a1 21 0d 3e b4 e5 51 bb
       0.05306484 -0.02862163 0.1378236 -0.0032027783
0002a0 84 5c a1 3d 60 4e 40 3d 3a 4c 58 3e 98 68 00 3e
       0.07878974 0.046949744 0.21122828 0.125399
0002b0 76 6e c9 3d 88 18 a2 bd 73 01 9d 3a ee f1 c1 bc
       0.09835522 -0.07914835 0.0011978581 -0.023674931
0002c0 98 99 9f bd 8d 9e 65 bd 48 0a c6 bd 2c 0d 31 3e
       -0.077929676 -0.05605941 -0.0966993 0.17290181
0002d0 7e 4f 87 3c d5 46 00 be 64 56 70 bd 42 fc 4a bd
       0.016517397 -0.1252702 -0.05867614 -0.049556978
0002e0 fa df 82 3d ca 53 94 3d 89 c7 9c bd ee 58 8b bd
       0.063903764 0.07242544 -0.07655246 -0.06804071
0002f0 8b 31 ec bd 94 13 dd 3c 7b c3 1d 3d 10 89 ca 3d
       -0.11532887 0.026986875 0.038516503 0.09889424
000300 f5 e0 20 bc b9 57 0f 3e 76 17 44 3d 90 42 f4 3d
       -0.009819259 0.13998307 0.047873937 0.11926758
000310 32 f3 61 3e a7 d5 fe 3d fb ae ae 3d 23 19 3e 3d
       0.22065428 0.12443095 0.085294686 0.04641069
000320 08 b3 4b bd 5d 40 28 bd 01 36 b2 3d 5c 2b d6 3a
       -0.049731284 -0.041077007 0.08701707 0.0016339826
000330 48 57 57 3d ee 40 04 3e 0a 52 f6 bc cc d1 f5 3d
       0.052573472 0.12915394 -0.030068416 0.12002906
000340 ac 3f 73 bd 24 5b 8c 3e 6b 90 7c 3b 0e 2e 8a 3d
       -0.059386894 0.27413285 0.0038538228 0.067470655
000350 6f 6f f7 bd 34 96 d1 3c 92 0c 91 bc 9d 3c 97 3d
       -0.12081801 0.025584318 -0.01770619 0.07384608
000360 4a ed ec 3d 92 92 01 bd cc 1c bd bc e6 b0 66 3d
       0.11568697 -0.03163392 -0.02308502 0.056321047
000370 4a de 1a bd 06 b2 94 3d d3 7b 08 3e 38 5c aa 3d
       -0.037809648 0.07260518 0.13328485 0.083183706
000380 32 40 37 3e 7c 4b 28 3e c0 81 1d bd 3e 6b e1 bd
       0.17895582 0.16435045 -0.038453817 -0.11006783
000390 8c 22 07 3e fe d0 5e bd e0 21 8e 3b 4c a3 11 bd
       0.13196772 -0.05439853 0.0043375343 -0.035556123
0003a0 86 81 16 bd de 7d ca bd 2c 13 4b 3e 3f 2b 9c 3c
       -0.036744617 -0.098872885 0.19831532 0.01906359
0003b0 f3 1f c6 3d 24 1f e6 3d 58 72 09 be 0d 1a d4 3d
       0.096740626 0.11236408 -0.13422525 0.10356531
0003c0 a5 ef a7 3c 93 8b 4c bc 1a 37 ca 3d 7a 79 84 3d
       0.020500014 -0.012484449 0.09873791 0.06468482
0003d0 8f ca 27 bd 85 66 2d 3b 6a f3 67 bd 30 b4 a2 3d
       -0.04096466 0.0026458811 -0.056628622 0.07944524
0003e0 c9 58 1b bc 85 42 76 bd cb 4c 2d 3c 62 3d aa 3d
       -0.009481617 -0.06012203 0.010577391 0.08312489
0003f0 e4 f5 1d 3d b7 0e 88 bd df fc a9 3b 90 f0 1c 3d
       0.038564578 -0.06643432 0.0051876153 0.038315356

fc.weight f4 [5, 64]
000000 bc 03 10 be e1 ff 7c 3d 83 04 36 be bd b3 b4 bd
       -0.14063925 0.061767463 -0.17775159 -0.08823345
000010 26 59 48 3e 24 31 db 3d 48 eb 10 3e 39 2f ba bd
       0.19565257 0.10702732 0.14152253 -0.09091038
000020 89 ec f5 bd 00 d9 03 3e 0b 64 eb bd bc 5f ec bd
       -0.12008006 0.12875748 -0.11493691 -0.115416974
000030 b4 ca 02 3e 61 0e 49 be 09 7e e2 3d 41 34 13 be
       0.12772638 -0.19634391 0.110591955 -0.14375402
000040 c4 6b f8 3d 87 33 66 be 19 72 31 3e 55 c3 b1 3d
       0.1212993 -0.22480594 0.17328681 0.08679835
000050 47 f5 1e 3e 8f c7 b3 3c 8c 39 6b 3b 81 26 51 be
       0.15523253 0.021945743 0.0035892455 -0.20424844
000060 eb 14 09 be a4 01 6f bc 89 d3 54 3e d7 56 ce 3d
       -0.13386886 -0.0145877935 0.2078382 0.10075157
000070 a3 f0 f8 3d 45 ff 67 3d 5f c0 05 3e 44 3b 16 3e
       0.12155273 0.05663993 0.13061665 0.14671046
000080 0e e8 93 be e4 d8 9b 3d f7 c9 c4 3d d2 54 0d 3e
       -0.2888798 0.07609728 0.09608834 0.13801888
000090 7e 12 c5 bd c6 40 c7 3d 5b 6e fb bd 30 a3 18 3e
       -0.09622668 0.097291514 -0.12276908 0.14906001
0000a0 59 d7 2a 3d 70 36 0b 3e 14 e7 aa be f4 a3 ac bd
       0.041709278 0.13594985 -0.33379424 -0.08429709
0000b0 9a 43 c2 be a2 9f 28 3d e4 57 15 3e 16 4b 8b 3e
       -0.379422 0.041167863 0.14584309 0.27205724
0000c0 69 9c c7 3d 01 3b a4 3d 38 b2 39 3d 5e 0b ac bd
       0.0974663 0.080190666 0.04533598 -0.084006056
0000d0 36 2c 80 bd 99 76 be bd 52 8a 1c be ff a9 78 be
       -0.062584326 -0.092999645 -0.1528714 -0.24283598
0000e0 45 61 79 3d aa 76 0b 3e 90 9a 1f be 8b a8 64 3d
       0.06088378 0.13619485 -0.15586305 0.055824798
0000f0 11 30 79 3e 16 a6 26 3e 4d a0 5c 3c 69 e4 60 be
       0.24334742 0.16274294 0.013465953 -0.21962132
000100 e5 84 03 3e c4 46 40 be c1 83 34 3e 93 ef fa 3c
       0.12843664 -0.18776995 0.17628385 0.030631816
000110 9e 6e 83 3e d0 7d fd bd 18 16 ff bd c1 4b 0f 3e
       0.25670332 -0.123775125 -0.12455386 0.13993742
000120 74 62 e3 3d 35 cf 3b be ba 09 94 3c b3 80 34 3d
       0.11102763 -0.18340762 0.018071044 0.04406805
000130 8a f3 31 3d e7 47 ca bd f4 52 0a bd fc ac 3e bc
       0.043445148 -0.098769955 -0.033770517 -0.011637922
000140 08 db 9b bd a5 75 3c be 6b 69 03 3e 47 51 16 be
       -0.07610136 -0.18404253 0.12833183 -0.14679442
000150 d8 e1 12 be d3 36 5c be 46 bd e7 bd 5c 1e 0c 3d
       -0.14343965 -0.21505289 -0.11315398 0.03420864
000160 83 f7 8a bd 7c a1 35 3e d1 44 72 bd 0a b2 7d bd
       -0.0678549 0.17737383 -0.05914766 -0.06193737
000170 bb 14 0a be ae 15 3e bd cf b8 23 be 66 71 c4 3d
       -0.1348447 -0.046407394 -0.15988468 0.095919415
000180 50 17 33 be 06 b4 49 be 16 84 6e be 98 14 c4 bd
       -0.17489362 -0.1969758 -0.23292574 -0.095742404
000190 52 fb 8a 3d f3 90 4c bd 0c 84 f6 3d fb 3d aa 3d
       0.06786217 -0.04994292 0.12036905 0.08312603
0001a0 af 12 16 be 1d 3f 95 bd 4c ec 86 be 45 55 1f 3e
       -0.14655565 -0.072874285 -0.26352155 0.15559871
0001b0 c2 58 1a be 1e 98 8c 3e e4 b9 d7 bd f8 c2 85 bc
       -0.15072921 0.27459806 -0.10533503 -0.01632832
0001c0 41 b0 51 be 29 07 0c be f1 a9 0f be d1 04 56 bd
       -0.20477392 -0.13674606 -0.14029671 -0.052250687
0001d0 8e 25 01 3e ac f1 44 3e 4a 1a 0a 3e f7 dc 8b be
       0.12611982 0.19232816 0.13486591 -0.2731702
0001e0 49 46 4f be 7b a9 22 be 9b 35 48 bd be e2 63 be
       -0.20241655 -0.15884964 -0.048879247 -0.22254464
0001f0 dd e4 2b 3e 76 60 92 bd 4d 26 1a be 0c 01 76 be
       0.16786523 -0.07147305 -0.15053673 -0.24023837
000200 7b 28 96 bb 31 eb d5 bc 7f 7e d4 3e eb f9 78 3e
       -0.0045824624 -0.026113125 0.4150276 0.24314086
000210 35 7a 30 be 3a a2 0b be 39 bf 27 3e e7 60 90 3e
       -0.17234118 -0.13636103 0.1638154 0.2819893
000220 d1 1d 9c 3e 4f 87 4b bc 87 9d e2 bd 57 e0 8e 3e
       0.30491498 -0.012422397 -0.11065202 0.27905533
000230 57 0e 50 be f9 e4 99 3e a8 2b 05 bd d9 03 70 ba
       -0.2031797 0.30057505 -0.032512337 -0.0009155847
000240 52 51 97 bd 7a e3 99 3e 0e ff 84 be 71 b0 8e be
       -0.073885575 0.30056363 -0.2597584 -0.2786899
000250 7f 92 d9 bd 28 74 0d be 3c c6 9f bd bc 65 34 3e
       -0.10623645 -0.13813841 -0.07801482 0.17616934
000260 85 22 66 3e be 8c 24 bc d4 6c 53 bb 94 60 a2 be
       0.22474106 -0.010043321 -0.0032260912 -0.31714308
000270 68 17 d8 3d d7 1a 16 bd 86 1e e4 bd 89 e7 fe 3d
       0.105513394 -0.03664669 -0.111386344 0.124465056
000280 31 6a b0 3b da 95 89 3d 17 02 8a bd 75 78 2c 3c
       0.0053837528 0.06718035 -0.0673868 0.010526766
000290 d4 05 6a bc 14 e8 0a 3e 23 b0 9b 3e f3 df 8e be
       -0.014283616 0.13565093 0.3040782 -0.27905235
0002a0 d8 df 3d be c1 a7 26 3e d4 f9 41 3e 00 7d 92 3e
       -0.18542421 0.1627493 0.18942958 0.28610992
0002b0 c5 2a 72 3e cb 59 d3 bd ba 29 0d bb c4 c0 39 be
       0.23649128 -0.10319861 -0.0021539764 -0.1813994
0002c0 93 ff fa 3c 2a ba 3f 3e a7 82 b7 be d4 bd bb 3e
       0.030639445 0.1872336 -0.35841867 0.36668265
0002d0 ef 9b ae be e6 85 89 3d 7b ec 89 3d 11 8b 4b 3e
       -0.34103343 0.06714992 0.06734558 0.19877268
0002e0 62 23 04 3d cd 07 2d be 1c ae d3 3d ff 24 d6 3d
       0.032260306 -0.16897507 0.10335943 0.10456275
0002f0 95 dd 6c be c0 b7 3e bd f5 8b 94 be 67 98 6c 3d
       -0.23131402 -0.046561956 -0.2901303 0.05776253
000300 57 a7 ed 3d d2 29 65 be 7f cf ee 3c 28 ab b2 3d
       0.11604183 -0.22379234 0.029151676 0.08724052
000310 7d fb f8 3d 53 a6 df bd 96 ee 1f bd f7 6d a7 3d
       0.121573426 -0.10920396 -0.039045893 0.08175271
000320 68 61 d8 3d 1c 1b 2b bc 84 95 18 3e 68 cb af 3b
       0.10565454 -0.010443475 0.14900786 0.005364824
000330 85 ec c4 bc ef 79 70 3d e1 08 85 bc 57 e2 a5 3b
       -0.024038563 0.058710035 -0.016239585 0.005062382
000340 59 20 13 be ab b6 2c bd 60 52 86 bb 57 ba bb 3b
       -0.14367808 -0.042166393 -0.0040991753 0.0057290005
000350 83 66 da bd bd 86 34 be f2 fe 6d be 00 11 da bd
       -0.10664084 -0.17629524 -0.23241785 -0.10647774
000360 09 61 c1 bd 8a eb 3c 3e 17 db 6b be 4b 72 fe 3b
       -0.09442336 0.18449226 -0.23032795 0.0077650896
000370 0a 28 54 be e6 67 38 be 23 1f 0d be 52 f6 a1 bc
       -0.20718399 -0.18008384 -0.13781409 -0.019770775
000380 11 d9 69 be ff 66 67 be 15 ce b7 bc 91 9d aa bd
       -0.2283671 -0.22597884 -0.022437135 -0.08330835
000390 94 96 c6 3d b6 c8 5f be 3c 08 db 3b 57 cb cf bc
       0.09696689 -0.21853909 0.006684331 -0.025365515
0003a0 4e 3e 45 be d0 bd 82 bc b3 e6 95 bd 46 41 b0 3d
       -0.19262049 -0.01595965 -0.07319393 0.086062
0003b0 06 0d 9e bd e0 68 26 3e cc 9a 2e be b0 81 b6 3b
       -0.07717328 0.16250944 -0.17051238 0.005569659
0003c0 83 9b f2 bd 3f 5f 3f be 23 17 f7 3c 12 00 1b bd
       -0.11846068 -0.18688677 0.0301624 -0.037841864
0003d0 7b f5 27 bd 88 37 27 3e 0c 68 95 3d ef 1f 42 be
       -0.041005593 0.16329777 0.07295236 -0.18957494
0003e0 2e 47 20 be e3 be 85 bc 95 73 f5 3d 14 fa c9 bd
       -0.15652153 -0.016326373 0.11984936 -0.09862152
0003f0 e5 72 1d 3e 49 97 54 3c f4 90 f8 bd bb c1 44 be
       0.1537586 0.012975522 -0.121370226 -0.19214527

fc.bias f4 [5]
000000 17 3e 39 bd cf 0d 06 be 16 2f 88 3d 12 25 5a be
       -0.04522523 -0.13091205 0.06649606 -0.21303204
000010 cc ea ba 3d
       0.09126815
