LSTM_Classfier.pth (torch, 101765 bytes, 6 tensors)

lstm.weight_ih_l0 f4 [256, 30]
000000 45 4d da b9 5e a9 0f 3d df cf a3 bd ea 46 7c 3d
       -0.0004163777 0.03507363 -0.07998633 0.061591066
000010 ce 0a 9a bd 87 f3 bc bd 6b ea 62 3d a4 1d b5 3d
       -0.07521592 -0.09226137 0.05539934 0.08843544
000020 ca 11 0a 3d a5 5a 7a bd da 8d e7 3d 14 2f e5 bc
       0.03370837 -0.0611216 0.11306353 -0.02797655
000030 10 cd bc bd b1 36 0e 3d e1 40 73 bd 07 42 0f bd
       -0.092188 0.034720127 -0.059388045 -0.034975078
000040 59 a1 fb bd 36 11 b1 bd f4 84 ed bd 66 dd 0b be
       -0.12286634 -0.08645861 -0.115976244 -0.13658676
000050 49 86 ae 3d a9 dc bd 3c 66 3e 33 3d 91 72 01 3c
       0.085217066 0.023176508 0.04376068 0.00790085
000060 f5 e9 ad 3d dc 73 06 be cd ff 88 bd 28 d3 f1 bd
       0.084918894 -0.13130134 -0.06689415 -0.11807853
000070 8b 37 c6 bd 78 8d c8 bd ae 9c 82 bb 61 c1 1d bd
       -0.09678563 -0.09792608 -0.003985963 -0.0385145
000080 a5 25 e8 3d 4b 13 6f bd 2c f4 bb 3d 46 26 2f 3d
       0.11335305 -0.05836801 0.091774315 0.04276111
000090 2b 7f 69 3d 84 9e 40 bd 3e 01 2b 3e 7c 5b 5c bd
       0.057006042 -0.047026172 0.16699693 -0.053798184
0000a0 9c 9c bd 3c 10 f1 4f 3d 71 44 91 3d 27 20 88 bc
       0.023145966 0.050767004 0.07093132 -0.016616894
0000b0 6f bc 6f 3d 72 8d c8 3d 47 8c 9d bd f8 28 f1 3d
       0.058529314 0.097926036 -0.076927714 0.11775392
0000c0 36 fa 35 bd 49 0e ba 3d 82 88 e6 bb f2 15 a4 3c
       -0.044428073 0.09084756 -0.007035316 0.020029996
0000d0 8d fb ae bd 53 e6 3a bd 38 e6 94 3c ba 4f b4 3d
       -0.08544073 -0.04562981 0.018176183 0.08804269
0000e0 b7 92 9c 3d 8f 73 37 3d 40 46 6e bd 15 24 9b 3d
       0.07645171 0.04478794 -0.058172464 0.075752415
0000f0 5b db 84 3d bd e6 bc bd d2 25 a9 bd a0 28 b9 3d
       0.06487151 -0.09223697 -0.08259167 0.09040952
000100 03 8b 49 bc f3 b7 a8 bd ec d1 9d 3d 73 d3 12 bd
       -0.012301209 -0.082382105 0.07706055 -0.035846185
000110 33 92 8e bc ac 98 63 bd 6e 9e ae 3d e8 5d 19 bc
       -0.017403698 -0.05556552 0.08526312 -0.009360768
000120 57 cb 74 3d cf f4 41 bd a9 2c eb 3d e6 99 a4 3d
       0.059764232 -0.04735261 0.114831276 0.08037166
000130 9d 56 4b bc d4 74 42 3c 9f 1c 59 bd 85 a1 a7 3c
       -0.012410787 0.011868674 -0.05300581 0.02046276
000140 f1 56 88 3c 5c 44 89 3d 94 67 b1 3c db e0 8e bd
       0.01664302 0.06702492 0.021655835 -0.069764815
000150 d5 d1 c0 3d 82 93 1f 3d 86 28 03 bd 20 b1 bd 3d
       0.09415022 0.038959034 -0.032021068 0.092622995
000160 6f 3b 62 bc 9e a6 eb 3d 70 d9 c0 3c ff e5 28 3b
       -0.013808115 0.11506389 0.023541182 0.0025771854
000170 3f 18 1d bc 9d fb 33 3b 91 86 3c 3d 0d ad f3 bd
       -0.0095883 0.0027463206 0.04602677 -0.11898241
000180 cc 3c 5c 3d 02 80 c7 3c 91 7c a8 3d 2e 00 e3 3c
       0.053768918 0.024353031 0.08226884 0.027710047
000190 3d 47 c2 bd 54 7f cf 3d ab 60 d1 3c 2c b1 13 ba
       -0.09486244 0.10131708 0.02555879 -0.00056340056
0001a0 0b 2c 89 3d 33 84 25 bc f6 e4 c0 bd 01 36 f0 bd
       0.06697854 -0.0101023195 -0.09418671 -0.117290504
0001b0 d5 40 ae bd 94 8d cc 3d 33 3b ae bc 58 04 8b 3d
       -0.085084595 0.099879414 -0.021268463 0.06787938
0001c0 c4 19 dc bc 39 9d 2f bd fb f9 9f bd f1 9b 61 bd
       -0.026867755 -0.04287455 -0.07811352 -0.055080358
0001d0 86 f4 91 bd 35 19 cc bc 99 39 41 3b 44 a7 ad bc
       -0.07126717 -0.024914363 0.0029483794 -0.021197923
0001e0 d9 ce 16 3d 72 7e a4 3c 79 80 06 bd 7f b8 ee bb
       0.03681836 0.020079825 -0.032837365 -0.0072851772
0001f0 a2 19 f4 3d e9 93 7d ba 06 73 af bd 9c cb d3 3d
       0.119189516 -0.00096732244 -0.08566861 0.1034157
000200 1f 69 48 3d 46 ff 61 3d e6 09 67 bc 16 c8 e0 bc
       0.048928376 0.05517509 -0.014101481 -0.027439158
000210 b6 c7 bb bc cf c2 b6 bd bc f8 a7 3d 96 4e 80 bc
       -0.022922378 -0.089238755 0.08201739 -0.015662473
000220 2e a7 12 bb 65 2c 56 3d a9 78 b6 3d 58 da 15 bd
       -0.002237748 0.05228843 0.08909733 -0.036585182
000230 55 7f bd bd a2 77 b5 bd 42 b7 d4 bc 78 d1 0a 3c
       -0.09252802 -0.08860709 -0.02596629 0.008472793
000240 04 06 bb 3d 43 81 e6 3c 33 e3 86 3d 2b b8 e2 3c
       0.09132007 0.028137809 0.065863036 0.027675709
000250 f8 bf 1b bc f4 64 32 bc 75 dd d6 3d cf 4c a1 bd
       -0.009506218 -0.010888327 0.10491458 -0.07875978
000260 75 73 bb bb 7c 63 99 3d d4 16 cb bd 50 2c 15 be
       -0.0057205507 0.07489678 -0.099164635 -0.14567685
000270 82 5b fa 3d 11 31 34 3d 17 cc c8 bd f9 f8 13 3e
       0.12224485 0.043992106 -0.09804552 0.14450444
000280 fa af e1 bd 24 81 94 bd c5 d5 06 3e 20 ac e2 3d
       -0.11019893 -0.07251194 0.13167484 0.110679865
000290 f2 cf af 3d 4c b2 fe bd 86 6d 05 bd 24 23 01 bd
       0.08584584 -0.12436351 -0.032575153 -0.031527653
0002a0 8e af fb bd e9 01 9c bd 63 15 b9 3d b5 52 82 bd
       -0.12289344 -0.07617552 0.09037282 -0.06363431
0002b0 5f f6 41 3d 43 7f 09 be ba 07 ee bd e6 e8 d7 bd
       0.0473541 -0.13427453 -0.116225675 -0.10542469
0002c0 29 d5 9c 3d da 9b 93 3d 93 da a0 3c 4c aa 20 bd
       0.076578446 0.07207461 0.019635474 -0.039224908
0002d0 41 a4 ee 3b 9e 6c d1 bd 95 32 1c bd f4 96 b1 bc
       0.007282764 -0.10225795 -0.038134176 -0.021678425
0002e0 32 6a 64 bc 6b 59 37 bb 76 d9 cb bd f7 54 3b bd
       -0.013941335 -0.0027976881 -0.09953587 -0.045735326
0002f0 2d 97 d1 3d e2 b7 f0 3d 80 21 27 3e a0 f6 87 3d
       0.102339126 0.11753823 0.16321373 0.06638837
000300 c3 b9 f3 bd 9d 7b c4 3d 5e 05 bb bd be 8e db bd
       -0.119006656 0.0959389 -0.09131883 -0.10720585
000310 07 45 a3 3a 27 cd d9 3d 60 da fa 3d 7c 1d da bb
       0.0012456485 0.10634833 0.12248683 -0.006656347
000320 96 75 c5 3d 9b b4 38 3c 86 5b 99 bd 0e 40 85 bd
       0.09641568 0.011273528 -0.0748816 -0.06506358
000330 30 13 a8 bc ea d2 bb 3c ef 39 2d be 99 05 5d 3d
       -0.020516962 0.02292772 -0.16916631 0.053960416
000340 b4 bc e3 3c 44 cb c6 3c ec 8d cb 3d ec 0b bd ba
       0.027799942 0.024266846 0.09939179 -0.0014423109
000350 19 27 c8 bd 77 4b 20 bd b7 e0 84 3d ee 50 e8 bd
       -0.09773082 -0.03913447 0.064881735 -0.11343561
000360 ab 3d 08 be 60 19 c5 bd 43 fc 39 be 1d 70 8e 3d
       -0.13304774 -0.096239805 -0.18162636 0.06954978
000370 69 8b a3 bd d7 e3 e4 bb 40 0d c7 3d 0c 6d 86 3c
       -0.07985575 -0.0069851684 0.09719324 0.01640942
000380 a7 43 b6 bd a7 0c bc 3c c8 a5 04 be 37 c8 68 bd
       -0.088996224 0.022955252 -0.12953866 -0.056831565
000390 dd 8f 4d be b4 8b 8c b9 70 55 61 bd 82 ef 98 bd
       -0.2007441 -0.00026806968 -0.05501312 -0.074675575
0003a0 1e bc 0a be b3 39 5b bd e9 a2 05 be ea 04 a8 bd
       -0.13548324 -0.053521823 -0.13050427 -0.08204062
0003b0 a8 c2 ae bc 00 b2 df bd 05 71 82 bd a7 6f 12 be
       -0.021333054 -0.10922623 -0.06369213 -0.14300404
0003c0 70 1f 76 bb 0b 7c a2 3d 56 af 5a 3c 0c 5f 8d bd
       -0.003755536 0.079338156 0.013347467 -0.069028944
0003d0 41 44 d5 bc f5 9c c0 3d 80 51 c3 3c 72 76 8e bd
       -0.026033523 0.09404937 0.023842573 -0.069561854
0003e0 e6 e0 00 3e e2 78 87 3c 5f 23 e7 3d 93 a1 e6 3d
       0.12585792 0.016537134 0.112860434 0.112612866
0003f0 2a 7b 24 bd 12 22 0e 3d ec 3f c3 3d ea 6f 17 3e
       -0.04015652 0.03470046 0.095336765 0.14788786

lstm.weight_hh_l0 f4 [256, 64]
000000 8b df ff bd ce a4 95 bd 94 44 c0 bd ac 98 81 bd
       -0.12493809 -0.073068246 -0.0938808 -0.06327948
000010 77 df 0f 3d 7b 63 c3 bd b3 76 80 3c b0 52 af bc
       0.035125222 -0.09540459 0.0156816 -0.021401733
000020 74 e8 be 3d 9c cc 58 3e bc 0d 4f 3e ec 00 a9 bd
       0.09321681 0.21171802 0.20220083 -0.08252129
000030 c3 61 a6 bd 50 2f f2 3d db 2e e7 3c a9 01 f3 bd
       -0.08124115 0.118254304 0.028220585 -0.11865551
000040 1a db 3f 3e 70 6f 7e ba b1 83 7a bd 93 52 dd 3b
       0.18735924 -0.00097059365 -0.061160747 0.0067542284
000050 ce 5d ca 3c b5 8a ca bd bd 9a 66 be d2 cf 99 3c
       0.024702933 -0.098897375 -0.22519965 0.018775854
000060 b8 f1 85 bc 6f 3b 50 bc 3a 0c ce 3c d1 21 97 3d
       -0.016350612 -0.012709483 0.025152314 0.07379497
000070 6d 87 1f 3d 7d c2 07 be 34 06 1f bd 66 1b ae 3b
       0.03894751 -0.13257785 -0.038824275 0.0053133247
000080 ec c1 30 be c0 40 53 be 49 56 e2 bd da 35 63 3d
       -0.17261475 -0.20630169 -0.11051614 0.05547128
000090 b2 a9 68 bc 6f ed 15 3e 52 6c 7c bc 55 be 8c 3d
       -0.014200615 0.14641355 -0.015406685 0.068722405
0000a0 1b f5 98 3d f3 69 d1 3d 03 69 d5 bd 90 b2 52 be
       0.07468625 0.10225286 -0.1042042 -0.20575929
0000b0 23 bc 0f 3d 1d 88 bd bd 54 ba ac bc 3c c4 c3 bd
       0.03509153 -0.09254477 -0.021084942 -0.09558913
0000c0 d7 b4 13 3e 15 c9 19 3e c5 d0 59 ba 7e af 1d bc
       0.14424454 0.15018113 -0.0008309002 -0.00962436
0000d0 ce 01 29 3b 58 f6 1b 3e 7d 78 aa 3d fa 4a d0 bd
       0.002578843 0.15230691 0.083237626 -0.10170551
0000e0 49 5d 77 bc ba 72 94 3c 76 d2 4d bd 6f 27 eb bb
       -0.0150979245 0.018121112 -0.05024954 -0.0071763317
0000f0 88 41 70 bc 52 cf fa 3d 67 64 b5 3d 91 18 2e 3c
       -0.014664061 0.122465745 0.08857041 0.010625974
000100 0e 6c ef bc b9 b9 56 3e cc 7a 90 bc 4f 66 2e bd
       -0.02922633 0.20969285 -0.01763668 -0.042578038
000110 65 e5 cb 3d 87 77 87 3c 38 ca 99 3e e1 1d 51 bd
       0.09955863 0.016536487 0.30037093 -0.051053885
000120 ed 0c bd 3d 92 18 91 bd 1c 46 99 3d 0c 82 7c 3e
       0.09230981 -0.070847645 0.074840754 0.24658984
000130 81 3d 25 bd 70 16 3d 3e e7 ad 8d 3d 1c 44 49 be
       -0.040341858 0.1846559 0.06917935 -0.19654888
000140 64 22 ad 3d 42 3e 2f be bf 68 ee bd fa 2c cb bd
       0.08453825 -0.17113593 -0.116410725 -0.09920688
000150 91 f8 36 bb 6c 01 a1 bd c0 ad 1c bd b6 68 f7 3b
       -0.0027919153 -0.07861599 -0.03825164 0.0075503243
000160 a3 29 5d bd 23 d6 95 3e 19 3e 76 3e 8b 32 bb 3d
       -0.053994786 0.29264936 0.24047126 0.091405
000170 11 bc 3c be e6 f8 3c be 9c 4a a5 3d ab a5 7f 3c
       -0.18431117 -0.18454322 0.08070871 0.015603463
000180 4e d4 81 bd 67 ec 09 3d 29 8e 5e 3d c9 0e 16 3c
       -0.06339322 0.033672716 0.054334793 0.0091587985
000190 fa 3b 9f 3d d4 0f 9a 3c ed 98 80 3e e8 c1 22 3e
       0.077751115 0.018806376 0.25116673 0.15894282
0001a0 ff 4c 26 3e a0 df b2 bd aa ac d6 3d 39 38 23 be
       0.16240309 -0.08734059 0.10482152 -0.15939416
0001b0 99 aa 1e 3d 5a 4e 10 bd 42 a2 50 be f1 fe 91 bd
       0.038736913 -0.035230972 -0.20374396 -0.07128704
0001c0 f4 cf 0a 3e f2 dc 8e bd 22 45 b1 bd 55 85 5e bd
       0.1355589 -0.06975736 -0.08655764 -0.054326374
0001d0 6a a0 9a 3c 41 3d c7 3c 49 b2 17 bd e5 b4 47 3e
       0.01887532 0.0243212 -0.03703526 0.195026
0001e0 66 15 06 3e 9b 14 81 3b bc 7f 3c be 7d f8 14 be
       0.130941 0.003939224 -0.18408102 -0.14547916
0001f0 d9 20 30 3b 5c 80 49 bd da 04 90 bd ac a4 71 bd
       0.0026875047 -0.04919468 -0.07032175 -0.058994934
000200 b1 47 8e bd 1f 93 be 3d 45 6d 65 be 44 03 0d be
       -0.06947268 0.09305405 -0.22404964 -0.13770777
000210 7f df 93 3d 07 97 82 3e 3f 4f e0 bd d6 5c 54 3e
       0.07220363 0.2550585 -0.10952615 0.20738539
000220 c9 32 ea bb 66 b3 ad 3d c2 a5 22 3c 24 06 d0 3d
       -0.0071471673 0.08481483 0.009927215 0.10157421
000230 dd c8 f5 3d a5 92 8d 3c 15 88 2a 3e 4a 35 d1 3d
       0.12001202 0.01728184 0.16653474 0.10215242
000240 46 7e 8c 3d 1e 99 21 bd 4a ae f7 bc d2 d8 b8 3b
       0.06860022 -0.039452665 -0.030234475 0.0056410814
000250 9e 90 d1 3d 4b 4e 87 bd 9f 15 22 be f1 cb fa 3d
       0.10232662 -0.0660673 -0.1582856 0.1224593
000260 c3 83 ec 3d ba 62 b7 3d 64 96 75 3d 28 ae 13 3e
       0.11548569 0.089543775 0.059957877 0.14421904
000270 ed df ac bd 3f 71 62 bd d3 43 db 3d ce 55 a0 bd
       -0.08441148 -0.05528378 0.10706296 -0.07828866
000280 b1 a1 69 be dd b3 0b 3e 7b 18 a8 bd ca bb 83 3e
       -0.22815587 0.13642831 -0.08207794 0.2572921
000290 8d 8a 0f bd ac b4 b5 3d e7 88 ca 3c d0 5b 1a be
       -0.03504424 0.08872351 0.024723483 -0.15074086
0002a0 a9 39 34 3e 7c 9e 5e 3e 08 19 05 be 23 e8 f3 3d
       0.1760012 0.21740144 -0.1299783 0.11909511
0002b0 95 8a 02 3e 2c 90 ca bd 2e 46 b8 3d db bd 18 bd
       0.12748177 -0.0989078 0.08997761 -0.037290435
0002c0 ee a9 39 bd 56 af eb 3d 9c 3b 29 be e1 be 60 3e
       -0.045328073 0.11508052 -0.16526645 0.21947815
0002d0 4a 8f b2 bd f0 60 a9 3e 81 3b a4 bd 6f cf 49 3c
       -0.087187365 0.3308177 -0.08019162 0.012317522
0002e0 28 eb 03 be c9 d8 96 3e f2 ac 06 3e 18 4d 2c be
       -0.12882674 0.2946227 0.13151911 -0.16826284
0002f0 48 7a 60 3e bc 89 05 3e b1 9f 43 be 52 60 c6 bd
       0.21921647 0.13040823 -0.19103886 -0.096863404
000300 f5 1c 6a bd b9 47 bf bc 37 ab 45 bd 69 9e 0a be
       -0.05715652 -0.02334963 -0.048258986 -0.13536991
000310 ee de 7a bc 1c fb 2e 3d be ad 21 bd ff 8f e0 3d
       -0.01531194 0.042719945 -0.039472334 0.10964965
000320 75 40 1b 3e 53 42 98 3d f6 dc 93 bd ca 43 87 3e
       0.15161307 0.07434525 -0.07219879 0.26418906
000330 da 18 20 3e 68 11 04 3e 6b 2c b2 3c f5 9c 78 3c
       0.1563448 0.12897265 0.021749696 0.01517414
000340 e6 9f 4e bd 35 95 b2 3d cc e9 48 be 29 ed 5d 3e
       -0.05044546 0.08719865 -0.19620436 0.216725
000350 f2 57 3b 3e 8c 7f 92 bd 10 72 33 bd 54 91 a1 bd
       0.18295267 -0.07153234 -0.04380995 -0.07889047
000360 ee 5c 90 3c 94 ba ca 3d d7 41 05 3e 8b 82 35 3d
       0.017622437 0.09898868 0.13013397 0.04431395
000370 2a 35 6d bd 4d 57 79 bd 9c cc ff 3d fc 5b f3 3c
       -0.05791203 -0.060874272 0.12490198 0.029706948
000380 ca 06 93 be 49 fc 2d be bd d7 e3 bc 33 29 21 3e
       -0.28716117 -0.1699077 -0.027812833 0.15738373
000390 7f 04 96 bd 1c af 8f 3d 82 ec 3c 3e fa cc 93 3c
       -0.07325076 0.07015821 0.18449596 0.018042076
0003a0 9a cb 53 3e 3e 92 16 3e c4 5e 82 be bf be 18 3d
       0.20683137 0.14704224 -0.25462925 0.037291285
0003b0 17 9f 85 3d 08 6d 84 bc 3e c5 33 be 70 83 c6 3d
       0.065244846 -0.016165271 -0.1755571 0.096930385
0003c0 bd 75 3c 3d 2a b3 17 3e 1c be 79 bd 15 36 6f 3c
       0.04601072 0.1481444 -0.060972318 0.0146002965
0003d0 2a f6 be bd b4 55 21 3e 8a 6d cb bd aa 63 5e 3e
       -0.09324296 0.1575535 -0.09933002 0.21717706
0003e0 04 6f 6c 3c 75 45 30 3d 03 12 b2 3c 58 8e 0c be
       0.014430765 0.04303499 0.021737104 -0.13726175
0003f0 3c f8 17 3e c0 2e cf 3c 45 03 0a bd 93 f8 cc bd
       0.14840788 0.025290847 -0.033694524 -0.10008349

lstm.bias_ih_l0 f4 [256]
000000 c0 39 8c bd 2a cf e5 3d f2 4a a0 3d 7b f8 fe 3d
       -0.068469524 0.11221154 0.07826795 0.12449738
000010 16 7f 6b 3e 63 80 74 3e 9d 57 fa 3d 7f da 4d bb
       0.22997698 0.238771 0.12223742 -0.0031410751
000020 67 24 28 3e d2 5c c2 3c 91 02 23 3e 58 8b f6 bd
       0.16420136 0.0237259 0.15918948 -0.120382965
000030 08 fe 81 bc 6f 91 09 3e 46 9f 06 3e 46 d8 96 3c
       -0.015868202 0.13434385 0.13146695 0.018413674
000040 55 b3 ac bd 01 27 f8 3c a3 cf 06 3e 84 40 4e 3d
       -0.08432642 0.030292036 0.13165145 0.050354496
000050 30 65 28 bd 6d 7e e3 bc ac 18 d2 bc e8 b4 41 3e
       -0.041112125 -0.027770245 -0.02564653 0.18916667
000060 27 af 25 3e 8a ec 83 3d be 48 ca 3c 53 63 2d bd
       0.16180097 0.064416006 0.02469289 -0.04233105
000070 54 df 06 3e d5 b2 09 3e 8e bb 4a 3d d3 36 fd 3d
       0.1317113 0.13447125 0.049495272 0.123639725
000080 af 7e 33 3e 90 ff 19 3e 59 63 43 bc 7b b0 81 bd
       0.17528795 0.15038896 -0.011925542 -0.06332489
000090 fb 95 4c 3e ba f4 a9 3e 75 a6 2a 3b 49 45 a7 3d
       0.19979088 0.33194524 0.0026039158 0.08167512
0000a0 49 4c 11 3e 5a 1b 98 3c 2e 71 6c 3c f2 06 fe bc
       0.14189257 0.01856773 0.014431281 -0.031009171
0000b0 25 4f 59 3d 1d 88 c4 3d 82 ca b8 3b 3e de 54 3d
       0.053053994 0.09596274 0.005639375 0.05196976
0000c0 40 59 51 3e 3f 54 df 3b 78 ec 0c bb 22 d5 35 3d
       0.20444202 0.006815463 -0.002150325 0.044392712
0000d0 5d d7 94 3d 47 fc a9 3d aa b5 61 3e 10 95 22 3d
       0.0726764 0.08300071 0.22041956 0.03969294
0000e0 84 d7 fa 3d 73 44 3d bd 7c cb ca bd 8d 58 31 3e
       0.122481376 -0.046207856 -0.09902093 0.17318936
0000f0 cc 6e ec 3c 9f 99 a5 3d c0 c2 c2 bb e7 76 25 bd
       0.028861426 0.080859415 -0.005943626 -0.040396597
000100 bf d7 b2 3d 09 2a bc 3d cc e0 bd bd 9d dc 97 b9
       0.087325566 0.09187705 -0.09271392 -0.00028965334
000110 14 de 8d bc f3 0c 88 bd b7 5b ba 3b b7 38 2d 3e
       -0.01731781 -0.06643095 0.005687203 0.16916166
000120 ab 2e b4 3c d0 de de 3d 2a 21 23 3e 2f 9a 28 be
       0.02199491 0.10882342 0.1593062 -0.16465066
000130 1b 01 c5 3d 25 2e 7b bd 2f 39 94 3c e2 60 96 3d
       0.096193515 -0.061323304 0.018093674 0.07342698
000140 c3 c2 90 bd ed 92 05 3d d8 d8 e9 bc 98 96 81 3d
       -0.07068398 0.032610822 -0.028545782 0.063275516
000150 c4 95 da 3d 5a 59 e1 3d d2 b1 82 3e 66 e9 87 bd
       0.10673097 0.110033706 0.2552629 -0.06636314
000160 d1 9b 20 3e a4 78 81 3c a4 f1 a1 bd 71 95 d8 bc
       0.15684439 0.015804596 -0.079074174 -0.026438447
000170 2d df b2 bb ef 5f 75 3d f5 78 a5 bd 05 0b 0c bd
       -0.0054587335 0.059905943 -0.08079711 -0.034190197
000180 29 bd e1 3d 09 e7 1e 3c 39 5b 9a 3d a4 5b f6 3d
       0.110224076 0.009698638 0.075369306 0.12029198
000190 76 94 9e bc fd 32 27 3e b2 9c 0e be f8 88 56 3d
       -0.019357901 0.16328044 -0.13926962 0.052376717
0001a0 d1 66 ff 3d d6 4d 50 ba f4 33 de 3d a1 1d 22 3d
       0.124707825 -0.0007946169 0.10849753 0.039579038
0001b0 00 2a 29 3e 10 05 cd bd c6 29 7b bd 7f 63 9a 3d
       0.16519928 -0.10010731 -0.061319135 0.075385086
0001c0 cd 60 d9 3d 8c 6f d4 3c a3 65 0e 3e 2f 5d ee 3d
       0.106141664 0.025932096 0.13905959 0.11638867
0001d0 89 5d dc 3d 64 76 dc 3d 23 6e 2e 3d 58 08 27 3d
       0.10760028 0.10764769 0.042585503 0.04077944
0001e0 aa e2 2b 3e 43 a3 a3 3c 68 86 98 3d bf 19 45 bd
       0.16785684 0.01997531 0.07447511 -0.048120257
0001f0 5c 5b dd 3d ac 99 a0 3d c5 6c 01 3d bf d6 bf 3d
       0.10808441 0.078418106 0.03159787 0.093671314
000200 42 9f 18 3d 93 f8 f7 3c b0 9a bd bd bd 93 43 3d
       0.037261255 0.030269897 -0.0925802 0.047748316
000210 d6 ec f4 bd 45 99 9e bc f4 13 c7 bd 74 bd 0d bd
       -0.11959235 -0.019360194 -0.09720603 -0.034604505
000220 db 78 88 3d 1b dc 31 3c 45 9a f8 bd f7 94 3d bd
       0.06663676 0.0108557 -0.121387996 -0.046284642
000230 cd 25 06 3e 21 6f 09 bd a2 65 d8 bc 6b 08 09 3e
       0.13100357 -0.033553246 -0.02641565 0.13382117
000240 3b 7d c9 bd 23 48 1c bd 08 9a dd bd 51 42 eb 3c
       -0.09838339 -0.038154732 -0.10820395 0.028718146
000250 64 47 40 3d 4e 39 db 3d 8e 5c 22 3d 66 19 b3 bd
       0.046943083 0.107042894 0.03963905 -0.08745079
000260 71 72 c1 bc e7 e6 e3 bd db 99 35 bd 13 97 d4 bd
       -0.02361414 -0.111280255 -0.04433618 -0.103803776
000270 1e c6 09 bc 65 10 29 3d c1 a2 29 3e d9 7b b6 3d
       -0.008409051 0.0412754 0.16565992 0.08910341
000280 34 9c 30 be 2f cc 9f bd bd c1 a2 bd fe c9 37 3d
       -0.17247087 -0.07802617 -0.07947109 0.04487037
000290 9a ae ec bc da 3d 1a bd 0d cf 84 bb 2b af a0 bd
       -0.02889185 -0.037656642 -0.0040530027 -0.07845911
0002a0 74 99 a4 3d 3c 7d 09 3e 22 de dd bd 99 57 d8 bc
       0.08037081 0.1342668 -0.10833384 -0.026408957
0002b0 64 90 f8 bc 1a e1 9e 3d 47 eb 67 bd 51 3f 25 bc
       -0.030342288 0.077577785 -0.056620862 -0.010085897
0002c0 fb 53 be bd c0 d9 d6 3d ef 7a c7 3d 3a e0 13 3e
       -0.09293362 0.10490751 0.097402446 0.14441004
0002d0 99 9d 8d bd c8 64 d6 3c ae b2 f7 bd 0c 73 c1 bd
       -0.06914825 0.026171103 -0.12094627 -0.094457716
0002e0 b3 b3 96 bd 34 9a 27 bd e1 cd 01 3d d1 0c 45 3d
       -0.07358494 -0.040918544 0.031690482 0.048107926
0002f0 43 b7 20 3d 83 96 07 bd a4 8e 8a bd 52 ce ba bd
       0.039237272 -0.033102524 -0.06765488 -0.09121384
000300 6a 0d 78 3d 15 20 ea bb ae 1e 9f 3d e5 7b 9c 3e
       0.060559668 -0.0071449378 0.077695236 0.30563274
000310 07 da be 3d f6 a1 18 3e 44 1d 1a 3e bb d3 01 3e
       0.09318929 0.14905533 0.15050226 0.12678425
000320 f4 eb 84 3d 35 4e 3f 3e 97 0c 15 3e 87 29 13 bb
       0.06490317 0.18682177 0.14555584 -0.0022455172
000330 64 1e 87 3c 56 24 40 bd d2 6f 3b 3e 25 fc cc bb
       0.016493984 -0.046909653 0.18304375 -0.006255644
000340 28 89 90 bd 4c a4 aa 3b 75 de ce 3d 75 9c 1b 3d
       -0.070574105 0.005207574 0.10101024 0.037991006
000350 3a fe 77 bd fd e0 0a 3d f1 3d 37 3d 6c 11 c6 3d
       -0.060545184 0.03390597 0.044736806 0.09671292
000360 80 93 07 3e 2f ea 2e 3e 6c b1 75 3e 74 35 1e 3e
       0.1323986 0.17081521 0.23993462 0.15450078
000370 74 76 14 bd cc 0e 89 3d a6 47 df 3d e8 34 72 3d
       -0.03624578 0.066922754 0.10902338 0.059132487
000380 09 af ef 3d ef 91 5e 3e b2 25 62 3b 7a 17 f6 3d
       0.11703307 0.21735357 0.0034507331 0.120161965
000390 9a e3 37 3d 15 4b 34 3e 8d 3c 80 3d 9f 4a 86 bd
       0.044894792 0.17606767 0.06261549 -0.065572016
0003a0 15 66 25 3e 2f b1 ff 3c 08 bb 27 3b b2 03 81 3d
       0.16152222 0.031212417 0.0025593657 0.06299533
0003b0 19 ee 0f bd 5b f9 ea bc 23 2e 7f 3d 41 58 24 3e
       -0.035139177 -0.028683355 0.06229986 0.16049291
0003c0 55 d9 08 3e bd aa fd bc e0 6a 7a bc 45 4d 33 3e
       0.13364156 -0.030965203 -0.01528427 0.17509945
0003d0 cf ea 3e 3d 11 7c 5b 3e 1a f2 7f 3d a3 ac d5 3d
       0.04661065 0.21434046 0.062486745 0.104333185
0003e0 6b e6 b4 3d 76 e3 e8 3d a9 0a 0d 3e c5 e0 58 3d
       0.08833011 0.1137151 0.13773598 0.052948732
0003f0 17 6f 1f 3e d4 8c fc 3c 69 94 12 3e d4 8e 20 3e
       0.15569721 0.03082887 0.14314426 0.15679485

lstm.bias_hh_l0 f4 [256]
000000 8e 6c 68 bd d7 fd 55 bd 0f 5d b7 3d 26 be 04 3e
       -0.05674415 -0.052244034 0.089532964 0.12963161
000010 62 f0 1c 3d 68 17 e6 3d c2 c3 1b bc 58 b5 1e 3d
       0.038315184 0.11234933 -0.0095071215 0.03874716
000020 51 3c 42 3e 5c 37 ba 3c 8b 84 71 bc 80 37 99 bd
       0.18968321 0.022731476 -0.014741073 -0.07481289
000030 1c 13 45 bc d4 85 d2 3d 21 8e 1f 3e e2 e2 5d bd
       -0.012028482 0.10279432 0.15581562 -0.05417145
000040 ac 09 12 bc 4b a3 c4 3d ce 1b f9 bb ed 79 8d 3d
       -0.008913439 0.09601458 -0.0076021915 0.06908021
000050 7e 51 25 bd 86 f7 2f 3e a4 14 1a 3e 36 ac 1e 3e
       -0.04036092 0.17184266 0.15046936 0.15495381
000060 24 8d 43 3e 30 c8 11 3e 5f 41 a3 3c 16 de 01 3e
       0.1909681 0.14236522 0.019928632 0.12682375
000070 a2 bc 33 3e 1a 52 fa 3c 61 c3 36 bd 78 6b 52 3d
       0.17552426 0.030556727 -0.04461992 0.05137202
000080 6c 07 98 3c cb ac 00 3e b2 91 a2 3d 07 fe db 3d
       0.018558227 0.12565915 0.079379454 0.10741811
000090 34 c7 f9 ba e5 01 c6 3d 30 58 ad 3d 25 ba d7 bd
       -0.001905656 0.0966833 0.08464086 -0.10533551
0000a0 d5 29 a1 3d 39 9c 3f bc a1 d9 63 bd 46 e3 8c 3b
       0.07869307 -0.011694961 -0.05562747 0.004299554
0000b0 f9 10 e2 3d f3 f9 e8 3d cc 21 34 3d 38 37 10 3e
       0.110383935 0.11375799 0.043977544 0.14083564
0000c0 6a 5a 87 3d 05 fc 00 ba f0 c4 67 3e ef c9 d6 3d
       0.06609042 -0.00049203663 0.2263372 0.104877345
0000d0 c4 2b 32 3e be 9c 5b bd 50 ec 05 bc 16 3a 9b 3d
       0.17399508 -0.053616278 -0.008174017 0.075794384
0000e0 24 a7 6a 3e 07 25 8b bd 2c 43 34 3d 9a 28 39 3e
       0.22915322 -0.06794172 0.044009373 0.18081895
0000f0 6d fb 37 3e 9c 97 1d bd 2d 5b ac bc 2c 34 89 3d
       0.17967005 -0.038474664 -0.02103957 0.06699404
000100 db 64 99 3d ad 14 a4 3d e5 a1 b3 3d ed ae cc 3d
       0.0748994 0.08011756 0.08771113 0.09994302
000110 db 2d ca 3d 81 8d 0a bd 4c ae da 3d a7 c0 39 3e
       0.098720275 -0.033826355 0.10677776 0.18139897
000120 d6 9e 2d 3e ba b8 66 3e d3 bf af 3d 79 57 e0 bd
       0.16955122 0.22531405 0.085815094 -0.10954184
000130 cd 86 9a bd 34 90 11 3d e5 6f 6e 3e 90 1b e5 3d
       -0.075452425 0.035537913 0.23284872 0.11186898
000140 dd 42 86 3d 56 42 f0 3d 60 cc 92 3d 49 6e b5 3d
       0.06555722 0.117314026 0.07167888 0.08858926
000150 5a 2e 30 3e 6f 50 06 3e c4 e3 e5 3d 08 b8 f7 bc
       0.17205182 0.1311662 0.112250835 -0.03023912
000160 ad cf 14 3d 16 9f d2 3d 0b 3d 23 bd 78 37 ce bc
       0.036330868 0.102842495 -0.039853137 -0.025172934
000170 54 45 bf 3d 83 42 a3 3d 58 22 57 3d ef 77 99 bd
       0.09339395 0.079716705 0.052522987 -0.07493579
000180 fa cc 7d 3d 0c 83 a2 3c 89 8d 03 3d 48 d9 c9 3c
       0.06196306 0.019837879 0.0321174 0.02463974
000190 6a eb 45 3d fb 54 b2 3d 92 1e 4d bd 9d 17 9a b9
       0.04832021 0.08707615 -0.050077982 -0.00029390762
0001a0 5a e4 1e bd 2c ef 30 3e bc 9a d9 bd dd 9d fe 3d
       -0.03879199 0.17278737 -0.10625216 0.12432454
0001b0 b8 b2 aa bc b7 3d 69 bd bc 45 42 bd 8c cf 22 bd
       -0.020837173 -0.05694362 -0.047429785 -0.039748713
0001c0 2f b6 14 3e c9 cb 85 3d de c9 27 3e a6 db e4 3c
       0.14522623 0.065330096 0.163856 0.027936768
0001d0 56 2f 23 3e 9a 37 fc 3d 8b d5 2f 3d e1 09 05 3e
       0.15936026 0.12315293 0.04292826 0.1299205
0001e0 47 e7 cf 3d fd d5 eb bc ae 1e f0 3c 55 b1 2a 3e
       0.101515345 -0.028788561 0.029311504 0.1666921
0001f0 e3 ab 8a bd bc ad 10 bd 44 af a8 bd 0e a1 11 bd
       -0.06771066 -0.035321936 -0.08236554 -0.035553984
000200 5b 8b ba bd cf 0e 15 be b7 4f e8 bc f8 23 84 3d
       -0.09108611 -0.1455643 -0.028358323 0.06452173
000210 c3 34 93 3d 39 42 ed 3d c3 24 03 be 1d c3 c2 3d
       0.07187798 0.115848966 -0.12806992 0.09509871
000220 c0 17 0d be d8 44 3a 3d f3 12 1c be cb d6 a9 3d
       -0.13778591 0.04547581 -0.15241604 0.08292922
000230 9e 3d b1 3d b1 4f 65 bd 39 c4 cf bd 26 f6 44 3d
       0.08654331 -0.055984203 -0.101448484 0.048086308
000240 a1 a5 b6 39 75 19 08 3e 8a bb 43 3d f0 00 29 bd
       0.00034837148 0.13290961 0.047786273 -0.04126066
000250 c6 11 00 3b b8 af 74 bd 78 0c fb 3d 25 81 3d 3c
       0.0019541844 -0.05973789 0.122582376 0.011566435
000260 f9 be ae 3d ea b6 6d 3d 6c 2c 0e 3e 30 d3 19 bd
       0.08532519 0.05803577 0.13884133 -0.03755492
000270 3b f6 b8 3d b7 4f e3 3d 05 4d 1c 3e eb 5c a2 3d
       0.0903134 0.11099189 0.15263756 0.07927879
000280 c4 0d 06 be da 95 59 bd 92 e2 89 bd 7c f3 3b bd
       -0.13091189 -0.053121425 -0.06732668 -0.0458865
000290 b2 b7 23 bc 25 40 86 bd 24 b8 9d 3d 3f b3 0c be
       -0.009992527 -0.06555203 0.07701138 -0.13740252
0002a0 d9 c7 8c bd 33 c2 09 3d d1 74 8d 3d 6f 74 0c 3e
       -0.068740554 0.03363247 0.069070466 0.13716291
0002b0 df 20 af 3d f4 1a 08 3b 05 03 85 3d 07 96 fc 3d
       0.085511915 0.0020768018 0.064947166 0.12333303
0002c0 ea d5 91 bd 54 20 d2 3c 22 ed 42 bd b1 ff 0c 3e
       -0.07120879 0.02565018 -0.04758943 0.13769414
0002d0 3e 14 65 3d bd 32 2c 3d fb 2a a6 3d de 1f 7b 3d
       0.055927508 0.042040575 0.081136666 0.061309688
0002e0 c7 30 20 3c ce 39 18 3e c1 70 e2 3d 60 ce d2 bd
       0.009777254 0.148658 0.11056662 -0.10293269
0002f0 17 c6 26 3d 9e 9d c5 bd 0c 97 60 bd f4 c6 10 be
       0.040716257 -0.09649204 -0.05483155 -0.14138395
000300 01 02 c6 bd 24 8b aa 3d 56 3a 4c bc e6 b6 91 3d
       -0.09668351 0.0832732 -0.01246508 0.07114963
000310 06 c5 00 3e fd 82 6e 3e 6d ea 4c 3e 82 22 c0 3d
       0.12575158 0.23292156 0.20011301 0.09381582
000320 df 79 5e bd 24 a8 44 3d 2b 3b 4a 3e a5 e2 b2 bc
       -0.054315444 0.048011914 0.19749133 -0.021836588
000330 55 60 28 3e ca ed 04 3d 7a c6 2e 3e 1b bc 9f 3d
       0.16442998 0.032453336 0.170679 0.0779955
000340 3f a5 aa 3c 35 c3 f3 3c a9 7a 15 3e 70 94 90 3d
       0.020830749 0.029756168 0.14597572 0.07059562
000350 f9 b5 0f 3e 44 92 2e 3e 7e d5 2a 3e 2c 77 45 bd
       0.14034261 0.17047983 0.16683003 -0.048209354
000360 b8 ea 1f 3e 52 a8 e9 3d 35 0a bf 3d 73 8e 00 3e
       0.15616882 0.11409058 0.09328119 0.1255434
000370 82 f1 b4 3d be f9 f7 3a 07 79 1a 3c be b7 6d 3d
       0.088351265 0.0018919033 0.009428269 0.05803656
000380 2b 3e 77 3d 6a c5 b6 3d 69 3d 1d 3e cb 92 07 3e
       0.060362022 0.089243725 0.15355457 0.13239591
000390 98 57 30 3e aa 51 8d 3e cb 88 eb 3d 9b e7 dd 3d
       0.17220914 0.27601367 0.115007006 0.10835191
0003a0 c3 85 58 bc 91 81 b4 3d a0 28 d8 bb 13 76 98 3d
       -0.013215485 0.08813775 -0.0065966398 0.07444396
0003b0 df 3a 39 3e ce 4a 26 3e f5 fa 93 3d f9 20 07 3d
       0.18088864 0.16239473 0.07225601 0.03299043
0003c0 db bb 36 3d 24 01 9b bd 03 7d 24 bc dd 5c af 3c
       0.044612747 -0.07568577 -0.010039571 0.021406585
0003d0 4a 1e 5e 3c d2 13 a0 3d 8c 74 81 3d 28 31 94 3e
       0.013557026 0.078162804 0.06321058 0.28943753
0003e0 1f 7f f1 3d 48 61 53 bb 2f a6 10 3e cf 62 99 3d
       0.117918245 -0.003225403 0.14125894 0.07489549
0003f0 45 8b dc 3d e1 27 98 3d aa d6 92 bc 8b 0a 23 bd
       0.10768751 0.07429481 -0.017924625 -0.039804976

fc.weight f4 [5, 64]
000000 08 26 00 be 27 64 0c 3e f3 45 8d bd 67 7e 0a bd
       -0.12514508 0.1371008 -0.068981074 -0.033811953
000010 68 8f 80 3e de 8d 0a be 9d 13 08 3e 4b 7b 39 3c
       0.2510941 -0.1353068 0.13288732 0.011320899
000020 fb 65 0a 3e 76 f6 58 3e 35 82 95 3e 3f 57 6d 3e
       0.13515465 0.21187767 0.29200903 0.23177813
000030 3a 89 58 3b 3d c0 20 3e 6c b0 17 3e 8f 33 90 bd
       0.0033040778 0.15698333 0.14813393 -0.07041084
000040 5d 4b 43 3e a9 dc 4f be bd ae 90 bd 0c 07 14 3e
       0.19071718 -0.20299019 -0.07064579 0.14455813
000050 90 d8 14 3d c1 4b 5b be 85 23 2b bd 93 28 6c be
       0.036339343 -0.21415617 -0.04178192 -0.23062353
000060 e7 d0 4b be b5 97 34 3e 6c 00 9b 3e f8 c2 0e 3e
       -0.19903909 0.17635997 0.3027376 0.13941562
000070 14 88 f9 bd 80 fa 5c be f7 03 9b 3d bc f1 08 3e
       -0.12184158 -0.21579933 0.075691156 0.13373464
000080 07 9c 36 be 1b bf 17 be f8 e8 0b be 26 79 46 bd
       -0.17832957 -0.14818995 -0.1366309 -0.04845538
000090 ee a7 10 be 42 8d 82 bd f2 e1 2a 3e c7 d6 24 3e
       -0.1412656 -0.06374599 0.16687754 0.16097556
0000a0 e0 20 13 3e 04 ad 2e bd 18 0f a2 bd 34 f3 09 be
       0.1436801 -0.04264547 -0.07913035 -0.13471681
0000b0 0c 5e b4 3c c3 17 81 3e 77 19 97 bd 48 38 fe bd
       0.022017501 0.2521344 -0.07377904 -0.124130785
0000c0 de 0b 13 3e d9 8c d7 3c 80 27 81 bd c5 6e a7 bb
       0.14359996 0.026312279 -0.06306362 -0.0051096403
0000d0 80 f3 08 be bc 29 90 3c cc bf 6b 3e 0a 66 e5 3d
       -0.13374138 0.017598026 0.23022383 0.11201103
0000e0 44 be 96 3e f2 cf d9 3d bb 1a e4 bd 93 ce 6f be
       0.29442036 0.106353655 -0.11137911 -0.23418646
0000f0 af 76 a6 3d 8d d2 3f 3d 26 92 d3 bd c6 a6 88 bd
       0.08128106 0.046831656 -0.1033061 -0.066724345
000100 74 fc c3 3d 47 bb 25 3c cf 73 ae bc af 32 9c 3e
       0.09569636 0.010115451 -0.021295456 0.3050742
000110 42 0e ba 3d ee f6 31 3c b2 ef 0e 3d e3 f4 78 be
       0.09084751 0.010862095 0.03489656 -0.24312167
000120 9b 6a 7a 3d b4 7b aa 3d 9d 0e 1b 3e d2 f1 9c 3d
       0.061136823 0.08324376 0.15142293 0.07663311
000130 c8 ce 80 be b3 87 86 bd 29 2e bd bd c9 84 0b 3e
       -0.25157762 -0.06568851 -0.0923732 0.13624872
000140 2b d1 1b 3d 31 8e cb 3b 64 20 f2 3d aa fd 56 be
       0.038041275 0.006212019 0.11822584 -0.20995203
000150 f3 bd 58 be b8 65 9a bb ae 7d f0 3d 7c b5 6e bd
       -0.2116621 -0.004711833 0.117427215 -0.058278546
000160 ab 10 21 3c db 03 0b be ce 42 50 3d 7d 31 f8 bd
       0.009830634 -0.1357569 0.05084496 -0.12118814
000170 e4 8c aa 3d 44 98 b4 3d 2e 53 0e be 0a c2 a3 3d
       0.08327654 0.08818105 -0.13898918 0.079959944
000180 2b 07 33 3e 64 cf db 3d 0f 81 05 3e b9 19 30 be
       0.17483203 0.10732916 0.13037513 -0.17197312
000190 1f b9 54 3d f8 d4 a7 bd c6 9d e3 3d 48 d7 a0 bd
       0.051934358 -0.081949174 0.11114077 -0.07853562
0001a0 90 c0 53 be 3d e7 5e be 9b 50 62 3e 26 b9 a3 3d
       -0.20678926 -0.21767898 0.22101061 0.07994299
0001b0 62 b1 b5 bd 52 54 10 3e 71 a7 db 3d 16 cb 01 bd
       -0.08871724 0.14094666 0.10725296 -0.03168782
0001c0 73 53 63 3c 02 11 32 be 86 df 1a 3d 28 e9 5c be
       0.013874876 -0.173893 0.037810825 -0.21573317
0001d0 85 26 00 3d 1c 68 12 be 28 5d 1e 3e c3 08 7e bd
       0.031286735 -0.14297527 0.15465224 -0.062020075
0001e0 82 80 10 3e 6d 28 5c be 67 50 32 bd 3b 39 6f 3b
       0.14111522 -0.21499796 -0.04353371 0.0036502618
0001f0 a9 bb 64 bd da 4a e1 3b 90 33 a3 bc 8e ed 72 3e
       -0.05584303 0.006875378 -0.019922048 0.23723432
000200 a4 a7 0d be 54 73 ad bd 3d a0 0d 3e a0 51 48 be
       -0.13833481 -0.08469263 0.13830657 -0.19562387
000210 08 90 74 be 25 f2 b1 bb 77 4d 6a be 1f ad 8e 3e
       -0.23883069 -0.005430477 -0.22881113 0.27866456
000220 ee 17 30 be 0e 49 d7 bc 16 cf 3d be b4 23 3f be
       -0.17196628 -0.026279952 -0.18536028 -0.18665963
000230 e2 9f 94 3d 3c 6d 05 be 8f e1 90 be 6c b8 39 3e
       0.07257058 -0.13029951 -0.28297088 0.18136758
000240 31 23 e3 bd 85 9f 83 3e 94 9a 78 3e 73 e5 e1 3c
       -0.110906966 0.2570764 0.24277717 0.02757523
000250 bf cd 0d 3d a9 74 3b be 31 61 b8 3e 14 41 ad 3d
       0.034620043 -0.18306221 0.3601165 0.08459678
000260 3c b7 10 3e 07 58 44 be 43 10 a5 bd df 88 9c be
       0.14132398 -0.19174205 -0.08059742 -0.30573174
000270 09 e1 97 3e 89 69 a3 3d 95 a0 e4 bd 3f 18 9b bc
       0.29663876 0.079791136 -0.11163441 -0.01893246
000280 7e 40 29 be fd 7a 52 3e 6e a7 b4 3e 5e c8 28 3e
       -0.16528508 0.20554729 0.3528399 0.16482684
000290 a6 07 75 3e 8b ff a7 bb 26 a4 53 be 1b a5 e5 38
       0.23928699 -0.0051268986 -0.20668086 0.00010950324
0002a0 39 28 69 3e da e2 cb 3d f6 83 60 bd d7 95 a4 3e
       0.2276925 0.09955378 -0.054813348 0.3214557
0002b0 66 cf 1f be b1 a9 21 be bb 67 39 be b9 77 0f 3e
       -0.1560646 -0.15787388 -0.18105976 0.14010514
0002c0 b9 3f 44 be 8d 85 9c 3d 3a f5 9c 3e 1a 49 1a bd
       -0.19164933 0.0764266 0.30655843 -0.03766737
0002d0 92 85 5c bd 7c 19 b8 be 54 6c 70 bd 2c 73 6a 3e
       -0.05383832 -0.35956943 -0.05869706 0.22895497
0002e0 fa a9 ad 3c 75 32 44 3d 6c 03 1c be 42 f1 51 3e
       0.021199215 0.047899682 -0.1523568 0.20502189
0002f0 9a 93 7b be d1 51 ac be 2c 0d ba 3e 53 b2 c3 bd
       -0.24568024 -0.3365617 0.36338174 -0.09555497
000300 a1 f3 f3 bc 97 68 1d 3e ab 88 a0 3e 9e ae 5e 3b
       -0.029779257 0.15371929 0.3135427 0.0033978592
000310 53 09 26 be 7b 0e b0 be 0a 2b f2 3d cd 86 9d 3c
       -0.16214494 -0.34386048 0.11824615 0.019229317
000320 ef 1f cb 3d e6 64 67 be 6a 4e 7b 3c e8 24 41 bd
       0.099182 -0.22597083 0.01533852 -0.047154337
000330 2e 7a 04 be 51 b5 62 be 7a 89 03 3e ee 38 0e be
       -0.12937233 -0.22139479 0.12845412 -0.13888904
000340 7c 07 6c be 39 39 e3 3c 04 f4 f2 ba ad 87 09 bd
       -0.2304973 0.027737247 -0.0018535857 -0.033576656
000350 5b a5 90 bc 7f 8a 81 3e 89 fe 13 bd 95 86 36 3e
       -0.017656973 0.25300977 -0.036131416 0.17824776
000360 08 03 3e 3d 51 e7 38 3e 32 37 19 be 2b 00 2b 3e
       0.04638961 0.1805699 -0.14962462 0.16699283
000370 30 3b 30 3d bd cc ea 3d 60 43 5d 3d 59 b6 51 be
       0.043025196 0.11464832 0.054019332 -0.20479716
000380 1a f6 c4 bd 22 60 76 3e 85 e6 ba bd 99 b6 3d be
       -0.09617253 0.2406011 -0.09125999 -0.18526687
000390 6d 26 3c be 84 f7 19 be be fa 0b 3e 13 7c 81 3e
       -0.18374033 -0.15035826 0.1366987 0.25289974
0003a0 b5 e2 ba 3d b6 ee 7c bd 79 00 4b 3e ba 06 5e 3d
       0.09125272 -0.06175109 0.19824399 0.054205634
0003b0 e5 4c 93 be be 38 47 bd 14 38 eb bd 85 54 52 bd
       -0.28769603 -0.048638098 -0.114853054 -0.051350135
0003c0 98 d4 4a be ce 25 56 bd a0 73 41 be b6 8a f6 bd
       -0.1980766 -0.052282147 -0.18891764 -0.12038176
0003d0 a5 08 9d be 0d 3d 50 3e e4 b4 46 be d4 65 15 3e
       -0.30670658 0.20335789 -0.19404942 0.14589626
0003e0 a3 22 91 bd 73 09 82 bd 7a 21 74 3e e5 39 13 3e
       -0.070866846 -0.063494585 0.23840895 0.14377554
0003f0 ae c4 ae 3d 58 1e be 3c ce c4 c0 bd f7 6b 92 3d
       0.085336074 0.023207828 -0.094125375 0.07149499

fc.bias f4 [5]
000000 be 2d 82 bd 2f fe 09 be 33 66 8d bc 1b 3c 73 bd
       -0.06356381 -0.1347587 -0.017260646 -0.059383493
000010 17 c8 08 3d
       0.033393946
