Trans.pth (torch, 12936 bytes, 14 tensors)

transformer.self_attn.in_proj_weight f4 [24, 8]
00000000: 789e 5e3e a08d 42bf 9fa8 a33e 3cc1 9dbe
00000010: abf0 38be 601e 3dbe c83a f33d 0aaa f6bc
00000020: c214 ec3d d7eb 6c3f 9654 afbe 70a3 16be
00000030: 8a88 e63e 113c 803e f358 23be 527b d5be
00000040: fd3a 84be 6f0d d9be beea f43c ae17 70be
00000050: 23a1 f73b 5448 09bf 04a4 86be 8b8a 13be
00000060: 8392 ffbe 6204 7bbf c175 c93e cf00 413d
00000070: 9112 233d 27e1 2bbf 0896 a9be a4ba b2bd
00000080: dff4 403d 80d6 963d 055b 94be 8164 8fbe
00000090: f980 bebd a0ce 683c dd02 d2bd d6be c3be
000000a0: d9c2 f8be 744a 0bbf 5bcf 06be 6c04 c5be
000000b0: cd35 c53e 191e 33bd 63ce d23e 1873 193e
000000c0: 9e72 35be 80d7 263f 71da aabd e5a5 e1bd
000000d0: 7d70 c3be 9451 f1be b4f3 d03d 85dd d3bd
000000e0: fc60 b03e cc76 c4be 0528 c53e bca6 89be
000000f0: cce9 c63c 71ca 953e 8c45 a43e 93d5 ce3e
00000100: cd0c ea3e 1f8c 5ebf 0a0c adbc 9e70 adbe
00000110: f05a 4cbe 1b36 0fbf f3e5 523e 2586 b8be
00000120: f9eb 683d 8840 2d3e d916 cf3e 2f40 0abd
00000130: ca2a 133f c702 8e3e 9455 2d3e d9a9 19bf
00000140: 3325 793e 4baa 46bd 8838 93be a319 733e
00000150: 0d4c 07bd 48fc 83be 96fb 84be 7e01 a4bd
00000160: 17ad e13e a15e c6be 2ba2 eabe 1ad7 d5be
00000170: 137f 19bf 486f 47be a10a f53d 1e7e d4be
00000180: bc73 9f3e 1156 b23e e111 fd3d d56c fdbd
00000190: 6f2d 863e 0263 3b3e 3123 cd3d 3040 033e
000001a0: dbea 15be 8201 053f 02e3 14bf 5a8e 18bf
000001b0: f44c 2ebe 3cc8 9fbd 633b d7be 7834 d7be
000001c0: dfe1 803d 0fa3 07be f8a0 ae3e 1c86 a63e
000001d0: 3024 44be cc92 7cbd e87f f03e b80e b13e
000001e0: d7f6 23be 0447 85be 56f9 00bf aed3 17bf
000001f0: f259 b4be 291d df3c d7fa 2f3e 3782 113c
00000200: 95b6 97be 2481 5abe 2bfd c5bd 6b77 c23e
00000210: a965 b73c f580 3ebe 517c e33d 2e30 38be
00000220: f5c9 46be c4fd 7e3e c8e5 26be c566 64bd
00000230: 17cf cdbe f774 a13e 15b4 ad3e d4e7 493e
00000240: f067 11be 6a2c 80be c671 e0be d3b2 663e
00000250: edc1 e03d 46ef 583e 1d04 b93d 66fb 283d
00000260: f1f8 5e3e 7d16 0cbf 8794 8cbe 2a4f 9ebe
00000270: 912e 8c3e 5985 d9bd a2cf 293d 7828 1dbe
00000280: ff38 d73d 3f41 cbbe fb12 3dbe 4785 673e
00000290: 6ca1 51bd dfd7 8f3e 9601 b1bd c2a1 53be
000002a0: 3d5c 0dbe ce3f 1bbe 5eb3 07be be79 c8be
000002b0: 9ddf 863e 0433 71be 253b 5e3e 80f7 203e
000002c0: 4075 693e 825c 84be 7081 8a3e cd25 6ebe
000002d0: d090 0b3e 541b b13e 5007 b7bd 4135 5ebd
000002e0: 547a 44bd f429 b3be a16c 3f3e 49eb eabe
000002f0: 303d 6b3e 2c32 123e 2177 883e 3b80 ffbd
0.21740139 -0.7599735 0.31964585 -0.3081149 -0.18060558 -0.18468618 0.11876446 -0.030110378
0.11527397 0.92547363 -0.3424422 -0.14710784 0.45026046 0.25045827 -0.159519 -0.41695648
-0.25826254 -0.42393062 0.02989709 -0.23446533 0.007557051 -0.5362599 -0.2629701 -0.14408319
-0.49916467 -0.9805356 0.39347652 0.04711991 0.03981263 -0.6714043 -0.33122277 -0.08727005
0.047108527 0.073651314 -0.28975692 -0.28006366 -0.09301943 0.0142094195 -0.102544524 -0.38231534
-0.48586157 -0.5441048 -0.13165037 -0.38479936 0.3851761 -0.043729875 0.41173086 0.14985311
-0.17719504 0.65172577 -0.08342446 -0.1101797 -0.3817176 -0.47132552 0.10202733 -0.10344986
0.34448993 -0.38371885 0.38507095 -0.2688502 0.024281405 0.29256013 0.3208431 0.4039732
0.4571289 -0.8693256 -0.021123905 -0.33874983 -0.19956565 -0.55941933 0.20595531 -0.36039844
0.056865666 0.16919148 0.4044712 -0.033752616 0.57487166 0.27736494 0.16927177 -0.6002479
0.24330597 -0.048502248 -0.28754067 0.23740248 -0.033031512 -0.25778413 -0.25973195 -0.08008097
0.4407737 -0.3874407 -0.4582685 -0.41765672 -0.59959525 -0.19476044 0.11964918 -0.4150247
0.31142986 0.34831288 0.12356926 -0.12374274 0.26206538 0.18299487 0.10016478 0.12817454
-0.14640372 0.51955426 -0.58158886 -0.5959221 -0.17021543 -0.078018636 -0.42037496 -0.42032218
0.062930815 -0.13245796 0.34107184 0.32524192 -0.1915443 -0.061663434 0.46972585 0.34581542
-0.1601213 -0.26030743 -0.50380456 -0.5930737 -0.35224873 0.027235584 0.17185532 0.008881143
-0.29631487 -0.21338326 -0.096674286 0.37981734 0.022387343 -0.1860388 0.11107696 -0.17987129
-0.19412978 0.24901491 -0.16298592 -0.05576207 -0.4019706 0.3153455 0.33926454 0.19717342
-0.14199805 -0.25033885 -0.43836802 0.22529154 0.109744884 0.21185026 0.09033988 0.041255377
0.21774651 -0.54721814 -0.27457067 -0.30919772 0.27379277 -0.10621137 0.04145778 -0.15347469
0.10508918 -0.39698216 -0.18464272 0.22609435 -0.051179335 0.28094384 -0.086428806 -0.20667174
-0.13804717 -0.15161058 -0.13252017 -0.39155382 0.26342478 -0.23554617 0.2170225 0.15719414
0.22798634 -0.25851828 0.27051878 -0.23256607 0.1362946 0.34591162 -0.089369416 -0.054250006
-0.047968224 -0.34992945 0.18693782 -0.45882633 0.2297256 0.14276952 0.26653388 -0.1247563

transformer.self_attn.in_proj_bias f4 [24]
00000000: e32b 07be 55ff 413d 95f5 47be 24f9 28be
00000010: d7e1 f23c ed20 e2bc 2ce7 7bba 25bd 18bd
00000020: 26c2 d03d aa06 9dbe 0cf3 b4be d3d1 e63c
00000030: daca e9bd 9535 523e 1c37 cbbd 7a8c 3d3e
00000040: 5c25 9a3c 158e 28bd a421 973d b49f c2bd
00000050: 56a7 d8bd 1979 1b3d 7875 3c3d 5f47 c53c
-0.13200335 0.047362644 -0.19527276 -0.1650129 0.029648704 -0.02760359 -0.00096093374 -0.037289757
0.10193281 -0.30669147 -0.3534168 0.028176224 -0.11415644 0.20528252 -0.09922621 0.18510619
0.018816642 -0.041151125 0.07379463 -0.09503117 -0.10578792 0.037957285 0.046010464 0.024081884

transformer.self_attn.out_proj.weight f4 [8, 8]
00000000: f5dd f93d 552d 213e 8c4f 363e e93f 6abd
00000010: c8e6 043e f323 133d 7634 ebbd 15a0 32be
00000020: de75 8f3d f28f 123e 20c3 373e 41cc adba
00000030: caf1 70be 33c5 60bd 7b17 62bd 6740 78bd
00000040: 1993 503d c470 15be 7ae8 303e 1e69 77be
00000050: 0a55 b73d fd1f 4bbd 459d 27bd 696c e2bd
00000060: 7c63 abbd 0715 cfbd 52dd 1d3c dcd8 0abb
00000070: 3344 aa3d 335b e8bd e70a 3a3d e5e2 a2bd
00000080: a9cc 1dbd c4b3 09be c740 b93d 05a9 af3d
00000090: 04f7 173e 6f91 0ebe b5cb 75be 8724 83bd
000000a0: 9928 21bd f729 d33d 227e 423e c62d e13c
000000b0: 8058 2e3d 69db a3bd 7ea4 883e cb01 40be
000000c0: 4163 703d 6f31 b5bd 7b3b 283e 6dc0 3bbd
000000d0: 6b3f 243e 4910 bcbd 0b4e 323e 7dfe e1bd
000000e0: 921f 04be 6cb4 44be 903e 023e 8fc2 173e
000000f0: 53ea 4f3e 839d c0bd 9497 afbe aad6 56be
0.12200538 0.15739949 0.17803782 -0.057189856 0.12978661 0.035922956 -0.114846155 -0.17443879
0.07004903 0.14312723 0.17945528 -0.0013259725 -0.23529735 -0.054875564 -0.055198174 -0.060608294
0.050921533 -0.14593798 0.17276183 -0.24161193 0.08951767 -0.049591053 -0.04092147 -0.11055834
-0.083685845 -0.101114325 0.009635286 -0.0021186387 0.08313789 -0.1134552 0.045420554 -0.07953433
-0.038525257 -0.13447481 0.090455584 0.0857716 0.14840323 -0.13922666 -0.2400349 -0.064034514
-0.039345358 0.103107385 0.18993428 0.027487647 0.04256487 -0.080008335 0.26687998 -0.18750684
0.058688406 -0.08847319 0.1642894 -0.04583781 0.16039817 -0.09182794 0.17412584 -0.11034868
-0.12902668 -0.1920945 0.12719178 0.14820312 0.20304231 -0.09405043 -0.34295332 -0.20980325

transformer.self_attn.out_proj.bias f4 [8]
00000000: 0152 89bd ed97 08be 4ddf 99bd 75b1 973c
00000010: 0fac ab3c a52b 98bd eb8f cf3c d139 333d
-0.06705094 -0.13339205 -0.07513294 0.018517235 0.020956067 -0.074301995 0.02533718 0.04375631

transformer.linear1.weight f4 [32, 8]
00000000: 00d5 f7be 2039 823d 5dd4 8c3e c4df 23be
00000010: d4e6 02be e360 e9be 5a19 be3e c695 1dbe
00000020: 3e3a e8bd 6e5e d3be a2ce a83c dc28 d23e
00000030: 3f81 293e fbdd 58be 26d5 16bd 4a33 983e
00000040: bca3 3a3e 0b26 a9bf 4a2b d13e 48fe 31bd
00000050: b0c7 913e 4434 fcbe eb4d abbe bd20 d93e
00000060: d5cc ca3d b96f e3be 5950 84b8 a81c 0b3d
00000070: 1eb6 f4be caa3 693e 1bc3 d83d c783 703d
00000080: 24f2 613c d427 933d 7302 b03e f2d5 753e
00000090: cbeb 56be 5b12 543d f166 833e e73e b23d
000000a0: ba64 8f3e d319 443e 1cef 223e 50f9 ba3d
000000b0: 86ab 2ebf f223 b63c dd88 673e e4d4 213f
000000c0: e645 33bd a8fc 32bf 43d4 e0be a190 bbbe
000000d0: a7d6 ffbd 12af 013e cd76 8c3e eea1 7dbd
000000e0: 8223 c2be 2e8c 82be c111 8a3e 97b9 44be
000000f0: 0104 c93d bb5d 90bd 21ef 0ebe 4e65 3a3e
00000100: a869 b73d f7f4 8abd 911f a7bc e3c9 1bbf
00000110: 8683 16bf 032b 7cbe da96 a93e bffe 133f
00000120: 6cf2 8d3d 15b0 b63c 4598 973e 1f4c ec3e
00000130: 4141 b23e 877a 453e 03f0 16bf d71d 66be
00000140: 5ad1 293e 7bfd 16be e919 d9bd 668e 9d3e
00000150: 9032 06bf f575 99bd 7381 73be f49f ce3e
00000160: f4c1 f63d 77e2 e8bb f36a 1d3c dc00 06be
00000170: 63e2 e3bd 1d5f fb3d bc59 e13e 1d39 6c3e
00000180: 6401 0bbe 2b31 dabd 06d4 913e 97e6 7c3e
00000190: 1bdc 2bbd 8ed5 4ebd 5888 673d 079e cabe
000001a0: 019b 0d3f 3795 38bf 838a 41bd fb27 bd3e
000001b0: c6c8 50bd fa62 d93e 33cf e1be a903 45be
000001c0: 2345 393e 8c12 2dbe e6f8 273e 5240 65be
000001d0: 87b6 5abe 17ac 57bd 188e 6d3e c155 ed3e
000001e0: 42a4 5abe e825 893d f833 b43d b616 9e3b
000001f0: d023 c9be f503 513d 9c43 8f3c 7614 453e
00000200: 4188 96bd 2454 94be f3d7 a0be c259 55be
00000210: f59b 85bc 03d4 5a3d 1833 7dbe 529e d13c
00000220: dcc0 683e b9f0 bc3d 0b65 eb3e 863b b9be
00000230: 114d 39bf ee70 623e 1765 59bc 0989 a03e
00000240: ac78 3ebe 8a09 95bc 0e9d 6d3e 7c36 343f
00000250: b7b3 663e ee18 8abd e181 0e3e 1a03 2cbf
00000260: 78ef a4bc b80b 34bc e511 a73e 592b d23d
00000270: 5065 01be 95a2 8b3e a7a5 afbe 8894 7a3d
00000280: badb 093d a43f 5bbd e423 6c3d 0f0c fa3d
00000290: d8f6 d8be c5da 793e d246 4bbe 301c d93e
000002a0: c2e8 943e f630 cabe 24be 76be 34cf e73e
000002b0: 3309 083f 9211 85be 2789 22bd b06e 293c
000002c0: 943b 92be 042d 033e b66f fa3e e8d2 0e3f
000002d0: 05f6 64bd 7447 6e3d a3fe 1d3e 24ed 01bf
000002e0: 1d2b 7c3b ccd9 b93d 253c 303e 8685 bdbc
000002f0: 49a2 3d3f dcdc 0ebf ea12 0bbe 7960 30bf
00000300: 6669 1a3e 9c11 0b3d ee7b c43e 6001 cb3e
00000310: 73e8 053f ecb8 133e 4284 a73b 174c 8c3e
00000320: 0055 323d 0645 eabe e0e4 a9be 402c 133d
00000330: c18b e63e cad8 653e 513d 6abe 1e4e 4fbe
00000340: e4db eb3c ecf7 e3bc d6c5 ca3d fddd 4abe
00000350: 8609 9abb a0d1 963e 47fc a43d 2909 1c3e
00000360: 790b 1b3e f483 e2bd e8ef d63b 8918 f93c
00000370: 74b9 023e 489c 373e 3fb5 26bd efe4 883d
00000380: cb2f ba3e 884e 84bf c4d6 3b3e 1b8f 943e
00000390: 9457 7bbd db65 e13d 517c 17be cc39 c23e
000003a0: e4dc 02be 6854 5abe 80f9 713e 451e 21be
000003b0: efd0 153f 9587 0fbf 8342 5bbd 9745 17be
000003c0: 77c6 9f3e ab25 55be 49ee a53e 4927 90be
000003d0: 99be debe b3f5 9b3e 08c9 c5bc e2c0 1b3f
000003e0: 0aa3 023f 21be 14bf 799a 4f3e d0bb 8a3e
000003f0: 7025 f93e 6d1f 34be 1aed 05be ae51 c2be
-0.48404694 0.06358552 0.2750577 -0.16003329 -0.12783366 -0.4558173 0.37128717 -0.15389165
-0.11339234 -0.41282982 0.020606343 0.41046798 0.1655321 -0.21178429 -0.036824368 0.2972663
0.18226522 -1.3214735 0.4085334 -0.043455392 0.28472662 -0.49258626 -0.33457884 0.4240779
0.0990235 -0.44421175 -6.3092164e-05 0.033962876 -0.47795194 0.22816387 0.105840884 0.058719423
0.013790641 0.07185331 0.3437687 0.24007395 -0.20988385 0.051775318 0.25664476 0.08703404
0.28006536 0.19150476 0.15911525 0.09129584 -0.68230474 0.022233937 0.22610803 0.6321547
-0.043767832 -0.6991677 -0.43911943 -0.3663378 -0.124921136 0.1266444 0.27434388 -0.061922006
-0.37917715 -0.25497574 0.2696667 -0.19211422 0.09815217 -0.07049128 -0.13958408 0.18202707
0.08955699 -0.067850046 -0.020400794 -0.6085493 -0.5879444 -0.24625783 0.33122903 0.57810587
0.06931004 0.02230076 0.2960836 0.46151826 0.3481541 0.19285022 -0.5895998 -0.2247232
0.16583768 -0.14745133 -0.10600645 0.30772704 -0.524209 -0.07493202 -0.2377985 0.4035641
0.120487124 -0.007107075 0.009608018 -0.13086265 -0.11127164 0.12274001 0.44013774 0.23068662
-0.13574749 -0.10653909 0.28482074 0.24697338 -0.041957956 -0.05049663 0.056526512 -0.3957369
0.5531464 -0.72102684 -0.047251236 0.36944565 -0.050972722 0.42458326 -0.44103393 -0.19239677
0.1809278 -0.16901606 0.16403541 -0.22387818 -0.21358691 -0.052654352 0.23198736 0.46354488
-0.21351722 0.06696683 0.08798975 0.0048244847 -0.39285135 0.051029164 0.017488293 0.19246086
-0.07350207 -0.28970444 -0.31414756 -0.20835021 -0.016309718 0.053424846 -0.24726522 0.025588188
0.2272982 0.09225602 0.45975527 -0.36178225 -0.7238322 0.22113392 -0.013268731 0.3135455
-0.1860072 -0.018193025 0.23204443 0.70395637 0.22529493 -0.06743036 0.13916732 -0.6719223
-0.020133719 -0.010989122 0.3263084 0.10262174 -0.12636304 0.27272478 -0.3430607 0.061176807
0.033656813 -0.05352749 0.057651415 0.12209331 -0.42375827 0.2439986 -0.19851235 0.42404318
0.2908383 -0.3949048 -0.2409597 0.4527527 0.53139037 -0.25989968 -0.03968158 0.010341331
-0.2856108 0.12810141 0.48913354 0.5579057 -0.055898685 0.05817361 0.15429167 -0.5075247
0.0038477846 0.090747446 0.17210443 -0.023134958 0.7407575 -0.55805755 -0.13581434 -0.68897206
0.15079269 0.03395234 0.383758 0.39649487 0.52307814 0.14426011 0.005112202 0.27401802
0.043538094 -0.45755786 -0.3318243 0.035930872 0.450285 0.2244598 -0.22874953 -0.20244643
0.028791375 -0.02782818 0.099010155 -0.19811244 -0.0047008423 0.29456806 0.080559306 0.1523787
0.15141095 -0.11060324 0.006559361 0.030407207 0.12766057 0.1793071 -0.040700193 0.066842906
0.36364588 -1.0336466 0.18343645 0.2901543 -0.061362818 0.110057555 -0.14793517 0.3793472
-0.12779576 -0.21321261 0.23630333 -0.15734203 0.5852193 -0.56066257 -0.053530227 -0.1477264
0.31206104 -0.2081515 0.3240836 -0.28154972 -0.4350479 0.3046089 -0.02414371 0.6084119
0.5103003 -0.58102614 0.2027377 0.27096415 0.48661375 -0.17590113 -0.13078728 -0.37952942

transformer.linear1.bias f4 [32]
00000000: 8a37 02be 5260 943d 4614 8d3e 4e4d 5bbe
00000010: d2c8 f5be 35ea 82be 1d54 d1be 2334 773e
00000020: 1a7f 9bbe 5f5c 83be 8d71 67be 5c6d 03be
00000030: b8e4 6dbb 9d02 bdbd 029d 87bb b064 363e
00000040: 36e4 2e3e ca58 b5be 466f 88be 97ec 4d3d
00000050: 041b 67be e6a8 ec3d 7bd4 e6be b3f1 97be
00000060: 639e 013d 6a54 18be 81c4 153d ae31 8a3e
00000070: b86b 493e d9fd 543e 937e 55bd 6fae 1abe
-0.12716499 0.07244934 0.2755453 -0.21416208 -0.48004776 -0.2556931 -0.40884486 0.24140982
-0.30370408 -0.2565641 -0.2260191 -0.12834686 -0.0036299657 -0.09229014 -0.00413859 0.17811847
0.17079243 -0.35419303 -0.26647395 0.050274458 -0.225689 0.11555652 -0.45083985 -0.2967659
0.03164519 -0.14875951 0.036564354 0.26991028 0.19669998 0.2079996 -0.052122664 -0.15105604

transformer.linear2.weight f4 [8, 32]
00000000: 0753 a2be 5983 ed3c 1bc4 213e a6d5 4ebe
00000010: c4bf cdbd e378 a1bd 0131 0f3e 7455 0fbd
00000020: 1569 493e 908d 543e 31da 903e 57f4 f53d
00000030: 922d 153e 8f1f c2be 6707 9a3d fea6 c0bd
00000040: 28a9 d13d 1ead a33e abe7 943e 89b2 df3d
00000050: 8d79 f0bd ae66 873e a992 e03d a505 40be
00000060: cea0 d53d bf8e 8d3e 9a79 db3d 0cbd 3e3e
00000070: d424 363c 5865 8f3d a637 28be eb29 553e
00000080: d489 013e 8ded 6dbe c74f bf3d 7885 15be
00000090: 5fef e6bd 3849 6ebe b7a2 28be bffb f0bd
000000a0: ec64 f7be 8d8a b3be 28fe 0fbe 3584 28bd
000000b0: c78c 5f3c 78bc f33e b83b 96bd 4d4f 183d
000000c0: 06e0 88bd 2190 37be 7a6f 3fbd 5846 60bd
000000d0: 5565 fc3c da32 96bb c0b6 28be 3165 943e
000000e0: ff2c 0bbe 28f6 ebbd 0185 36bc 6651 66bd
000000f0: a366 0ebe f1d8 99bd 94b9 49be f81f c23e
00000100: 66ef 313d 677e b73c 41ee cebe dc56 9a3d
00000110: c347 bd3d c2e6 943e 2e7e 18be 7f1e 8dbd
00000120: 35b7 bd3e cb0a b93d 7382 29be 6f5e eabd
00000130: 383d 243e f3f5 a0be f784 503e 685b b43d
00000140: 18b6 75be 2cc1 9a3d 6428 913e c290 d83d
00000150: 2869 d23d bd29 d4be 829c 043f 6965 f1be
00000160: 3170 973d 3113 023d 43db 9bbd 3dd9 c33d
00000170: 0f2e e53c 2bf7 84be ae72 0e3e 2399 55bf
00000180: c6de 8bbe 8092 3abe b0d2 81bf 53af 833e
00000190: 1dae 2cbd 7088 323e 5bf5 36bc 9108 0bbd
000001a0: 1bfc 313d 4741 57be 54ba 853c 5ea5 f5bd
000001b0: 9c76 933d 94bc 283e e333 5cbe 7388 0c3d
000001c0: 9e4d 99bc 3c64 47be cf23 253d 413d 53bd
000001d0: 1775 553d c5d5 3dbe 772a 88bd 619e 0d3e
000001e0: e64b 1ebe cd27 bb3e 6891 cdbd 1b54 2cbd
000001f0: dbda 32bf 7352 14be fead d9bd f78a d5be
00000200: af34 723d 2c4e 9a3e 3fa4 343f 3806 92bd
00000210: 6055 c23d 1367 cb3c c117 b4be 11a2 cc3d
00000220: 4fd5 ba3d a013 8bbe 097b 86bd 7848 14be
00000230: 48e2 ab3c 175d f0be b519 ae3d 56e2 323d
00000240: 4386 ebbd f01f 1b3e 32bb 863e a362 baba
00000250: 60e0 0a3e 7c3f a1bd 63a9 8a3e 6d7c c1bc
00000260: 389d 00bc f05b 8cbe a7fa 80bd b2ab 46bd
00000270: 80d9 a63e f292 073e 245d 673e 1668 99bd
00000280: 36bf 43be ffda 7dbe fbc6 26bf f6d6 40be
00000290: a58b d5bd 0579 b03d 4ca6 a33e 5acb 68be
000002a0: 7bdc 523d 28bf a13e c723 c4ba 4ab8 883d
000002b0: 3549 3bbe f6f6 29be d09a 053e 53f2 8bbc
000002c0: ac7a 943d 9a1f ec3d 98b7 d5bd efc1 983e
000002d0: 6ee9 35bc 8490 34be 38ac d8bd 6c3a fcbe
000002e0: d999 dcbd bb21 8a3e 64ae 0a3d e872 25b9
000002f0: 3eb7 debe 58fc bebe 5b8f 943e 1fac 95be
00000300: 544a 8abe caa3 ef3d 5ab7 b1bc b635 853e
00000310: 0fe3 7fbc 965e a63d 28b0 b83e 470e 00be
00000320: b241 82bd 1495 763b 817b ec3d 3659 473d
00000330: 4751 4bbd 4d17 fabd 637d bc3d 9092 9dbc
00000340: b652 1fbe 0c06 3abc 9750 8ebd 1784 07be
00000350: c83d b3be 848e 2fbc 768e 043d 2aec 273e
00000360: 19b8 813d 86aa b2bc 5590 d63b 73bd bcbc
00000370: 109e d2be c9e2 62bd 0ebc edbd 8623 073b
00000380: 0829 673e 1f37 2c3d c064 c2bd 3e3b 8f3d
00000390: dedf fe3c f2ee 5abe 50a0 a83d 0d85 0fbe
000003a0: 9959 89be 2b22 733b a8d2 8ebd 7cb3 3f3e
000003b0: b22e dabd ad10 3c3f 6d2e 0abe 5aa7 4a3e
000003c0: ab6f 5c39 2601 a1be 924b afbe 2e92 0b3e
000003d0: ea77 243e a9ca a63d 3c23 c8be 6ef0 c83e
000003e0: 9bd4 973b 2c48 0f3d 34d4 fa3d b32c e1bc
000003f0: 3fc6 803e 3cbe 2f3e c425 b73c f48d 4c3f
-0.3170397 0.028993296 0.15797465 -0.20198688 -0.10046342 -0.078843854 0.13983537 -0.034993604
0.19668992 0.20757127 0.28291467 0.12009495 0.14568165 -0.37914702 0.07520943 -0.09406851
0.10237342 0.31968015 0.29083 0.10922725 -0.11741934 0.26445526 0.10965473 -0.18752153
0.10431062 0.2764797 0.10716553 0.18626803 0.011117179 0.07001752 -0.16427478 0.20816772
0.12650234 -0.2323515 0.09341388 -0.14601696 -0.11276125 -0.23270118 -0.16468321 -0.11766767
-0.48319185 -0.35066643 -0.14061797 -0.041141707 0.013644404 0.47604728 -0.07335609 0.037185002
-0.06683354 -0.17926075 -0.04673717 -0.054754585 0.030810038 -0.0045836987 -0.16475964 0.28983453
-0.13591383 -0.1152156 -0.011140109 -0.05622997 -0.1390634 -0.075120814 -0.19699699 0.37915015
0.0434412 0.02239914 -0.40416148 0.07536098 0.09242203 0.29082304 -0.14891884 -0.06890582
0.37053838 0.09035262 -0.16553669 -0.11443793 0.16038978 -0.31437644 0.20363222 0.08806497
-0.23995245 0.07556376 0.28351128 0.10574485 0.10273963 -0.41438094 0.5180131 -0.47147682
0.07394446 0.031756584 -0.0761018 0.09562919 0.027976064 -0.25969824 0.13910934 -0.83436793
-0.273184 -0.18219948 -1.0142422 0.257197 -0.042158235 0.1743486 -0.011166896 -0.033943716
0.043453317 -0.21020995 0.0163242 -0.11994432 0.07200357 0.16478187 -0.21504168 0.034309816
-0.018713769 -0.1947183 0.040317353 -0.05157209 0.05211362 -0.18538578 -0.066487245 0.13829948
-0.1545864 0.36553803 -0.100375 -0.042072397 -0.69865197 -0.14484577 -0.106288895 -0.41707584
0.059132274 0.30137765 0.7056312 -0.071300924 0.0948894 0.024829423 -0.35174373 0.09991849
0.09122717 -0.2716341 -0.06566436 -0.1448077 0.020981923 -0.46946022 0.08500997 0.043672882
-0.11500218 0.15148902 0.26314694 -0.001422007 0.13562155 -0.07873437 0.27082357 -0.023618901
-0.007849984 -0.27413893 -0.06297808 -0.048503585 0.32587814 0.13239649 0.22594124 -0.07490556
-0.1911591 -0.24790572 -0.6514737 -0.18832001 -0.10427026 0.08616833 0.31962812 -0.22733822
0.051479798 0.31591153 -0.0014964276 0.06675775 -0.18289645 -0.16598114 0.13047338 -0.017083323
0.0724996 0.11529465 -0.10435408 0.2983546 -0.011103017 -0.17633253 -0.10579723 -0.49263322
-0.107715316 0.2697886 0.033857718 -0.00015778432 -0.43499178 -0.37301898 0.29015622 -0.2923288
-0.27009833 0.11701162 -0.021693874 0.2601754 -0.0156181 0.081235096 0.36071897 -0.12505446
-0.06360187 0.0037625479 0.11546994 0.048669063 -0.04963806 -0.122114755 0.09203603 -0.019234926
-0.15558895 -0.011353981 -0.06948965 -0.13233982 -0.35008073 -0.010715131 0.032362424 0.16398683
0.06333942 -0.021809828 0.0065479674 -0.023039555 -0.41136217 -0.05539206 -0.11608134 0.002062054
0.22574246 0.042044755 -0.09491873 0.069937214 0.031112608 -0.21380213 0.08233702 -0.14015599
-0.2682617 0.0037099223 -0.06973773 0.18720812 -0.10653438 0.73462945 -0.13494273 0.19790402
0.00021022435 -0.3144619 -0.34237343 0.13629982 0.16061369 0.08144123 -0.39089382 0.39245933
0.004633499 0.034980938 0.12247506 -0.027487135 0.2515125 0.17162412 0.022356875 0.79904103

transformer.linear2.bias f4 [8]
00000000: 6d7a e13d f636 08bc e5c0 56bd abb2 b7bd
00000010: 6eef 85bd 25de 3abd 6cb1 bc3d 6f71 34bd
0.11009679 -0.008313885 -0.052430052 -0.08969625 -0.06539808 -0.04562201 0.09213528 -0.04405349

transformer.norm1.weight f4 [8]
00000000: 253e 8c3f d95a 813f 59d7 783f f18b 9f3f
00000010: afb0 983f 4c04 723f 56e2 843f 801b 7a3f
1.0956465 1.010585 0.97203594 1.2464582 1.192892 0.94537807 1.0381572 0.9769821

transformer.norm1.bias f4 [8]
00000000: 4728 c83d 4dda 8cbe acff ab3d aebf 81bd
00000010: 0df7 a13d 1796 8fbd 1b96 053d 894e 353e
0.09773307 -0.275103 0.08398375 -0.06335388 0.07908449 -0.07011049 0.032613855 0.1770574

transformer.norm2.weight f4 [8]
00000000: 7961 193f 743d 2e3f 0d03 493f 29aa 533f
00000010: 0243 693f a949 233f a62b 3a3f 9f1d 7d3f
0.59914356 0.6806252 0.7852028 0.8268152 0.9111787 0.6378427 0.7272285 0.98873323

transformer.norm2.bias f4 [8]
00000000: ffcf 84bd 803e 4abe c5b8 5b3e 2898 b43d
00000010: 0ac9 cf3d f971 a1bc b4aa 003d e2f6 533d
-0.064849846 -0.19750404 0.21457203 0.08818084 0.10145767 -0.019707667 0.031412795 0.051749118

fc.weight f4 [5, 240]
00000000: a178 023d f74a 08bb 5518 07bd bbb4 03bd
00000010: a0f5 543c dc42 d5bc b022 c7bd adf0 ea3d
00000020: b625 cfbd ed06 663d 1f3b 6bbd fb35 acbd
00000030: 74da 2a3c e048 c6bd c795 5f3d c48b 4f3d
00000040: 0b9e d43d c8ce 9f3d 9df5 7abe 6905 3bbd
00000050: 655d b63d f009 ddbc c8b9 93bd d6e3 e83d
00000060: b711 b73d 89db 4c3d 94ee 14bd 4594 973c
00000070: 04d2 043d 4c7e a1bd 77f1 87bc 88f9 423e
00000080: c239 99bd 2e01 c43c 5652 e5bb 2d61 7fbd
00000090: 70e3 b03d 3618 6c3d 7401 263d ca31 c23d
000000a0: 8730 ef3d 155b 92bd 80ea 03bd 8c3b ccbd
000000b0: 3df1 32bc 82dd 0b3c 14ed a23d cee1 673d
000000c0: 1cbf 743d f873 1c3d c5b1 143b 3de6 56bd
000000d0: 9b41 a1bd c5a9 d2bc 063d b33d 0d1f bc3d
000000e0: bddb f7bc d948 283e d623 cc3c 9a6f 86bd
000000f0: 9a8c b73d 7f68 a3bd 4913 03be e96a ff3d
00000100: fa23 05bd 97cd e13c 6236 b83d 1f08 9ebd
00000110: 1b26 95bc bc6b 033c 15a4 933d 1978 783b
00000120: 0a1a 0a3e 407e ab3d 9f75 5c3d 92f7 c3bd
00000130: 0e7f 0b3e 5925 37bd 6386 8dbd cd24 b53d
00000140: 6074 d1bd f8e2 1abc 40f5 203c 66b0 2ebd
00000150: 2c05 a9bd 1f7d e93d 6b26 d63d 69ee e23d
00000160: 2831 b4bd 3997 9dbd a49d d33b 33e6 5abd
00000170: 6b19 5e3c 4df9 743d 9372 123e 8f90 433e
00000180: d520 f63d a1da c4bb 33a8 fbbc c270 7cbd
00000190: 9486 b03d af67 af3a e8a6 a6bd b3c9 c73d
000001a0: f9a4 a6bd dca0 9abc b9c6 b9bd a151 1cbd
000001b0: d9a8 2b3c d4aa 5f3c 49c3 113e 9bd5 27bd
000001c0: 2ccd 8b3d 5822 273c b324 2abe f5e2 51be
000001d0: 7203 3f3d 9cde f3bc fc16 813b 02d5 583d
000001e0: 32a9 cabd fa8c 023e 2d6f 88bd e1c2 83bc
000001f0: d44e 713d ede6 0e3d 05bd 8bbd 2c1c 8e3c
00000200: fd83 573c 3d58 043e 7c27 9f3d cac7 17be
00000210: 5a07 28bd 41ec 6abd 7f87 2ebe 3c72 863d
00000220: 506a dbba d754 253e 3093 67bd 559d 29bd
00000230: 410f 0b3e 57f3 223d 4eae 13be 2f5c 95bd
00000240: e20c 423d ccd9 903d 0020 6c3c a671 01be
00000250: 751c e43c b002 353c e117 673d 2202 e33d
00000260: 1a05 f3b9 f2b7 3e3b cd95 7b3c 30cf 01bd
00000270: 532c 113e c31f 153d d93b 04be b508 0a3e
00000280: 1f17 fa3d 3913 4b3c 7d6f 8fbd ab1d dfbc
00000290: a680 92bd 2469 55bd 7e4f b93d ad86 b7bb
000002a0: f4ac 84bd db71 983d f3c8 94bc 9a5a f5bd
000002b0: 6d6f 0e3d 6031 9dbd 13ba 4a3d baa5 2f3d
000002c0: 5061 68bd 2ddf a73d dc53 b9bd bed8 83bd
000002d0: f166 f3bc 858b 353d a529 efbd 66c5 83bc
000002e0: 0db6 9a3d 9f96 dbbc 02cd 0e3b e811 9cbc
000002f0: 57b1 e13c 0466 0bbd 9332 e43c 9a29 fb3d
00000300: d091 a3bc c175 933d 7848 fcbd 0fd0 26be
00000310: af31 e73c 0635 153d 6141 95bd 70d6 823d
00000320: d3ee edbd 413f 4d3d 1bd1 a63d 507e 3fbd
00000330: c118 923d 0297 96bc d6ac 6bba 541c 193d
00000340: 4987 c1bd 878c b03d 9722 2dbd e2de b8bd
00000350: 225a 9cbd 97d0 9c3d 2510 d63c 0dd1 a73d
00000360: 2285 d7bc d04e 2a3d 2f88 35bd 46d0 17be
00000370: 38bc 903d bb45 1bbd d5aa 7d3d 7b4b 313e
00000380: 9998 e9bc 3ef5 f1bc 0722 09bd 7594 d5bd
00000390: 56d7 573d 08c8 dc3c 603d 883d 59e2 b73d
000003a0: b102 6b3d f084 ea3d 6d8f 04be fd65 e7bb
000003b0: d997 553d 67cb 58bd ee6d 75bd 66b2 e43d
000003c0: 5409 3a3e 376b babb 45ce e13d ea4c a13d
000003d0: c12a bebe 89ab 253e 09e9 0bbe 275b 43bd
000003e0: 05c9 d8be a9eb 843b 217a 5abd 3507 243e
000003f0: 1811 62be e44e 91bb e4c1 d0bd b8f1 d43d
0.031853322 -0.0020796636 -0.03298219 -0.03215478 0.012998015 -0.026032858 -0.09723413 0.114716865
-0.10114615 0.05615895 -0.05742943 -0.084087335 0.01042806 -0.096818686 0.0545862 0.0506704
0.10381707 0.07803112 -0.24507757 -0.045659456 0.08904532 -0.026982278 -0.07213169 0.11371581
0.08938926 0.050014053 -0.03636034 0.018503318 0.03242685 -0.07885417 -0.016594632 0.19040501
-0.074817196 0.023926344 -0.0069983406 -0.062348533 0.0863713 0.057640277 0.04052873 0.09482153
0.11679178 -0.07146279 -0.03220606 -0.09972295 -0.0109217735 0.008536698 0.07955375 0.05661183
0.05975257 0.038196534 0.0022688967 -0.052465666 -0.078738414 -0.025715718 0.08751874 0.0918561
-0.030256147 0.16434039 0.024919432 -0.06564255 0.089623645 -0.079789154 -0.12800325 0.12471563
-0.032505013 0.027563853 0.08994748 -0.07716393 -0.018206647 0.008021291 0.072090305 0.003791338
0.13486496 0.0837369 0.05382311 -0.09568705 0.13622686 -0.044713352 -0.06910398 0.0884491
-0.10227275 -0.009453528 0.009824097 -0.042648695 -0.082529396 0.11400818 0.104565464 0.110806294
-0.08798438 -0.07694859 0.006458001 -0.05344219 0.013555865 0.059808064 0.14301519 0.19098113
0.12017981 -0.006007508 -0.030719852 -0.06163097 0.08619419 0.001338234 -0.081373036 0.09755268
-0.08136935 -0.018875532 -0.090711065 -0.038163785 0.010477268 0.013651568 0.14234652 -0.040975194
0.06826243 0.010201059 -0.16615562 -0.20496733 0.046634145 -0.029769234 0.0039395075 0.052937515
-0.09895553 0.12749091 -0.0666183 -0.016084136 0.058913067 0.034888197 -0.06823162 0.017347418
0.013154027 0.12924285 0.07771203 -0.14822307 -0.041022636 -0.057354216 -0.17043875 0.06564757
-0.0016740058 0.16145645 -0.056536853 -0.04140981 0.13580038 0.03978285 -0.1442196 -0.07292973
0.047375567 0.070727915 0.014411926 -0.1264101 0.0278456 0.011048004 0.056419257 0.11084391
-0.00046352373 0.002910134 0.0153555395 -0.03169173 0.14177065 0.036407243 -0.12913455 0.13479884
0.12211441 0.01239472 -0.070036866 -0.027235826 -0.07153444 -0.052102223 0.09048365 -0.0056007714
-0.06478301 0.07443591 -0.018162226 -0.119801715 0.034774233 -0.07675433 0.04949386 0.04288266
-0.05673343 0.08196864 -0.09049198 -0.06437825 -0.029712172 0.04432251 -0.11677865 -0.016085338
0.07554255 -0.02680522 0.0021789675 -0.019051507 0.027550383 -0.034032837 0.027856147 0.12263794
-0.01996699 0.07200194 -0.1231851 -0.16290306 0.028221933 0.03642752 -0.07287861 0.06388557
-0.11617818 0.05010915 0.081453525 -0.04675132 0.07133628 -0.018382553 -0.0008990293 0.03738053
-0.09449632 0.086205535 -0.042269316 -0.090268865 -0.07634379 0.07656973 0.026130745 0.0819417
-0.0263086 0.041579068 -0.044319328 -0.14825544 0.0706715 -0.037908297 0.061930496 0.1731395
-0.028515147 -0.029535886 -0.033479717 -0.104287066 0.052695595 0.026950851 0.06652331 0.08978719
0.057375614 0.11451137 -0.12945338 -0.0070617185 0.052146766 -0.052928355 -0.05991929 0.11166839
0.18167621 -0.0056890505 0.11025671 0.07875998 -0.37141994 0.16178717 -0.13663115 -0.04769435
-0.42340866 0.004056413 -0.053339127 0.16018374 -0.22076833 -0.0044344533 -0.10193232 0.10397667

fc.bias f4 [5]
00000000: a9ad 343e af97 20be 618e 843a 5346 41bd
00000010: f396 95bc
0.17644371 -0.15682863 0.0010113233 -0.047186207 -0.018260455
