output/TimeGAN/dapt_v2/train/weights/netR.pth (torch, 19583 bytes, 14 tensors)

rnn.weight_ih_l0 f4 [24, 128]
0.21231584 -0.26293844 -0.19014786 -0.19457433 -0.020166457 -0.27984926 -0.19418848 0.1300413
0.15608399 0.006262838 -0.23511918 0.042937107 -0.13328183 -0.363024 -0.08859738 0.035032388
0.10844214 0.10373373 0.01100812 -0.052219834 -0.025070487 -0.031835854 0.24974409 0.22717296
0.44242376 0.15105993 -0.045209847 0.16883442 0.0956194 0.006528493 0.18771191 -0.03172551
0.009976582 -0.009325394 0.2031772 -0.2978429 -0.119499706 -0.025255747 -0.25811318 0.05399253
-0.10695058 0.05796191 0.033543304 -0.122643895 -0.23596533 -0.1192238 0.0207075 0.1131027
-0.18296742 0.16424866 0.13970783 0.0022335304 0.1628948 0.14362343 -0.11186251 -0.102545984
0.22254752 -0.3039597 -0.25592488 -0.011750203 -0.32199532 -0.26961622 0.026602605 -0.4689666
0.19088973 -0.10029466 0.07535725 0.17708609 -0.13475388 -0.13199352 -0.0707546 0.044695374
-0.17009015 -0.20861618 -0.076057926 -0.23084185 0.11292307 -0.08042169 -0.08421956 0.091828436
-0.16421154 -0.11375758 -0.22618629 0.21006164 -0.046565212 0.0941861 0.16028702 -0.022852818
-0.1857761 -0.23506406 0.057441704 -0.088305965 0.19603024 -0.083302215 0.19205864 -0.25246397
0.20150073 -0.08950786 -0.16801818 0.07348482 0.018174514 0.0963912 0.0044712727 -0.08481464
0.061144665 -0.0007638359 0.21917903 -0.20073861 0.066813946 -0.21543908 -0.22470222 -0.11771459
0.14032029 0.11672236 0.012373554 0.26188996 -0.24703841 0.14746252 -0.116406284 -0.19752835
-0.1357152 -0.13448685 0.08174984 -0.24940978 -0.014513381 -0.17485115 -0.06818761 0.11909536
0.21823755 0.11939849 0.22448158 0.0038258957 -0.18626624 -0.34200898 -0.28578177 -0.024696656
-0.44033763 -0.13454515 -0.2572123 0.4072782 0.23892051 -0.10992794 -0.49032685 0.38699743
0.1928387 0.022051614 0.30077994 0.16977546 0.7839333 -0.07535874 0.22369996 0.56301236
-0.06311354 -0.06281041 0.08897408 -0.7679001 -0.24865669 0.29008117 0.045980733 -0.42832994
0.56607777 0.007054708 0.36987373 -0.13751948 -0.26057857 0.32230458 0.23104472 0.16164193
-0.04339713 0.022156103 -0.17459881 0.5374928 -0.3148511 -0.3711576 0.050411385 -0.32111675
0.011498768 -0.47720957 0.09792413 0.23666267 0.25877714 0.3726691 0.64467335 -0.08830107
-0.17740956 0.7807393 0.5247469 -0.26780275 0.18693724 -0.27510524 -0.14364614 0.15886658
0.17577575 0.45451936 -0.07734281 0.168125 -0.15443367 0.09599825 -0.52002716 -0.11523998
-0.10313867 0.023310665 0.31286174 0.19536646 -0.252134 -0.18669681 0.19420825 -0.020177219
0.088593505 0.3924235 -0.0066376347 0.39333034 0.20700791 -0.059209477 -0.17955452 0.47945058
0.034922507 0.17178768 0.13928464 -0.5689582 0.14517047 0.051909458 0.03096899 0.57430154
-0.081828445 0.11050154 -0.11579458 -0.05000763 0.13993375 -0.07516246 0.38343185 -0.23416218
-0.55527997 0.09663003 0.086780295 0.57873404 0.32726797 0.0016623478 -0.004515798 -0.7374692
0.35666025 0.2960544 -0.02359979 0.1117401 0.3555931 0.10585619 0.3557066 0.20782852
0.27589202 -0.14286835 -0.018506197 0.25861788 -0.40643823 -0.12235468 -0.14096129 -0.10209123
00000000: 5369 593e de9f 86be 1fb6 42be 7e3e 47be
00000010: 2034 a5bc 6748 8fbe 58d9 46be 8c29 053e
00000020: 7bd4 1f3e 7e38 cd3b 15c3 70be d2de 2f3d
00000030: 087b 08be 48de b9be 8b72 b5bd 1f7e 0f3d
00000040: ea16 de3d 5a72 d43d 675b 343c 77e4 55bd
00000050: 9f60 cdbc 5066 02bd eabc 7f3e 07a0 683e
00000060: 5e85 e23e 74af 1a3e f62d 39bd eee2 2c3e
00000070: 1bd4 c33d f8ec d53b 8d37 403e 9cf2 01bd
00000080: d174 233c 8ac9 18bc af0d 503e dd7e 98be
00000090: 43bc f4bd 24e5 cebc 6927 84be 4527 5d3d
000000a0: e808 dbbd 7869 6d3d b464 093d b92c fbbd
000000b0: e5a0 71be 9c2b f4bd c6a2 a93c 63a2 e73d
000000c0: d05b 3bbe cd30 283e 920f 0f3e 6c60 123b
000000d0: e5cd 263e 0512 133e 2c18 e5bd a103 d2bd
000000e0: 7fe3 633e 9ba0 9bbe 9608 83be ec83 40bc
000000f0: 92dc a4be 230b 8abe b5ed d93c 641c f0be
00000100: 9978 433e 4967 cdbd e754 9a3d 0e56 353e
00000110: ecfc 09be 4f29 07be cae7 90bd 7f12 373d
00000120: 1d2c 2ebe 7b9f 55be 42c4 9bbd ce61 6cbe
00000130: 3644 e73d 21b4 a4bd 4e7b acbd 8c10 bc3d
00000140: 1227 28be bcf9 e8bd 619d 67be 661a 573e
00000150: 2abb 3ebd a4e4 c03d 4822 243e d535 bbbc
00000160: 173c 3ebe a2b4 70be fe47 6b3d c2d9 b4bd
00000170: 27bc 483e 5a9a aabd 05ab 443e f542 81be
00000180: 3556 4e3e e64f b7bd f50c 2cbe 367f 963d
00000190: b8e2 943c c068 c53d c183 923b 4cb3 adbd
000001a0: d472 7a3d 293c 48ba 7870 603e 6c8e 4dbe
000001b0: c0d5 883d 109c 5cbe 5718 66be 5914 f1bd
000001c0: 1fb0 0f3e 220c ef3d 72ba 4a3c 7116 863e
000001d0: a3f7 7cbe 6a00 173e 6b66 eebd df44 4abe
000001e0: edf8 0abe ecb6 09be 766c a73d 4765 7fbe
000001f0: 88c9 6dbc 2e0c 33be f2a5 8bbd 45e8 f33d
00000200: aa79 5f3e 3287 f43d 80de 653e e1bb 7a3b
00000210: 94bc 3ebe cd1b afbe fd51 92be a450 cabc
00000220: ef73 e1be 34c6 09be 55b1 83be c586 d03e
00000230: 94a7 743e e621 e1bd 1f0c fbbe 8724 c63e
00000240: 8277 453e 96a5 b43c d4ff 993e 9ed9 2d3e
00000250: daaf 483f af55 9abd 9a11 653e 9421 103f
00000260: ac41 81bd bfa2 80bd 0b38 b63d 1a95 44bf
00000270: dc9f 7ebe 8585 943e 4b56 3c3d 104e dbbe
00000280: 79ea 103f 2e2b e73b 1760 bd3e e8d1 0cbe
00000290: 8e6a 85be 1b05 a53e fd96 6c3e 7685 253e
000002a0: 30c1 31bd b780 b53c 08ca 32be 2199 093f
000002b0: 2a34 a1be 5e08 bebe 2b7c 4e3d 6a69 a4be
000002c0: 5465 3c3c d054 f4be 728c c83d b357 723e
000002d0: 707e 843e 7cce be3e 5009 253f 31d7 b4bd
000002e0: daaa 35be 88de 473f d055 063f 711d 89be
000002f0: 7a6c 3f3e 98da 8cbe f917 13be ecad 223e
00000300: 8ffe 333e c3b6 e83e e865 9ebd f628 2c3e
00000310: dc23 1ebe bb9a c43d 8020 05bf f002 ecbd
00000320: 5e3a d3bd 02f6 be3c 6a2f a03e 250e 483e
00000330: b517 81be 732d 3fbe 87de 463e b24a a5bc
00000340: 8370 b53d bceb c83e 8480 d9bb 9862 c93e
00000350: e2f9 533e a385 72bd 24dd 37be 8c7a f53e
00000360: e70a 0f3d 1ce9 2f3e a2a0 0e3e 3fa7 11bf
00000370: 91a7 143e 039f 543d aeb2 fd3c 6d05 133f
00000380: ac95 a7bd a24e e23d b525 edbd cdd4 4cbd
00000390: cb4a 0f3e c7ee 99bd 2e51 c43e 36c8 6fbe
000003a0: d426 0ebf f7e5 c53d deb9 b13d ea27 143f
000003b0: ab8f a73e 23e3 d93a 42f9 93bb c8ca 3cbf
000003c0: 2c9c b63e 7194 973e 5954 c1bc fed7 e43d
000003d0: 4c10 b63e 21cb d83d 2d1f b63e 00d1 543e
000003e0: b841 8d3e 154c 12be 4f9a 97bc 9069 843e
000003f0: ac18 d0be 1795 fabd 2858 10be 3515 d1bd

rnn.weight_hh_l0 f4 [24, 8]
0.27721107 0.01057838 0.104862146 0.019167881 0.13922411 -0.19852455 0.19467689 -0.15915903
-0.069158874 -0.4122067 -0.2106628 -0.105692275 -0.15745114 0.20403926 0.18964653 0.060758382
0.13273507 0.30245003 0.058752887 0.18475477 0.00082327076 0.4037657 0.10806097 0.13458994
0.11193128 0.07635634 0.05913449 -0.4660016 -0.6014603 -0.4806103 -0.029031897 0.16742525
-0.18542765 -0.49258772 0.2912586 0.23746146 -0.48705024 -0.1303974 0.13352038 0.04321174
-0.16598612 0.28913298 0.3417211 0.16794285 -0.077830434 -0.21901788 0.03611383 -0.35956982
-0.09180735 -0.18100174 -0.24554637 -0.10818403 -0.24001038 0.12177679 -0.07526339 -0.36270636
0.30688837 0.08280014 -0.14703102 -0.09668775 -0.22740743 -0.620346 -0.22589657 -0.070024766
-0.17875129 -0.15895547 -0.07716393 0.035264667 -0.15967736 0.16875663 -0.035272457 -0.19583525
0.5002828 -0.34865946 0.17472476 0.08307957 -0.22297667 0.023886992 0.5730791 -0.18894076
0.07199651 -0.3642388 -0.060209833 -0.018011494 -0.30099973 0.028963448 0.19275615 0.011264589
-0.11476544 -0.39163464 0.3929831 0.031166667 -0.33495814 0.23693019 0.68422467 -0.40811688
-0.25315684 -0.31353176 0.034234297 -0.1145321 0.059466504 0.07465097 0.42668736 -0.5997672
-0.23084438 -0.069401406 0.32675827 -0.12361176 0.102025405 0.16286053 -0.06311799 -0.50262403
0.28303805 -0.2324717 0.45386255 -0.06671363 0.016054908 0.40563983 -0.055731326 0.009087497
0.077824384 -0.25491676 0.28853142 -0.053602647 0.06255492 0.085092925 -0.1273134 -0.42443317
0.017308809 0.062580355 -0.18941972 0.077906005 -0.3480826 0.185675 0.014273099 -0.4677072
-0.05976105 -0.12091147 -0.53567344 -0.018656703 -0.0741798 0.14862458 -0.07104936 0.16459297
0.1174649 0.46718982 0.0078683 -0.005549823 0.2645099 0.025400942 0.34412172 0.20155
-0.0587218 -0.005638557 0.26654524 -0.14143528 0.08955089 0.19246894 -0.114401646 0.28091434
0.077303335 0.03393093 -0.37080732 -0.27424994 -0.12823078 0.3021015 -0.35750398 -0.16449991
-0.10893569 0.10424349 0.12027597 0.26215765 -0.22265378 -0.17821066 -0.26082653 -0.006677806
0.18288226 -0.0053690188 -0.06233926 0.08159855 0.037810605 -0.060981907 -0.2598517 0.031434704
-0.0030497313 0.052055363 0.27206814 -0.050456047 -0.031978194 -0.13848367 0.031071858 -0.2858269
00000000: 9cee 8d3e f150 2d3c f7c1 d63d f605 9d3c
00000010: c490 0e3e 054a 4bbe 6159 473e 96fa 22be
00000020: 2ba3 8dbd c20c d3be fdb7 57be 3175 d8bd
00000030: df3a 21be abef 503e b332 423e c8dd 783d
00000040: b4eb 073e bbda 9a3e dea6 703d 5b30 3d3e
00000050: c4d0 573a 61ba ce3e 124f dd3d f2d1 093e
00000060: 3a3c e53d b660 9c3d 0237 723d c397 eebe
00000070: 4df9 19bf 8e12 f6be 4dd4 edbc 8671 2b3e
00000080: bfe0 3dbe 7534 fcbe d91f 953e 1929 733e
00000090: a65e f9be e586 05be 91b9 083e cbfe 303d
000000a0: 44f8 29be 3d09 943e 11f6 ae3e 36f9 2b3e
000000b0: 9065 9fbd 3946 60be 18ec 133d 8919 b8be
000000c0: 7e05 bcbd 8558 39be 8270 7bbe 978f ddbd
000000d0: 48c5 75be 1c66 f93d b123 9abd a6b4 b9be
000000e0: 7920 9d3e 1f93 a93d 4d8f 16be 3a04 c6bd
000000f0: 7edd 68be ffce 1ebf 6e51 67be 2569 8fbd
00000100: 940a 37be 39c5 22be 1f08 9ebd af71 103d
00000110: 7682 23be 8ace 2c3e da79 10bd 0989 48be
00000120: 8912 003f 7e83 b2be 0ceb 323e 9f25 aa3d
00000130: ff53 64be a7ae c33c 50b5 123f b079 41be
00000140: e872 933d 827d babe 969e 76bd d78c 93bc
00000150: a31c 9abe c144 ed3c de61 453e 1c8f 383c
00000160: 250a ebbd 5684 c8be 1535 c93e 3d51 ff3c
00000170: a27f abbe d49d 723e 5929 2f3f b2f4 d0be
00000180: c69d 81be 3c87 a0be 4339 0c3d ce8f eabd
00000190: 2693 733d 9ce2 983d c476 da3e 588a 19bf
000001a0: 7862 6cbe 5322 8ebd dc4c a73e 2a28 fdbd
000001b0: b2f2 d03d e9c4 263e 0144 81bd f8ab 00bf
000001c0: 5dea 903e 100d 6ebe ac60 e83e 28a1 88bd
000001d0: 9585 833c 06b0 cf3e 8846 64bd bae3 143c
000001e0: 6462 9f3d 7384 82be 64ba 933e 738e 5bbd
000001f0: cb1c 803d 3345 ae3d 725e 02be 4e4f d9be
00000200: 34cb 8d3c 212a 803d 3ef7 41be 2f8d 9f3d
00000210: e237 b2be 9621 3e3e b7d9 693c 5177 efbe
00000220: 01c8 74bd 6fa0 f7bd e521 09bf f1d5 98bc
00000230: 94eb 97bd 0b31 183e 5482 91bd 0f8b 283e
00000240: 7091 f03d 8133 ef3e 0bea 003c 4adb b5bb
00000250: d76d 873e a315 d03c b930 b03e 2063 4e3e
00000260: 4586 70bd a5c3 b8bb 9e78 883e 69d4 10be
00000270: 7566 b73d 9416 453e 694b eabd 01d4 8f3e
00000280: 3651 9e3d 29fb 0a3d 75da bdbe 7d6a 8cbe
00000290: ee4e 03be 0cad 9a3e c30a b7be aa72 28be
000002a0: ad19 dfbd 9c7d d53d 3f53 f63d 8739 863e
000002b0: 5aff 63be db7c 36be 0e8b 85be 7fd1 dabb
000002c0: 7d45 3b3e 98ee afbb 7457 7fbd 241d a73d
000002d0: 4bdf 1a3d 2ac8 79bd 480b 85be adc1 003d
000002e0: 00de 47bb 0138 553d 844c 8b3e 00ab 4ebd
000002f0: 91fb 02bd aace 0dbe 698a fe3c e757 92be

rnn.bias_ih_l0 f4 [24]
-0.10630266 -0.047733422 -0.030633807 0.0069126305 -0.19202869 -0.19698317 -0.06305767 -0.04802475
-0.16568702 -0.34777808 -0.033181734 -0.30705553 -0.14865057 -0.059027508 -0.06898831 -0.19403908
-0.014283142 -0.00089307583 -0.099585555 -0.046270166 -0.038307115 0.0062163393 -0.026441269 0.03405916
00000000: 36b5 d9bd 1f84 43bd c0f3 fabc 5983 e23b
00000010: 2ba3 44be f5b5 49be 6124 81bd 9ab5 44bd
00000020: dca9 29be f80f b2be 92e9 07bd 6236 9dbe
00000030: db37 18be d4c6 71bd be49 8dbd 2eb2 46be
00000040: d703 6abc 4e1d 6aba 83f3 cbbd c985 3dbd
00000050: ece7 1cbd 6fb2 cb3b 5c9b d8bc 9e81 0b3d

rnn.bias_hh_l0 f4 [24]
-0.10630266 -0.047733422 -0.030633807 0.0069126305 -0.19202869 -0.19698317 -0.06305767 -0.04802475
-0.16568702 -0.34777808 -0.033181734 -0.30705553 -0.14865057 -0.059027508 -0.06898831 -0.19403908
-0.022470912 0.039078016 -0.072056755 -0.07508163 0.005493423 0.037704933 -0.0008753003 0.034713816
00000000: 36b5 d9bd 1f84 43bd c0f3 fabc 5983 e23b
00000010: 2ba3 44be f5b5 49be 6124 81bd 9ab5 44bd
00000020: dca9 29be f80f b2be 92e9 07bd 6236 9dbe
00000030: db37 18be d4c6 71bd be49 8dbd 2eb2 46be
00000040: eb14 b8bc 4510 203d 7e92 93bd 66c4 99bd
00000050: 2c02 b43b 7d70 1a3d 6974 65ba 1330 0e3d

rnn.weight_ih_l1 f4 [24, 8]
0.40355068 -0.60996985 0.052416198 0.210587 -0.2636796 -0.77275336 0.028198542 0.14438841
0.41902375 -0.30699155 0.013364575 0.8356379 -0.52646166 0.11121627 -0.024836708 -0.0961784
0.30992195 -0.23319922 -0.11113324 0.47323135 -0.48187363 0.011535302 0.44947243 -0.42933303
-0.44783312 -0.18325227 0.1855411 0.15442923 -0.17038806 0.12511446 -0.50653386 -0.7265766
-0.68661016 0.01677125 -0.31499654 0.48675036 -0.3201183 0.217667 -0.8128094 -0.56926835
0.2383632 -0.5581495 0.38183296 -0.08641902 -0.064760864 -0.45143858 0.015893307 0.26443174
0.34134 -0.2191893 -0.2810164 0.68656063 -0.23717053 -0.72317535 0.11929575 -0.04191604
0.0637527 0.64076465 0.41694835 0.26067665 0.28667402 -0.5052527 0.894306 -0.7107908
1.1942747 -0.017759016 1.9552562 0.38783547 0.09474056 0.042258944 0.2903837 0.51918274
0.18025266 -0.19003657 0.67598546 0.49044552 0.06759006 -0.056962468 1.0642912 -0.425524
0.9180749 -0.5094251 0.5028008 0.7174747 -0.61588776 0.44792116 0.9470097 0.56784105
0.22196318 -0.39586923 0.90156907 0.5163796 -1.3410414 0.14524138 0.37906006 -0.7719338
0.3119826 -0.81683445 1.1610289 0.6091141 -0.5466313 -0.11254432 0.061537806 -0.4553478
0.26914117 -0.30545282 1.2821817 0.8584612 -1.0040822 0.333393 0.70302665 -0.053068176
0.19730595 -0.5643416 0.7173851 0.8407903 -0.43533498 0.12864104 0.39125866 -0.7565898
0.50982934 -0.34440985 1.3534007 0.57698 -0.31115803 -0.40552652 0.5923982 -0.0266298
-0.43876752 0.26381928 -0.59413314 0.08898864 -0.19387504 0.39706856 -0.25960645 -0.7964764
-0.45252132 0.12698986 -0.4751672 -0.6371574 0.3377998 -0.2532301 0.3528352 -0.024848236
-0.56706095 0.028781509 0.50417596 0.16110288 0.09423141 0.45296496 0.15444411 -1.2182754
-0.35208014 -0.5458237 0.220331 0.034819555 0.28563702 0.5647925 -0.567003 -0.407033
0.5422398 -0.4820682 -0.29173377 -0.12951052 0.055618435 -0.25768036 0.96658057 0.17159574
-0.48076192 0.352914 0.49948585 0.15172318 0.36291215 -0.35677665 -0.68287706 0.3157344
0.6198725 0.07435409 -0.18200544 0.09542217 0.0001801376 -0.65885055 0.050499227 0.32627302
-0.022099605 -0.70167744 0.39876047 -0.23745099 -0.5804842 0.34314263 -0.08462635 0.54847246
00000000: 329e ce3e fc26 1cbf 5eb2 563d 1ea4 573e
00000010: 0301 87be 2ad3 45bf a100 e73c 8eda 133e
00000020: 488a d63e ff2d 9dbe 17f7 5a3c 5eec 553f
00000030: 31c6 06bf 5bc5 e33d 5a76 cbbc 2ef9 c4bd
00000040: 17ae 9e3e c7cb 6ebe d399 e3bd 614b f23e
00000050: 24b8 f6be 90fe 3c3c 4021 e63e 8ad1 dbbe
00000060: 624a e5be 7ca6 3bbe 7cfe 3d3e b222 1e3e
00000070: 357a 2ebe 011e 003e 34ac 01bf ed00 3abf
00000080: afc5 2fbf dc63 893c 3a47 a1be 5837 f93e
00000090: 8ce6 a3be 19e4 5e3e 4714 50bf 92bb 11bf
000000a0: 7c15 743e e3e2 0ebf 9c7f c33e 75fc b0bd
000000b0: 58a1 84bd f522 e7be ae32 823c 9963 873e
000000c0: 1ec4 ae3e 2973 60be 62e1 8fbe 70c2 2f3f
000000d0: d5dc 72be 0522 39bf 5551 f43d 27b0 2bbd
000000e0: c790 823d 2709 243f 417a d53e 6977 853e
000000f0: f0c6 923e 3e58 01bf 3df1 643f 63f6 35bf
00000100: fedd 983f 5b7b 91bc d645 fa3f 5f92 c63e
00000110: 5707 c23d b717 2d3d 2cad 943e 29e9 043f
00000120: 2794 383e f298 42be 620d 2d3f ad1b fb3e
00000130: a86c 8a3d 7a51 69bd b23a 883f 48de d9be
00000140: f506 6b3f af69 02bf 8eb7 003f 6cac 373f
00000150: d2aa 1dbf ec55 e53e 3a6f 723f 085e 113f
00000160: 514a 633e 5faf cabe 3bcd 663f 7431 043f
00000170: 3fa7 abbf 28ba 143e 2914 c23e 749d 45bf
00000180: 2fbc 9f3e 101c 51bf 989c 943f e7ee 1b3f
00000190: 07f0 0bbf a37d e6bd 110f 7c3d 5923 e9be
000001a0: dfcc 893e 5064 9cbe 881e a43f 1dc4 5b3f
000001b0: c485 80bf 7db2 aa3e 8ef9 333f 045e 59bd
000001c0: 920a 4a3e b178 10bf 8da6 373f 083e 573f
000001d0: 3ae4 debe 7aba 033e 0e53 c83e deaf 41bf
000001e0: 2d84 023f 7d56 b0be 3c3c ad3f f6b4 133f
000001f0: 1b50 9fbe 2ca1 cfbe 69a7 173f bd26 dabc
00000200: 23a6 e0be 5213 873e 1c19 18bf ad3f b63d
00000210: 2e87 46be 924c cb3e 23eb 84be e1e5 4bbf
00000220: e0b0 e7be a109 023e 1e49 f3be bf1c 23bf
00000230: 18f4 ac3e 60a7 81be d1a6 b43e 878e cbbc
00000240: e82a 11bf 33c7 eb3c ad11 013f 27f8 243e
00000250: 66fc c03d 06eb e73e 9926 1e3e 73f0 9bbf
00000260: d943 b4be 1abb 0bbf 739e 613e f39e 0e3d
00000270: 043f 923e 3e96 103f 1c27 11bf a166 d0be
00000280: 3ad0 0a3f a5d1 f6be 215e 95be 689e 04be
00000290: 28d0 633d aeee 83be d371 773f cbb6 2f3e
000002a0: 6d26 f6be 25b1 b43e 9cbc ff3e 525d 1b3e
000002b0: 9fcf b93e 6eab b6be 08d1 2ebf f0a7 a13e
000002c0: f7af 1e3f f546 983d a25f 3abe b36c c33d
000002d0: 52e3 3c39 6eaa 28bf 47d8 4e3d 420d a73e
000002e0: 3b0a b5bc 22a1 33bf 552a cc3e 5a26 73be
000002f0: 9d9a 14bf 64b0 af3e 9450 adbd b168 0c3f

rnn.weight_hh_l1 f4 [24, 8]
-0.17104636 -0.5541573 0.27568457 0.15834774 0.30544057 -0.27328208 -0.71331996 0.2644386
0.13203469 0.026649421 0.034700364 0.380086 0.23519707 -0.11709447 -0.0052948105 0.12501398
0.14244506 -0.22148697 0.37278023 -0.21968144 0.08626052 -0.16224241 0.04836503 0.32353777
0.27166206 -0.14224973 0.3879658 0.018014064 0.479107 -0.087652534 -0.50510585 0.122861065
0.14038245 -0.102875024 0.08296765 -0.20626909 0.24399374 -0.18342564 -0.17900172 0.26002654
0.16057955 -0.196028 0.04608455 0.3403594 -0.018935362 -0.33261618 0.119437434 0.0208519
0.12413558 -0.40639073 -0.11814997 0.053454034 0.079049975 -0.040700432 -0.16272847 -0.22401483
-0.18541351 -0.30743328 0.099496186 -0.0018913968 -0.13415809 -0.07284096 -0.35784027 0.18131559
0.35491797 -1.9769651 1.0217538 -0.06131135 1.2246604 -0.48212722 -0.53047293 0.71783733
0.3243435 -0.4121834 0.31470358 0.33064047 0.50149274 0.42594707 -0.50275743 0.82403284
-0.43284774 -0.34066784 -0.26582325 -0.59160346 0.74867266 0.22858335 -0.004832934 -0.0058917967
-0.30611718 -0.24268968 0.5387255 -0.6831907 0.3320776 0.11183199 -0.14700319 0.25829175
0.7543096 -0.6019364 0.6925797 -0.13113147 0.5613827 0.37104192 -0.86665833 0.71095884
0.26664338 -1.7385465 1.1118274 -0.40407953 0.65356106 -0.31214264 -0.27838877 0.92563593
-0.01399595 -0.76034236 0.1753957 -0.34283966 0.7327079 0.18421273 -0.25094667 0.5902489
0.15220587 -0.5567453 0.29539868 -0.29157847 0.56999606 0.42786834 0.02835043 0.26832318
-0.27131528 -0.39876246 -0.1660433 -0.053848933 -0.0077640577 -0.058787912 -0.23239094 0.13026132
0.09502836 -0.25000137 0.020262742 -0.050669298 0.16495697 -0.056521617 0.080618635 0.042638443
-0.3706297 -0.14853099 0.048636775 0.04800377 0.2640014 0.3705986 0.00565432 0.07185134
-0.42440137 0.3192959 -0.28824875 0.24545802 0.01696796 0.28072312 0.03014789 -0.31123045
0.0019289111 -0.27922556 0.29449317 -0.3598332 0.15360405 -0.050329447 -0.41416252 0.3125956
-0.025279097 -0.21717617 0.32730538 -0.12256241 0.097284794 0.04351842 0.052729674 0.19752195
0.15594831 0.45335054 -0.16200492 0.07009483 -0.4008147 -0.4588894 0.15576129 -0.077128574
0.047811802 -0.188659 0.3558729 -0.25252983 0.10115936 -0.04899192 -0.26625603 0.11017315
00000000: c726 2fbe 41dd 0dbf 8726 8d3e e925 223e
00000010: b562 9c3e a1eb 8bbe 239c 36bf 7f64 873e
00000020: 1a34 073e e34f da3c f821 0e3d a29a c23e
00000030: 80d7 703e 3acf efbd 1780 adbb aa03 003e
00000040: 1edd 113e 7bcd 62be 0ddd be3e 2cf4 60be
00000050: 5ba9 b03d e022 26be 691a 463d bea6 a53e
00000060: 4a17 8b3e eaa9 11be 74a3 c63e 3b92 933c
00000070: 834d f53e 2c83 b3bd 9e4e 01bf 959e fb3d
00000080: 6bc0 0f3e 24b0 d2bd f1ea a93d 3438 53be
00000090: 7fd9 793e eed3 3bbe 3a4c 37be 3322 853e
000000a0: f76e 243e 90bb 48be 27c3 3c3d 9643 ae3e
000000b0: 551e 9bbc ab4c aabe 9d9b f43d 9bd1 aa3c
000000c0: cc3a fe3d 7212 d0be 9df8 f1bd 9ef2 5a3d
000000d0: f4e4 a13d 7fb5 26bd 4ba2 26be 2564 65be
000000e0: 0add 3dbe e567 9dbe a8c4 cb3d bfe8 f7ba
000000f0: bd60 09be a42d 95bd d736 b7be cbaa 393e
00000100: cfb7 b53e 310d fdbf d4c8 823f 9c21 7bbd
00000110: acc1 9c3f 61d9 f6be 13cd 07bf 30c4 373f
00000120: 5a10 a63e b409 d3be d420 a13e b549 a93e
00000130: d461 003f bc15 da3e b6b4 00bf d1f3 523f
00000140: 389e ddbe 046c aebe fc19 88be 5373 17bf
00000150: 03a9 3f3f c111 6a3e 975d 9ebb f90f c1bb
00000160: 64bb 9cbe a583 78be eae9 093f 96e5 2ebf
00000170: 1306 aa3e 2c08 e53d 0188 16be d13e 843e
00000180: 6f1a 413f 8118 1abf e74c 313f 5447 06be
00000190: c7b6 0f3f 35f9 bd3e 52dd 5dbf 6601 363f
000001a0: 7b85 883e b188 debf 5c50 8e3f 83e3 cebe
000001b0: c74f 273f 29d1 9fbe f988 8ebe 7af6 6c3f
000001c0: 454f 65bc cca5 42bf ee9a 333e ae88 afbe
000001d0: bf92 3b3f 43a2 3c3e 157c 80be 8d1a 173f
000001e0: dbdb 1b3e dc86 0ebf 7f3e 973e c649 95be
000001f0: 43eb 113f 8f11 db3e 293f e83c a861 893e
00000200: d6e9 8abe 982a ccbe 4107 2abe b390 5cbd
00000210: a369 febb 98cb 70bd e4f7 6dbe 3963 053e
00000220: 3b9e c23d 2e00 80be 0dfe a53c 9c8a 4fbd
00000230: 7bea 283e 3683 67bd 621b a53d a6a5 2e3d
00000240: 2dc3 bdbe 8218 18be 5b37 473d 9a9f 443d
00000250: 312b 873e 1abf bd3e e047 b93b cc26 933d
00000260: 234b d9be c17a a33e 5795 93be 5959 7b3e
00000270: 6400 8b3c f1ba 8f3e b5f8 f63c 9959 9fbe
00000280: 84d3 fc3a a7f6 8ebe cfc7 963e 0f3c b8be
00000290: 614a 1d3e 4026 4ebd 1c0d d4be 880c a03e
000002a0: 1c16 cfbc 6e63 5ebe 9294 a73e 0002 fbbd
000002b0: 403d c73d 5f40 323d 12fb 573d 3243 4a3e
000002c0: eab0 1f3e 901d e83e 9ee4 25be e18d 8f3d
000002d0: 9637 cdbe 8df3 eabe e37f 1f3e 96f5 9dbd
000002e0: 4fd6 433d d32f 41be f934 b63e 974b 81be
000002f0: a32c cf3d c0ab 48bd b652 88be 76a2 e13d

rnn.bias_ih_l1 f4 [24]
-0.41153842 -0.23249264 -0.04132172 -0.21305388 -0.052366156 -0.049616754 0.028839966 -0.2230321
-0.7862003 -1.2493868 -0.8570397 -0.72629136 -0.982897 -0.8137906 -0.9442364 -1.078184
0.16022728 0.08345573 -0.09988247 -0.22974405 -0.124411516 -0.09708603 0.06660717 -0.08734301
00000000: 2ab5 d2be 8d12 6ebe f740 29bd cc2a 5abe
00000010: e57d 56bd f03a 4bbd cb41 ec3c 8762 64be
00000020: 6c44 49bf e8eb 9fbf f466 5bbf 3bee 39bf
00000030: 239f 7bbf 9554 50bf 7ab9 71bf ef01 8abf
00000040: 9f12 243e d6ea aa3d 2e8f ccbd 0642 6bbe
00000050: 77cb febd 0ad5 c6bd 5769 883d e4e0 b2bd

rnn.bias_hh_l1 f4 [24]
-0.41153842 -0.23249264 -0.04132172 -0.21305388 -0.052366156 -0.049616754 0.028839966 -0.2230321
-0.7862003 -1.2493868 -0.8570397 -0.72629136 -0.982897 -0.8137906 -0.9442364 -1.078184
-0.14860687 -0.07752849 -0.13596706 0.10899698 -0.42197108 -0.09881469 0.19082978 -0.18586259
00000000: 2ab5 d2be 8d12 6ebe f740 29bd cc2a 5abe
00000010: e57d 56bd f03a 4bbd cb41 ec3c 8762 64be
00000020: 6c44 49bf e8eb 9fbf f466 5bbf 3bee 39bf
00000030: 239f 7bbf 9554 50bf 7ab9 71bf ef01 8abf
00000040: 662c 18be 42c7 9ebd f33a 0bbe cf39 df3d
00000050: 980c d8be 5b5f cabd e268 433e c352 3ebe

rnn.weight_ih_l2 f4 [24, 8]
0.68549716 -0.5689517 -0.27281338 0.65648013 -1.7263315 1.360993 0.2837037 0.04006662
-1.181235 -0.03532426 -1.4007427 -1.5030975 0.6784678 -0.007930259 0.65619147 0.5970995
-1.3502169 -0.70352775 -0.42770424 -0.25021598 0.3005752 0.10978496 0.3558969 0.9461082
-0.50460947 1.5044577 0.35176453 0.045145024 0.10661905 0.9418915 -0.06051243 -0.9613572
-0.29213896 0.4142611 -0.029760621 -0.15421285 1.144343 -0.76262105 0.32303894 0.25415495
-0.20497513 0.031240536 0.08183707 0.24674137 0.3404394 -0.37603986 -0.11410809 0.4317575
-0.5431128 0.9694319 0.051900014 0.15999271 -0.12322329 0.22983865 0.034239028 -0.67281044
-0.04778119 -0.18839768 1.1819326 -0.9096524 1.4670873 -0.21908627 -0.41329762 -0.5227659
1.0524591 -0.5335112 0.33918965 1.0109406 -1.0858212 -0.36914453 -1.486528 0.89466417
-0.12115397 -0.7849568 0.7976061 -0.6954093 1.196303 0.07428316 -0.3216798 0.93648195
-0.16504584 -1.0719644 1.2207206 -0.4671655 1.3076978 -0.27128848 -1.1651913 1.1921077
-0.7560471 -0.62805235 1.3806263 -0.32606184 1.1037091 -0.5019457 -0.77718294 -0.6025066
0.3091751 -1.4402181 0.7755985 0.08880264 0.39259106 0.7880178 -0.6660831 1.2203538
-0.4894185 -1.6396052 1.348817 -0.45784047 0.76432514 0.148026 -0.61306846 0.6209464
-0.14876957 -0.17324026 0.512484 -0.62066793 0.4132167 0.29610762 -0.37087488 -0.2226443
0.71728295 -1.4660852 2.443521 0.100308426 1.0655293 0.45443872 -0.59452534 -0.016065897
1.3954701 -0.11089709 0.11004244 0.3547004 -1.3090819 0.6824094 0.104538344 0.05482803
0.67639405 0.035204437 0.81999993 1.8656211 -0.34308082 0.24429138 -0.44634902 -0.7435001
1.4245306 0.21226396 0.34398553 0.2790814 -0.6049603 0.33559784 -0.6663492 -0.76098
0.15860151 -1.4935304 0.22958982 -0.15312815 0.04156821 -0.5866031 -0.035979785 0.1492133
-1.1029154 0.4218105 0.21725692 -0.39710665 0.6244899 0.24204564 0.8812175 -0.3648164
-0.3421201 -0.084884316 -0.14152105 -0.12792762 -0.6716918 0.8110895 0.65421945 -0.6881782
0.085918665 1.2714825 -0.22114255 0.4635899 -0.5436793 -0.049887232 -0.02428486 -0.3573811
-0.544835 0.26625526 -0.678532 0.8102911 -1.0357957 0.32197237 -0.072600916 0.4025477
00000000: be7c 2f3f d2a6 11bf 32ae 8bbe 150f 283f
00000010: 6ef8 dcbf 0535 ae3f 9d41 913e e51c 243d
00000020: b532 97bf 2cb0 10bd 894b b3bf 8065 c0bf
00000030: 11b0 2d3f ebed 01bc 2afc 273f 83db 183f
00000040: e8d3 acbf 651a 34bf 0dfc dabe 4f1c 80be
00000050: fee4 993e f0d6 e03d 1e38 b63e 2634 723f
00000060: 162e 01bf 1292 c03f 7b1a b43e fde9 383d
00000070: 175b da3d cd1f 713f e2db 77bd 811b 76bf
00000080: 3d93 95be 081a d43e 8ccc f3bc f9e9 1dbe
00000090: d579 923f 223b 43bf 5c65 a53e 9920 823e
000000a0: 00e5 51be 27ec ff3c 329a a73d c5a9 7c3e
000000b0: 134e ae3e 4c88 c0be 81b1 e9bd 520f dd3e
000000c0: 7109 0bbf b02c 783f 1c95 543d 21d5 233e
000000d0: 7e5c fcbd d35a 6b3e 393e 0c3d 4e3d 2cbf
000000e0: 36b6 43bd 52eb 40be 9149 973f fbde 68bf
000000f0: 84c9 bb3f 2758 60be bf9b d3be fcd3 05bf
00000100: fbb6 863f 3194 08bf 44aa ad3e 8066 813f
00000110: 30fc 8abf 8300 bdbe 8d46 bebf b608 653f
00000120: 931f f8bd eef2 48bf ea2f 4c3f 5806 32bf
00000130: 7520 993f c521 983d 37b3 a4be 48bd 6f3f
00000140: c701 29be 2136 89bf 9340 9c3f 5130 efbe
00000150: a462 a73f 53e6 8abe fd24 95bf fc96 983f
00000160: 4e8c 41bf 0ac8 20bf 5db8 b03f 94f1 a6be
00000170: 5746 8d3f 837f 00bf 76f5 46bf df3d 1abf
00000180: 334c 9e3e 1159 b8bf a08d 463f 29de b53d
00000190: b201 c93e 89bb 493f 6c84 2abf 8e34 9c3f
000001a0: 1095 fabe 95de d1bf 09a6 ac3f 116a eabe
000001b0: d0aa 433f 2194 173e 0ef2 1cbf 58f6 1e3f
000001c0: 0d57 18be e565 31be 2732 033f 18e4 1ebf
000001d0: 2491 d33e 6b9b 973e 50e3 bdbe defc 63be
000001e0: db9f 373f aea8 bbbf a662 1c40 816e cd3d
000001f0: 4463 883f 31ac e83e d032 18bf a19c 83bc
00000200: c49e b23f 031e e3bd ee5d e13d 4a9b b53e
00000210: ff8f a7bf 62b2 2e3f 3318 d63d 5b93 603d
00000220: 2928 2d3f 8732 103d 84eb 513f accc ee3f
00000230: 4aa8 afbe 8527 7a3e dc87 e4be 0656 3ebf
00000240: 0557 b63f b95b 593e df1e b03e c2e3 8e3e
00000250: aede 1abf 7bd3 ab3e dc95 2abf 96cf 42bf
00000260: 6f68 223e 012c bfbf 9819 6b3e a0cd 1cbe
00000270: 6d43 2a3d 9f2b 16bf 8a5f 13bd 5fcb 183e
00000280: 552c 8dbf 8cf7 d73e 9978 5e3e 9051 cbbe
00000290: 92de 1f3f d0da 773e 7897 613f 37c9 babe
000002a0: 5e2a afbe d4d7 adbd e5ea 10be 75ff 02be
000002b0: fef3 2bbf 90a3 4f3f ed7a 273f 722c 30bf
000002c0: 20f6 af3d f0bf a23f 3173 62be a85b ed3e
000002d0: 912e 0bbf 8e56 4cbd 0bf1 c6bc a8fa b6be
000002e0: 4e7a 0bbf 9c52 883e 46b4 2dbf 3d6f 4f3f
000002f0: f494 84bf 90d9 a43e caaf 94bd bb1a ce3e

rnn.weight_hh_l2 f4 [24, 8]
-0.29492852 0.2654856 0.1834522 0.19530968 0.03069227 -0.07782742 -0.15979923 -0.058441244
-0.3812489 0.41008413 0.122353636 -0.1269343 -0.05224389 -0.025310278 -0.005411225 0.1300486
-0.2504875 0.23530167 0.08592587 0.1079241 -0.25076428 -0.07361805 0.009178275 -0.08136192
-0.18056354 0.51721704 -0.18508932 0.2337963 -0.0824861 -0.19350299 -0.15686314 0.13815542
-0.15478009 0.044718515 0.10343396 0.42725065 0.013988592 -0.14556462 -0.32509875 0.2127242
-0.34459767 0.11618417 0.3719501 0.26386067 0.07246457 -0.082213245 -0.24657658 0.0601076
-0.17980792 -0.119950466 0.11743786 0.121721275 -0.0048419936 -0.1796328 -0.20603113 0.1397203
-0.44425863 0.05711779 -0.11107856 0.0018815779 -0.51677126 -0.024008706 0.10394334 0.15167163
-0.5660448 0.13486421 0.30915192 1.5017998 -0.5452174 -0.16257519 -0.51883006 -0.09610593
-1.06735 0.2311492 -0.060442228 1.0469773 -0.3214906 -0.35435525 -2.4423738 0.32292303
-1.1049919 0.5313394 0.46903855 1.4925812 -0.013343148 -0.47220284 -2.0697684 0.6323931
-0.3548 0.15749465 -0.18443993 0.026302204 0.0343499 0.21616787 -0.18928514 0.34442076
-1.0199038 0.55661386 0.28927994 0.9787134 -0.64095324 -0.529041 -1.8812932 -0.002523815
-1.3017935 0.60222816 0.39333966 1.5844223 -0.20940357 -0.8472112 -2.9488523 0.2012824
-0.3253928 0.9444749 0.8061642 0.28947967 -0.6248223 -0.5538199 -0.24609089 0.023215393
-1.1610043 0.9318321 0.34666285 1.1194453 -0.27354822 -0.73863465 -2.7415354 -0.6264748
0.87202257 -0.47180367 -0.38937846 -1.0826418 0.15522529 0.14801127 1.3583789 -0.35662764
-0.8131089 0.4323385 0.32409433 0.70053875 0.020067198 -0.48774937 -0.87916434 -0.077446975
-0.23903392 0.22276565 0.2682618 0.16266094 0.09199622 -0.18257187 -0.7049652 -0.01845572
-0.15717676 0.28516787 -0.20434645 0.2123954 0.0004793762 -0.063834496 -0.3365193 0.010407235
0.16702156 -0.09244326 0.04132858 -0.26108745 0.08009767 0.014493181 0.12834443 -0.044003993
-0.2761229 -0.06558232 0.20960596 0.25383255 0.00031079538 -0.11642175 -0.50225 0.061104257
0.19609256 -0.3848403 -0.16961391 -0.17090793 -0.18488285 0.14958704 0.25309286 -0.12694113
-0.38147733 -0.09916965 0.051403105 0.22961795 -0.436224 -0.12171245 -0.63629454 -0.085165694
00000000: df00 97be bbed 873e e5da 3b3e 43ff 473e
00000010: 5b6e fb3c fb63 9fbd 69a2 23be 1660 6fbd
00000020: 0e33 c3be 8cf6 d13e 8b94 fa3d 11fb 01be
00000030: b0fd 55bd 8057 cfbc a550 b1bb 762b 053e
00000040: e63f 80be ecf2 703e e7f9 af3d 4f07 dd3d
00000050: 2d64 80be 0fc5 96bd 7a60 163c 14a1 a6bd
00000060: a6e5 38be 5668 043f 0e88 3dbe 4c68 6f3e
00000070: 79ee a8bd a625 46be bba0 20be 9d78 0d3e
00000080: ac7e 1ebe c32a 373d 2fd5 d33d 99c0 da3e
00000090: 6830 653c e40e 15be 5873 a6be 5fd4 593e
000000a0: 1b6f b0be f7f1 ed3d 3e70 be3e bf18 873e
000000b0: 4e68 943d 6b5f a8bd 927e 7cbe 6333 763d
000000c0: 911f 38be 97a8 f5bd 4383 f03d 0149 f93d
000000d0: 96a9 9ebb a9f1 37be d3f9 52be d712 0f3e
000000e0: de75 e3be 58f4 693d 287d e3bd 479f f63a
000000f0: 1f4b 04bf e8ad c4bc 3fe0 d43d cf4f 1b3e
00000100: 50e8 10bf d819 0a3e 2949 9e3e fa3a c03f
00000110: 5e93 0bbf 1c7a 26be 0cd2 04bf 30d3 c4bd
00000120: ed9e 88bf 60b2 6c3e 4592 77bd 5a03 863f
00000130: 6a9a a4be 0d6e b5be da4f 1cc0 2b56 a53e
00000140: 6070 8dbf dc05 083f d225 f03e e70c bf3f
00000150: 389d 5abc 92c4 f1be 1677 04c0 84e4 213f
00000160: 58a8 b5be 4746 213e d2dd 3cbe b877 d73c
00000170: 7bb2 0c3d 1c5b 5d3e f7d3 41be eb57 b03e
00000180: 358c 82bf 3f7e 0e3f 801c 943e f68c 7a3f
00000190: 8315 24bf 3b6f 07bf 37ce f0bf 9766 25bb
000001a0: 2ba1 a6bf a02b 1a3f d163 c93e 5ace ca3f
000001b0: e46d 56be d5e2 58bf ffb9 3cc0 f91c 4e3e
000001c0: e399 a6be 1bc9 713f c760 4e3f ae36 943e
000001d0: 5bf4 1fbf 24c7 0dbf 40ff 7bbe 352e be3c
000001e0: ca9b 94bf 8c8c 6e3f cb7d b13e fc49 8f3f
000001f0: 830e 8cbe 2917 3dbf 5175 2fc0 a760 20bf
00000200: df3c 5f3f 4090 f1be 9d5c c7be 0294 8abf
00000210: 61f3 1e3e 4490 173e 5cdf ad3f e697 b6be
00000220: e827 50bf 795b dd3e b1ef a53e 8256 333f
00000230: f763 a43c 49ba f9be ea10 61bf 859c 9ebd
00000240: 4fc5 74be ae1c 643e 9c59 893e 9790 263e
00000250: 8468 bc3d 1ff4 3abe 9978 34bf 7330 97bc
00000260: f2f2 20be 8601 923e 3240 51be 2e7e 593e
00000270: c954 fb39 a9bb 82bd 424c acbe 1b83 2a3c
00000280: b307 2b3e e452 bdbd 2848 293d 41ad 85be
00000290: 3f0a a43d cf74 6d3c b96c 033e 883d 34bd
000002a0: fb5f 8dbe 0650 86bd f2a2 563e 57f6 813e
000002b0: 40f2 a239 876e eebd 7593 00bf 7548 7a3d
000002c0: 7dcc 483e ca09 c5be 45af 2dbe 7d02 2fbe
000002d0: ee51 3dbe 582d 193e 6395 813e dbfc 01be
000002e0: ff50 c3be 7519 cbbd 108c 523d f820 6b3e
000002f0: c158 dfbe 6144 f9bd 33e4 22bf 5a6b aebd

rnn.bias_ih_l2 f4 [24]
0.40831432 0.1480738 -0.014002697 -0.019445151 -0.17939097 0.024141839 0.100574434 0.20444123
-1.2849823 -1.8193498 -2.075573 -1.4327708 -1.9049414 -1.4337566 -0.9665188 -1.4092207
0.12120423 0.13625577 0.031387933 -0.1376571 0.22364555 0.124607764 0.34252557 -0.008723601
00000000: 930e d13e a9a0 173e 916b 65bc 704b 9fbc
00000010: 44b2 37be 1bc5 c53c f8f9 cd3d 0b59 513e
00000020: 4d7a a4bf 74e0 e8bf 30d6 04c0 0965 b7bf
00000030: 1fd5 f3bf 5685 b7bf c76d 77bf 5861 b4bf
00000040: ec39 f83d a286 0b3e a290 003d fcf5 0cbe
00000050: 5703 653e 5b32 ff3d 835f af3e 6fed 0ebc

rnn.bias_hh_l2 f4 [24]
0.40831432 0.1480738 -0.014002697 -0.019445151 -0.17939097 0.024141839 0.100574434 0.20444123
-1.2849823 -1.8193498 -2.075573 -1.4327708 -1.9049414 -1.4337566 -0.9665188 -1.4092207
1.3613495 -1.3362949 -0.51351875 -0.3404398 0.32396832 0.0077381125 0.436579 -0.4439327
00000000: 930e d13e a9a0 173e 916b 65bc 704b 9fbc
00000010: 44b2 37be 1bc5 c53c f8f9 cd3d 0b59 513e
00000020: 4d7a a4bf 74e0 e8bf 30d6 04c0 0965 b7bf
00000030: 1fd5 f3bf 5685 b7bf c76d 77bf 5861 b4bf
00000040: b340 ae3f b60b abbf f775 03bf 204e aebe
00000050: 2ddf a53e fe8f fd3b 4887 df3e 264b e3be

fc.weight f4 [8, 8]
-5.875818 -0.8552508 -1.346101 -0.6666759 1.9071218 -3.45562 -0.9133369 -3.4530025
-0.15272245 -0.59149283 1.2098455 0.17263208 0.58801705 1.2962004 -0.47158527 -3.452197
0.7226529 -0.15961088 0.2590571 3.3198204 -0.22801201 -0.14766927 -2.3550053 0.083585374
0.21200325 0.27423066 0.4452699 1.775226 -1.456068 -2.0503283 -1.2980721 -1.0789406
0.258706 0.5416837 1.1158274 1.330135 -1.1711289 -3.0208845 -1.1730385 -1.3818729
0.63090086 1.3529172 5.108284 -0.15417446 -4.18462 1.4670507 0.45586655 2.0753663
-1.1286712 5.630078 1.4956359 0.055039898 -1.4630845 0.93124044 -0.5284085 -0.5361402
-2.812667 0.25654185 0.2685765 1.339516 -0.4174126 -1.1653333 -2.119415 0.059686724
00000000: b306 bcc0 b7f1 5abf 0a4d acbf 46ab 2abf
00000010: 911c f43f e128 5dc0 72d0 69bf fefd 5cc0
00000020: 4663 1cbe 136c 17bf 38dc 9a3f 77c6 303e
00000030: 4988 163f e5e9 a53f a073 f1be ccf0 5cc0
00000040: c8ff 383f 0971 23be 22a3 843e f077 5440
00000050: fb7b 69be 9d36 17be 68b8 16c0 cf2e ab3d
00000060: 6117 593e f667 8c3e 6bfa e33e 9b3a e33f
00000070: 7060 babf 9438 03c0 3a27 a6bf ba1a 8abf
00000080: 1d75 843e c8ab 0a3f 6fd3 8e3f dd41 aa3f
00000090: 8de7 95bf 2c56 41c0 2026 96bf 36e1 b0bf
000000a0: b882 213f 642c ad3f 1077 a340 e9df 1dbe
000000b0: 68e8 85c0 51c8 bb3f 5767 e93e cdd2 0440
000000c0: 4c78 90bf 9929 b440 ff70 bf3f 8471 613d
000000d0: 5a46 bbbf c665 6e3f c845 07bf 7c40 09bf
000000e0: bc02 34c0 7459 833e dc82 893e 4375 ab3f
000000f0: 1bb7 d5be a429 95bf 7fa4 07c0 117a 743d

fc.bias f4 [8]
-0.51571286 -0.33723986 -1.2925488 -0.80918187 -0.7692463 -0.38224322 -0.9969393 -1.3901614
00000000: c205 04bf b4aa acbe 3d72 a5bf 8b26 4fbf
00000010: 53ed 44bf 62b5 c3be 6a37 7fbf cff0 b1bf
