output/TimeGAN/datp_v1/train/weights/netR.pth (torch, 19583 bytes, 14 tensors)

rnn.weight_ih_l0 f4 [24, 128]
0.7048803 0.55057156 -0.50273305 0.078645326 0.23130314 -0.01279912 0.047865573 -0.024800457
-0.07517828 0.18526907 -0.1381599 -0.071860366 -0.34140712 -0.020425878 -0.62287873 0.32347655
-0.14317851 -0.04723432 0.19714269 0.0063497913 0.2405063 -0.1404328 -0.377477 -0.37444237
0.22542042 -0.8600644 0.07345967 -0.24878083 0.35668376 -0.12779874 0.5637143 -0.026041413
-0.061931327 -0.13615496 0.22461753 0.12442068 -0.48723498 -0.24737233 0.27552968 0.7950266
0.18280959 -0.15925449 0.28405628 -0.027990697 -0.04753058 -0.23712097 -0.061496735 -1.152796
0.07515889 0.27132395 0.17358048 -0.5444486 -0.078122385 -0.42032087 0.29645762 -0.43013257
-0.1422912 0.13570815 0.2256576 0.20756803 -0.4513813 -0.50129783 0.21119303 -0.6673378
-0.3117502 -0.17060058 0.34916687 0.16865057 0.21771213 0.02533598 0.90493274 0.40371177
0.14346778 0.18890756 0.1698619 0.56106216 0.21424708 -0.30799863 0.59374195 0.06183049
0.44606903 -0.2033165 -0.26840156 -0.4661596 -0.3833567 -0.26287997 -0.16588634 -0.10812329
-0.21100058 -0.7174039 -0.7953173 0.08224738 0.037706595 -0.46951407 0.22591344 -0.11521839
-0.742908 -0.4602387 0.2829397 -0.34171313 0.07942479 -0.28026184 -0.46240568 -0.55335885
-0.07795932 -0.22455494 -0.007120047 0.53045154 0.034101002 -0.1903088 -0.18055287 0.318764
0.24651936 0.22783184 -0.58719003 0.1891784 0.2643198 -0.6356751 0.59005064 0.10723705
0.25434342 0.4323899 0.336884 -0.48272645 0.026998907 -0.030367246 0.537234 -0.03658711
-0.042291567 0.43713668 -0.4034153 -0.108749576 0.092741184 0.01272057 0.041973505 0.12527695
-0.1745768 0.0695535 0.30450702 0.14334506 0.09270106 -0.062329203 0.1469536 0.0070366412
0.23821084 -0.18441494 0.22712946 0.17350212 0.23175001 -0.19013062 -0.10062308 0.32819277
-0.02243531 0.19524592 0.2703204 -0.16289791 0.013996024 0.020542396 0.038878724 0.04298413
0.26591328 -0.12751469 -0.22524571 -0.086947106 -0.56270355 -0.15948027 0.1197849 0.08706152
-0.09716797 -0.19264238 0.12414256 0.12107249 0.028855 -0.13068867 -0.15121134 0.294609
0.16592497 -0.102541395 0.23015049 0.09174313 -0.26746216 -0.2119019 -0.069568485 -0.04523651
-0.41285548 -0.23207633 -0.13171221 0.21596722 0.23348717 -0.31382278 -0.6544424 0.19807069
-0.21302295 0.08913708 0.023387808 -0.10262894 0.20892574 0.3530806 -0.5878898 -0.02550626
0.27113035 -0.10875394 -0.07550995 -0.22471158 0.37850854 0.14446022 -0.0050157364 -0.032802228
-0.0089376485 -0.01849326 0.1687421 -0.40988836 -0.32160297 -0.08520518 -0.09666779 0.12696157
0.235459 0.23589489 -0.10237153 0.29494724 0.40190732 0.046370767 0.0062349527 -0.34893575
0.110571794 0.26994243 0.015175521 0.27218282 0.38094947 0.07549005 0.23579237 -0.03878268
0.397276 -0.23960717 -0.06510155 -0.14525118 0.18731184 0.1539249 0.2216538 -0.28315952
0.1244091 0.1391426 0.062642716 -0.0036367418 0.13793239 -0.3362593 0.13654166 0.15291919
-0.02224813 0.15009236 0.23683247 0.2258422 0.17371696 -0.28594247 0.17673713 0.2099109
00000000: 0973 343f 42f2 0c3f 1db3 00bf cd10 a13d
00000010: bbda 6c3e 66b3 51bc b10e 443d 542a cbbc
00000020: 12f7 99bd 2db7 3d3e ca79 0dbe 872b 93bd
00000030: eacc aebe 2c54 a7bc fb74 1fbf b89e a53e
00000040: 639d 12be c678 41bd c6df 493e e911 d03b
00000050: 4947 763e 9ecd 0fbe aa44 c1be e9b6 bfbe
00000060: 9cd4 663e 2e2d 5cbf 0672 963d 67c0 7ebe
00000070: 419f b63e acdd 02be 954f 103f cd54 d5bc
00000080: b4ab 7dbd 356c 0bbe 2302 663e 45d0 fe3d
00000090: dd76 f9be 2c4f 7dbe 3a12 8d3e dd86 4b3f
000000a0: 7032 3b3e 9c13 23be d36f 913e bf4c e5bc
000000b0: 6daf 42bd d7cf 72be 00e4 7bbd d28e 93bf
000000c0: e7ec 993d f9ea 8a3e 15bf 313e fc60 0bbf
000000d0: a1fe 9fbd 4c34 d7be 4bc9 973e 563a dcbe
000000e0: c9b4 11be 14f7 0a3e c912 673e b78c 543e
000000f0: 731b e7be 0e55 00bf fc42 583e a6d6 2abf
00000100: b99d 9fbe ebb1 2ebe 00c6 b23e bcb2 2c3e
00000110: eeef 5e3e 678d cf3c aca9 673f 4fb3 ce3e
00000120: 38e9 123e fc70 413e 47f0 2d3e c5a1 0f3f
00000130: 9663 5b3e ffb1 9dbe 79ff 173f f841 7d3d
00000140: 2963 e43e 3332 50be ee6b 89be 79ac eebe
00000150: 5447 c4be 3498 86be 1cde 29be be6f ddbd
00000160: 8910 58be c8a7 37bf ea99 4bbf 5071 a83d
00000170: 3b72 1a3d 2664 f0be da55 673e 9ff7 ebbd
00000180: 382f 3ebf 68a4 ebbe 79dd 903e 06f5 aebe
00000190: 77a9 a23d 7b7e 8fbe 70c0 ecbe eda8 0dbf
000001a0: 23a9 9fbd bbf1 65be 494f e9bb accb 073f
000001b0: 7ead 0b3d 4fe0 42be dae2 38be 0935 a33e
000001c0: 926f 7c3e c04c 693e 1652 16bf fcb7 413e
000001d0: ed54 873e 9abb 22bf 8f0d 173f 199f db3d
000001e0: 4d39 823e 3562 dd3e 0f7c ac3e ec27 f7be
000001f0: d02c dd3c bbc4 f8bc 2b88 093f 5edc 15bd
00000200: ec39 2dbd 61d0 df3e 738c cebe 19b8 debd
00000210: 17ef bd3d f069 503c 69ec 2b3d 9a48 003e
00000220: 43c4 32be 1172 8e3d 58e8 9b3e 0cc9 123e
00000230: 0eda bd3d e84c 7fbd 017b 163e a093 e63b
00000240: 8bed 733e 45d7 3cbe a094 683e 8aaa 313e
00000250: e04f 6d3e 9ab1 42be 7913 cebd e208 a83e
00000260: 41ca b7bc 8cee 473e 6f67 8a3e b6ce 26be
00000270: 944f 653c 8748 a83c 4c3f 1f3d 2110 303d
00000280: c925 883e 3693 02be d0a6 66be 5311 b2bd
00000290: 570d 10bf cc4e 23be c951 f53d 4f4d b23d
000002a0: 0000 c7bd 0b44 45be 743e fe3d dbf4 f73d
000002b0: 5261 ec3c 40d3 05be 25d7 1abe fed6 963e
000002c0: 3ce8 293e 3901 d2bd 92ac 6b3e d2e3 bb3d
000002d0: cdf0 88be d0fc 58be ec79 8ebd eb49 39bd
000002e0: cb61 d3be 6ba5 6dbe 91df 06be 8326 5d3e
000002f0: 4317 6f3e 61ad a0be 8a89 27bf 0bd3 4a3e
00000300: b022 5abe 808d b63d ca97 bf3c 1f2f d2bd
00000310: a1f0 553e fbc6 b43e f27f 16bf 81f2 d0bc
00000320: 99d1 8a3e 63ba debd f6a4 9abd cb1a 66be
00000330: dfcb c13e 61ed 133e 0c5b a4bb a15b 06bd
00000340: 376f 12bc 2d7f 97bc bbca 2c3e e3dc d1be
00000350: 25a9 a4be 0e80 aebd c3f9 c5bd 3702 023e
00000360: 2a1c 713e 6e8e 713e 2aa8 d1bd 5303 973e
00000370: ccc6 cd3e 46ef 3d3d 934e cc3b b5a7 b2be
00000380: 7773 e23d e535 8a3e c0a2 783c 8c5b 8b3e
00000390: cf0b c33e 879a 9a3d 8e73 713e 96da 1ebd
000003a0: c367 cb3e 955b 75be f653 85bd babc 14be
000003b0: adce 3f3e 7d9e 1d3e 37f9 623e 49fa 90be
000003c0: 33ca fe3d 667b 0e3e d34a 803d 6756 6ebb
000003d0: 263e 0d3e 2e2a acbe 94d1 0b3e d996 1c3e
000003e0: b641 b6bc d0b1 193e 3684 723e 2d43 673e
000003f0: dce2 313e 0d67 92be 94fa 343e e2f2 563e

rnn.weight_hh_l0 f4 [24, 8]
-0.33752826 0.23708953 -0.04635167 0.13848619 0.06274002 -0.000117844815 -0.07669731 0.010590133
0.20982239 0.27208388 -0.076989695 -0.13278808 -0.27668786 0.033066977 0.08754746 0.12235227
0.11239721 0.24168777 0.8239888 0.22331166 -0.22188257 -0.1282156 -0.0074366983 0.25193638
-0.014234706 -0.11867294 0.22492062 0.52297467 -0.0070568114 -0.30331373 0.044338737 0.11846069
0.026806518 0.00057543436 0.23546378 -0.33010995 -0.047846645 -0.25968352 0.24987839 0.05324173
0.20597102 0.00039291396 0.26411396 0.35198042 -0.17378643 0.17854524 0.1747338 0.03516853
-0.003329918 0.53417844 0.6352095 -0.19496757 -0.073883265 -0.3644417 0.43290743 -0.1031011
0.045351468 -0.07884821 -0.008089215 -0.13481688 -0.14056885 -0.24881136 -0.18956009 -0.24119005
-0.14996625 0.33090594 -0.011083126 -0.0019701344 -0.3798377 -0.15980934 -0.2556631 -0.05375058
-0.44253153 0.2918948 0.41995445 -0.22695516 -0.16215526 -0.43597567 -0.36049116 -0.30923238
0.0814856 0.1221996 0.45571336 -0.00041747175 -0.20184602 -0.091611266 0.03274635 -0.03812049
-0.4231298 0.36940494 0.4718043 -0.27500603 -0.38910204 -1.046995 -0.65921694 0.24659027
-0.22031556 0.38963836 0.49124536 -0.08182951 -0.16141836 -0.340157 -0.3087 0.096259326
-0.12645589 0.1615137 0.022863217 -0.15864277 -0.02462719 -0.18148252 0.04688175 -0.003036038
-0.23952343 0.22553821 0.1665824 -0.05277417 -0.040663335 -0.2150022 -0.28633794 -0.0621818
-0.26276898 0.020989586 0.2811043 -0.013150022 -0.07018784 -0.28435406 -0.14158529 0.020167984
-0.09914785 -0.19717725 -0.001692218 0.023579929 -0.0010687747 0.119933195 0.07840555 0.041216362
-0.17598894 -0.057399187 0.12740134 0.109157845 -0.2321845 -0.03712576 -0.11914627 0.03306234
0.24648678 0.22589102 -0.0822195 -0.35616156 0.07050647 -0.30960035 -0.02087627 -0.4502349
-0.026098108 0.2242587 0.22166859 -0.31991905 -0.078264706 -0.19027494 -0.12091282 0.0009329481
-0.24698868 -0.11362239 -0.20061849 -0.003170924 -0.3788423 -0.044095818 0.029846666 -0.08539778
0.1100569 -0.00026258585 0.2875064 0.045286216 -0.06250625 -0.36839548 -0.51114446 -0.042938337
-0.01224965 0.071055055 0.059055284 0.05797353 -0.18611641 -0.14711182 -0.326311 -0.054546833
0.2558615 -0.086161256 0.021127986 0.17137907 -0.15209027 -0.11972665 -0.26798925 -0.73222524
00000000: 81d0 acbe 99c7 723e 40db 3dbd 53cf 0d3e
00000010: d77d 803d 7423 f7b8 7b13 9dbd 3d82 2d3c
00000020: aedb 563e 944e 8b3e c6ac 9dbd 99f9 07be
00000030: 08aa 8dbe 3d71 073d 154c b33d d493 fa3d
00000040: 8230 e63d 007d 773e eef0 523f d0ab 643e
00000050: 2f35 63be f34a 03be 8caf f3bb cefd 803e
00000060: af38 69bc cc0a f3bd 9751 663e abe1 053f
00000070: d33c e7bb f04b 9bbe 899c 353d 859b f23d
00000080: 5899 db3c bfd8 163a 6b1d 713e 2c04 a9be
00000090: d8fa 43bd 3df5 84be 1fe0 7f3e 0014 5a3d
000000a0: 11ea 523e 0500 ce39 f239 873e c736 b43e
000000b0: 12f5 31be 90d4 363e 6bed 323e e00c 103d
000000c0: c13a 5abb ebbf 083f 179d 223f 94a5 47be
000000d0: 1c50 97bd 1a98 babe 0ba6 dd3e ab26 d3bd
000000e0: 76c2 393d 2c7b a1bd a088 04bc 700d 0abe
000000f0: 48f1 0fbe 68c8 7ebe 0a1c 42be 86fa 76be
00000100: c190 19be 816c a93e 0096 35bc 5f1d 01bb
00000110: 167a c2be 0fa5 23be 46e6 82be 9129 5cbd
00000120: 7e93 e2be 3c73 953e 4504 d73e ef66 68be
00000130: 070c 26be 3438 dfbe 4c92 b8be b553 9ebe
00000140: ece1 a63d c943 fa3d 4353 e93e 1ce0 dab9
00000150: b9b0 4ebe b09e bbbd 0921 063d 3b24 1cbd
00000160: 78a4 d8be a522 bd3e 5590 f13e 97cd 8cbe
00000170: 6238 c7be ef03 86bf 71c2 28bf 2982 7c3e
00000180: 679a 61be ae7e c73e 8384 fb3e 3b96 a7bd
00000190: db4a 25be 0f29 aebe ed0d 9ebe 9c23 c53d
000001a0: a77d 01be d963 253e a44b bb3c 4073 22be
000001b0: f6be c9bc 8ed6 39be 1407 403d 44f8 46bb
000001c0: a145 75be 7df3 663e 9494 2a3e ba29 58bd
000001d0: 998e 26bd 8929 5cbe e39a 92be 58b2 7ebd
000001e0: a889 86be 5af2 ab3c e7ec 8f3e 3173 57bc
000001f0: a4be 8fbd db96 91be bcfb 10be 5437 a53c
00000200: 070e cbbd d5e8 49be 6acd ddba b22a c13c
00000210: 2116 8cba 899f f53d 1793 a03d 7dd2 283d
00000220: 7236 34be 691b 6bbd 7f75 023e 268e df3d
00000230: c6c1 6dbe 2e11 18bd f602 f4bd 606c 073d
00000240: 0867 7c3e fa4f 673e b262 a8bd cf5a b6be
00000250: b265 903d f083 9ebe b604 abbc 3085 e6be
00000260: b3cb d5bc 13a4 653e 17fd 623e 6ecc a3be
00000270: 3f49 a0bd 6fd7 42be 24a1 f7bd 1691 743a
00000280: 9aea 7cbe dbb2 e8bd ef6e 4dbe 47cf 4fbb
00000290: 9ef7 c1be d19d 34bd ff80 f43c 08e5 aebd
000002a0: 8365 e13d adab 89b9 0a34 933e 0a7e 393d
000002b0: 4703 80bd 559e bcbe 5dda 02bf 1ce0 2fbd
000002c0: c2b2 48bc 5085 913d f4e3 713d a775 6d3d
000002d0: 4d95 3ebe 7ba4 16be 3c12 a7be 806c 5fbd
000002e0: 4700 833e 5075 b0bd 9914 ad3c ff7d 2f3e
000002f0: 8dbd 1bbe 3f33 f5bd e335 89be 1d73 3bbf

rnn.bias_ih_l0 f4 [24]
-0.033618663 -0.11318517 -0.2014275 -0.06512031 -0.21781623 -0.11239405 -0.27571565 -0.15269864
-0.53514457 -0.4353554 -0.17343375 -0.17482542 -0.20650768 -0.295546 -0.3097577 -0.26719502
0.046440993 -0.07512134 -0.054131597 -0.028917901 0.09296266 -0.0011196845 0.01814126 0.012337554
00000000: b9b3 09bd a0cd e7bd 0343 4ebe cc5d 85bd
00000010: 380b 5fbe da2e e6bd 9a2a 8dbe 085d 1cbe
00000020: 3cff 08bf e7e6 debe 9e98 31be 6f05 33be
00000030: c076 53be ce51 97be 9098 9ebe c9cd 88be
00000040: e938 3e3d 38d9 99bd 18b9 5dbd 3ce5 ecbc
00000050: 3563 be3d 61c2 92ba fb9c 943c 7423 4a3c

rnn.bias_hh_l0 f4 [24]
-0.033618663 -0.11318517 -0.2014275 -0.06512031 -0.21781623 -0.11239405 -0.27571565 -0.15269864
-0.53514457 -0.4353554 -0.17343375 -0.17482542 -0.20650768 -0.295546 -0.3097577 -0.26719502
0.2923889 -0.069122866 -0.1331028 -0.08648855 0.094846405 0.08322828 -0.19984928 -0.005873405
00000000: b9b3 09bd a0cd e7bd 0343 4ebe cc5d 85bd
00000010: 380b 5fbe da2e e6bd 9a2a 8dbe 085d 1cbe
00000020: 3cff 08bf e7e6 debe 9e98 31be 6f05 33be
00000030: c076 53be ce51 97be 9098 9ebe c9cd 88be
00000040: ffb3 953e 4a90 8dbd 1a4c 08be e920 b1bd
00000050: d53e c23d 9773 aa3d 4aa5 4cbe b175 c0bb

rnn.weight_ih_l1 f4 [24, 8]
-0.10043176 0.04075129 0.47592068 -0.2438076 0.19966416 -0.4489424 -0.1621436 0.43784916
-1.400033 -0.40351525 0.810131 -0.16402434 -0.20272693 0.24787223 -0.13491046 0.8748312
0.044639938 -0.3198668 -0.2137008 -0.17143552 -0.60996395 -0.5900268 -0.11603114 -0.26796928
-0.19553858 0.48346677 0.89904344 0.15169133 -0.2714824 -0.50482774 -0.024659704 -0.0049788677
-0.018088872 0.40745616 0.33159518 -0.40837687 -0.9491953 -0.12527905 -0.058067936 -0.33205083
-1.0168209 0.25259158 -0.56360626 0.36838487 -0.063513696 0.4024713 -1.2056394 -0.24832128
-0.51247984 -0.6452873 0.4337629 0.70407546 0.23882975 0.029894732 0.18350847 0.15520349
0.45400044 -0.5082522 -0.03578753 0.23302683 -0.20565762 0.1905707 0.013997022 -0.379275
-0.6389642 1.2313178 1.4637569 -0.75150216 -0.13352007 -0.84851193 -1.0421845 0.06757884
0.31812137 0.66588426 1.1140796 -0.39241552 -0.3946437 -0.005963976 -0.77218074 -0.8284673
-0.0043249647 0.087075636 0.10098255 -0.047879305 -1.1210046 -1.373708 -0.5096355 -1.1495377
-1.7142104 0.7309658 1.62708 -1.3495345 -0.8469619 -0.80414045 -1.0896343 -0.07667519
0.4764782 0.7073929 0.7856828 -0.36966035 -0.662781 -1.054443 -0.9177933 -0.49508548
0.6270625 0.21975432 0.6537855 0.13353072 -0.4294009 -1.203001 -0.55870265 -0.5867944
0.13374352 0.0032300872 0.67532384 -0.16122183 0.5068819 -1.4069893 -0.18184112 -1.5084658
0.12451142 0.18503235 1.7040423 0.16714664 -1.0943631 -0.6019893 -0.96309566 -0.3652121
-0.035631537 0.24219128 0.3829106 0.04955866 0.6566609 -0.25579414 -0.123870276 1.0011038
1.1189436 0.036523413 -0.37192887 0.31484583 -0.50063425 -0.32878885 0.2907916 -0.2968383
-0.093402915 -0.37897664 0.25572443 0.11616288 -0.39096022 -0.4170388 -1.2416253 -0.2167835
-0.35102963 0.6371817 0.7828436 -0.37836707 0.5919831 -0.23204608 0.111007184 0.44881856
0.054043736 -0.26223898 0.4889889 0.5583755 0.91117525 0.028413115 0.52525616 0.13134715
0.25467417 -0.050447773 1.1931723 0.008934848 0.082893275 -0.62396306 0.63822967 -0.013100963
-0.72849625 -0.53007936 -0.03748067 0.10864126 0.044844046 0.1735888 0.17950493 0.24246848
-1.0181575 0.31472227 1.4775636 -0.03765343 -0.008969816 -0.3401572 -0.10180576 0.5720947
00000000: 2baf cdbd d3ea 263d e0ab f33e b3a8 79be
00000010: c374 4c3e c7db e5be f908 26be c42d e03e
00000020: 4834 b3bf 8d99 cebe bf64 4f3f fff5 27be
00000030: a697 4fbe 38d2 7d3e f825 0abe f0f4 5f3f
00000040: 5ed8 363d 95c5 a3be 62d4 5abe cb8c 2fbe
00000050: 9926 1cbf ff0b 17bf bca1 edbd 4533 89be
00000060: 443b 48be f588 f73e b627 663f f954 1b3e
00000070: beff 8abe 643c 01bf 2603 cabc c525 a3bb
00000080: 1d2f 94bc 189e d03e d8c6 a93e c616 d1be
00000090: 77fe 72bf 2749 00be a5d8 6dbd 9102 aabe
000000a0: 3027 82bf af53 813e 8048 10bf f19c bc3e
000000b0: 7813 82bd b810 ce3e 6452 9abf ef47 7ebe
000000c0: e131 03bf 8c31 25bf 2c16 de3e 4a3e 343f
000000d0: c98f 743e cce5 f43c a5e9 3b3e aaed 1e3e
000000e0: bf72 e83e d11c 02bf f295 12bd 969e 6e3e
000000f0: e997 52be f724 433e c453 653c 5530 c2be
00000100: 2893 23bf d29b 9d3f 635c bb3f 7262 40bf
00000110: 7cb9 08be 1438 59bf 4d66 85bf c666 8a3d
00000120: cee0 a23e 6477 2a3f 299a 8e3f b0ea c8be
00000130: bd0e cabe 756d c3bb a3ad 45bf 6f16 54bf
00000140: 6fb8 8dbb b654 b23d f0cf ce3d 171d 44bd
00000150: 147d 8fbf aad5 afbf 7977 02bf 0d24 93bf
00000160: 3f6b dbbf 9320 3b3f 2844 d03f 8cbd acbf
00000170: 7fd2 58bf 26dc 4dbf 2379 8bbf e207 9dbd
00000180: f3f4 f33e b317 353f 8222 493f 1f44 bdbe
00000190: 04ac 29bf fdf7 86bf 80f4 6abf d87b fdbe
000001a0: 2b87 203f 4707 613e 7d5e 273f 47bc 083e
000001b0: 6fda dbbe f0fb 99bf 2307 0fbf 2838 16bf
000001c0: 10f4 083e dfaf 533b 06e2 2c3f 5617 25be
000001d0: 03c3 013f 3a18 b4bf 8f34 3abe 6815 c1bf
000001e0: d8ff fe3d 1f79 3d3e 0f1e da3f 7d28 2b3e
000001f0: 1714 8cbf f91b 1abf 708d 76bf 15fd babe
00000200: 60f2 11bd fe00 783e dc0c c43e 05fe 4a3d
00000210: ee1a 283f 73f7 82be b3af fdbd 2b24 803f
00000220: 8b39 8f3f 9399 153d 766d bebe 7933 a13e
00000230: 9129 00bf 0357 a8be a3e2 943e 31fb 97be
00000240: 074a bfbd 3a09 c2be 50ee 823e cee6 ed3d
00000250: f02b c8be 1c86 d5be 94ed 9ebf 7efc 5dbe
00000260: 28ba b3be 571e 233f 7068 483f 54b9 c1be
00000270: 348c 173f 7d9d 6dbe bc57 e33d 8ccb e53e
00000280: f75c 5d3d 3044 86be c15c fa3e b2f1 0e3f
00000290: c842 693f 9fc2 e83c 3077 063f de7f 063e
000002a0: a764 823e 53a2 4ebd dfb9 983f 7863 123c
000002b0: f3c3 a93d 0bbc 1fbf 0563 233f 6ca5 56bc
000002c0: bb7e 3abf 48b3 07bf 5585 19bd 4f7f de3d
000002d0: 64ae 373d 43c1 313e 24d0 373e a849 783e
000002e0: fc52 82bf 4723 a13e ce20 bd3f 7c3a 1abd
000002f0: 23f6 12bc 1629 aebe 8a7f d0bd cc74 123f

rnn.weight_hh_l1 f4 [24, 8]
0.15292367 0.10704172 0.6007971 0.3845347 -0.29857427 0.29251856 -0.26401123 0.43207967
-0.11137632 0.20194635 0.3168305 0.0653298 -0.31347993 0.08422268 -0.4408007 0.19526792
0.2307752 0.27439323 -0.36492705 -0.10353362 -0.18317999 0.23518546 -0.019768659 0.48758543
-0.0018737689 -0.2191282 0.7720727 0.109914415 -0.33689964 0.5840234 -0.14681154 0.097963504
-0.062095847 -0.08064847 0.6556757 0.242825 -0.097253956 0.59731746 -0.08966239 -0.04611489
0.13170338 -0.2797743 0.2478104 -0.12293914 0.08913854 0.60031945 -0.813664 0.16379097
-0.37503645 0.045612816 0.18467762 -0.05444539 -0.65016615 0.33662534 0.44802612 0.45091078
0.43063286 0.05498937 0.5413335 0.058457866 -0.13189453 0.16719827 -0.41069335 0.5189322
-0.49611428 -0.09842579 0.3258684 0.51503426 -0.543199 0.60306877 -0.6151847 0.7880724
-0.47347447 -0.6220636 0.4146191 0.19704866 -0.9335228 1.6728652 0.1336549 0.69206566
0.31069106 -0.073413596 -0.3713794 -0.2232779 0.0545021 0.10515707 0.063785486 0.24228136
-0.2945733 -0.23534887 1.5683702 0.4151419 -0.5158209 1.5737143 -0.6599685 0.6701909
0.005190201 -0.0492696 0.17001846 -0.04135891 -0.222415 0.4569469 -0.3733644 0.2548238
-0.47447476 -0.3825292 1.5778282 0.07533542 -0.21161905 0.628547 -0.22115397 0.19304553
0.16278477 -0.23236115 0.38745326 0.10683919 -0.8732295 0.27328032 -0.40466186 0.3836188
-0.27214965 -0.28062212 0.23462199 -0.08612444 -0.5391758 0.16466671 -0.25801083 -0.098641455
-0.38516387 0.08513973 0.12974037 0.06913177 -0.12610517 0.10167893 0.17683978 -0.038747925
-0.002299827 -4.5681745e-06 0.1607016 0.040226262 -0.3454339 0.17532592 -0.14691712 0.3601491
-0.018869782 -0.06025894 -0.3632371 -0.03361195 0.011945791 -0.024996212 -0.018365745 0.02033081
-0.22442798 0.16185698 -0.21786931 -0.34551138 0.24149904 -0.099841006 0.046283025 -0.16224341
-0.07183132 -0.07774664 0.111808725 -0.005315055 -0.2690195 -0.09637056 -0.01568738 -0.1704717
-0.06544818 0.036514323 0.021863876 -0.21439895 -0.583722 -0.06546181 -0.13878718 -0.25297397
0.058476955 -0.020650102 -0.055254534 -0.12446675 -0.04401132 0.069372654 -0.361325 0.19104376
0.0759029 0.1830066 0.04694023 -0.1306798 -0.11161388 0.025259146 -0.15157762 -0.16447641
00000000: 0698 1c3e b038 db3d d7cd 193f bbe1 c43e
00000010: bade 98be fec4 953e 7b2c 87be 8c39 dd3e
00000020: 4519 e4bd 06cb 4e3e 9b37 a23e a1cb 853d
00000030: 7180 a0be f17c ac3d a1b0 e1be 50f4 473e
00000040: 5650 6c3e 457d 8c3e b8d7 babe 6f09 d4bd
00000050: 8993 3bbe 75d4 703e e2f1 a1bc cca4 f93e
00000060: 4099 f5ba 2563 60be 8ea6 453f cf1a e13d
00000070: 1c7e acbe 8f82 153f c455 16be 17a1 c83d
00000080: 3758 7ebd 062b a5bd 5dda 273f 1ea7 783e
00000090: 152d c7bd cce9 183f eaa0 b7bd f8e2 3cbd
000000a0: 40dd 063e 943e 8fbe 02c2 7d3e 84c7 fbbd
000000b0: 448e b63d 89ae 193f 494c 50bf d2b8 273e
000000c0: c704 c0be 81d4 3a3d 211c 3d3e 2102 5fbd
000000d0: 4a71 26bf 285a ac3e ae63 e53e c7dd e63e
000000e0: e97b dc3e 893c 613d d594 0a3f 8471 6f3d
000000f0: 5c0f 07be 0636 2b3e 6646 d2be bed8 043f
00000100: b102 febe 7693 c9bd 39d8 a63e 49d9 033f
00000110: 170f 0bbf b762 1a3f bf7c 1dbf 1dbf 493f
00000120: 3f6b f2be 8f3f 1fbf f448 d43e 20c7 493e
00000130: 5afb 6ebf 7220 d63f d5dc 083e 372b 313f
00000140: e612 9f3e de59 96bd 7125 bebe f6a2 64be
00000150: 983d 5f3d 975c d73d f7a1 823d 9b18 783e
00000160: 50d2 96be 4bff 70be 5bc0 c83f 7b8d d43e
00000170: d70c 04bf 786f c93f b2f3 28bf a191 2b3f
00000180: 9012 aa3b ecce 49bd 5219 2e3e f667 29bd
00000190: c2c0 63be f2f4 e93e 9e29 bfbe 4478 823e
000001a0: 5bee f2be deda c3be 46f6 c93f 7549 9a3d
000001b0: aab2 58be 75e8 203f 3076 62be baad 453e
000001c0: 0db1 263e 15f0 6dbe 4660 c63e 81ce da3d
000001d0: f88b 5fbf 66eb 8b3e d72f cfbe af69 c43e
000001e0: 3357 8bbe b4ad 8fbe bf40 703e 0362 b0bd
000001f0: 6d07 0abf 649e 283e ff19 84be 8804 cabd
00000200: 3334 c5be bd5d ae3d a9da 043e f594 8d3d
00000210: b721 01be 0b3d d03d 7d15 353e 25b6 1ebd
00000220: b2b8 16bb 5248 99b6 f68e 243e 4bc4 243d
00000230: b6dc b0be a388 333e 7171 16be 7665 b83e
00000240: cd94 9abc 14d2 76bd 37fa b9be afac 09bd
00000250: 47b8 433c dbc4 ccbc c273 96bc cd8c a63c
00000260: 73d0 65be d6bd 253e 2219 5fbe dee6 b0be
00000270: 864b 773e 7179 ccbd 4593 3d3d 2323 26be
00000280: 4d1c 93bd a139 9fbd f9fb e43d ea29 aebb
00000290: edbc 89be ee5d c5bd d282 80bc 2290 2ebe
000002a0: b209 86bd 0b90 153d df1b b33c 668b 5bbe
000002b0: ce6e 15bf d710 86bd 3a1e 0ebe ce85 81be
000002c0: 8885 6f3d 672a a9bc 9452 62bd 6ce8 febd
000002d0: 3745 34bd 4013 8e3d 97ff b8be faa0 433e
000002e0: fb72 9b3d 1566 3b3e 6644 403d edd0 05be
000002f0: d195 e4bd 45ec ce3c 2a37 1bbe 816c 28be

rnn.bias_ih_l1 f4 [24]
-0.38115752 -0.042783387 -0.30003226 -0.21478604 -0.39459974 -0.40175417 -0.40143892 -0.1580241
-1.4350524 -1.9399685 -1.8837627 -1.97968 -1.5722312 -1.4306306 -2.2527175 -0.94232595
-0.042196088 -0.28645402 0.009867507 -0.07738142 0.18909426 -0.28497633 0.022712888 -0.12965666
00000000: 1427 c3be a23d 2fbd d49d 99be dff0 5bbe
00000010: fa08 cabe b9b2 cdbe 6789 cdbe 12d1 21be
00000020: ccaf b7bf e350 f8bf 231f f1bf 2766 fdbf
00000030: df3e c9bf e71e b7bf 862c 10c0 463c 71bf
00000040: ced5 2cbd 1aaa 92be 53ab 213c 267a 9ebd
00000050: eda1 413e 6be8 91be 6110 ba3c b7c4 04be

rnn.bias_hh_l1 f4 [24]
-0.38115752 -0.042783387 -0.30003226 -0.21478604 -0.39459974 -0.40175417 -0.40143892 -0.1580241
-1.4350524 -1.9399685 -1.8837627 -1.97968 -1.5722312 -1.4306306 -2.2527175 -0.94232595
0.09148713 -0.6753944 0.14924815 0.056675367 -0.1601496 -0.35205886 -0.01778274 -0.23181711
00000000: 1427 c3be a23d 2fbd d49d 99be dff0 5bbe
00000010: fa08 cabe b9b2 cdbe 6789 cdbe 12d1 21be
00000020: ccaf b7bf e350 f8bf 231f f1bf 2766 fdbf
00000030: df3e c9bf e71e b7bf 862c 10c0 463c 71bf
00000040: 9b5d bb3d a6e6 2cbf 82d4 183e 6e24 683d
00000050: 42fe 23be 0f41 b4be 1cad 91bc 7761 6dbe

rnn.weight_ih_l2 f4 [24, 8]
-1.8943837 2.2429364 0.027767688 -1.2650987 -3.1222148 0.15565193 -1.8345456 -1.4340174
1.705927 -0.9484519 0.6593405 0.35826254 1.4309517 -0.39829493 0.6542081 -0.13751541
-0.91919714 0.9661347 -0.21484788 -0.60342556 -0.8645479 -0.5607064 -0.28601134 -1.2936366
2.4146519 -0.22094798 1.2098459 0.8147752 0.52661765 0.3316868 -0.3800736 0.63654774
-0.07229789 0.14896433 -2.5824685 0.6512833 0.86217237 0.50197357 0.6821264 1.1183113
-0.33183557 0.59370816 -1.6925782 -1.7312456 -0.5867448 -2.0637105 -0.11081446 -1.7421103
0.014210254 0.774262 -0.36523852 -0.89380616 1.6985626 0.7230029 -0.03896906 0.28845176
0.11971831 -0.25367668 0.6855291 -0.07113341 -0.0026026655 0.51685363 1.2891918 0.78626883
0.32329905 -1.1689432 0.113159195 1.4663223 -0.17415974 1.6215339 -1.5871843 1.6338642
0.35404283 -0.70049006 3.1724453 -0.31137678 -0.030839832 1.3442723 -1.9595008 -0.3335922
0.08413377 -1.320626 0.30857915 1.3988386 -0.52075404 2.8077745 -1.0272734 1.0414728
-0.29031146 -1.0923381 2.9916403 1.1115776 -0.13604333 3.372934 0.08757989 1.201527
-1.7521652 0.15466018 2.0332963 -0.5405604 -1.4758178 0.74387336 -0.9412252 0.45043847
-0.78227174 -0.31588012 2.2380598 1.1466839 -1.6311074 0.86283416 -0.13075879 0.9901547
-0.39231998 -0.45668933 1.8641512 0.28772792 -0.5864483 -0.63434446 -1.4252529 1.7312361
-2.0669692 -1.5506556 -0.40923068 -0.40043762 -4.259118 1.4201928 0.2563211 0.36492062
0.5742994 -1.0396019 0.11139345 0.20617935 1.8540814 -0.42814478 -0.30824986 1.0732195
-0.8385308 0.52684474 -1.5144129 0.04913498 -0.84219015 0.37427682 0.24676187 0.24856164
0.17969856 0.78257036 0.31790364 -0.67484474 -0.4645658 -0.68087167 0.19367732 -0.5530183
-1.2694201 0.36774164 -0.61440873 -0.5493103 -0.9670334 -0.19693819 0.29234782 -0.025527785
-0.31219655 -0.19081427 -1.5198092 -0.001542347 0.3498214 -0.15252687 0.31415364 0.33820367
0.7580643 -0.27025208 0.62842035 0.5503373 0.2261508 1.6047221 -0.53212005 0.92623615
-0.31495085 -0.46728137 0.059300557 0.4498554 -1.4427933 -0.34817207 0.31680998 0.33050898
-0.00904264 0.061913885 0.19044994 -0.60841066 0.040725112 0.31048203 1.496752 0.12800041
00000000: 2a7b f2bf 458c 0f40 1079 e33c c1ee a1bf
00000010: 5ed2 47c0 3863 1f3e 64d2 eabf e28d b7bf
00000020: d15b da3f becd 72bf 8aca 283f 306e b73e
00000030: 6d29 b73f 50ed cbbe 2f7a 273f d7d0 0cbe
00000040: 8150 6bbf 9b54 773f 1501 5cbe 197a 1abf
00000050: 0353 5dbf 748a 0fbf 1470 92be e295 a5bf
00000060: a889 1a40 3040 62be 3bdc 9a3f 1c95 503f
00000070: 6ad0 063f dad2 a93e 0299 c2be cbf4 223f
00000080: eb10 94bd 1b8a 183e 2a47 25c0 81ba 263f
00000090: 54b7 5c3f 5781 003f d69f 2e3f d324 8f3f
000000a0: 5ae6 a9be 42fd 173f 67a6 d8bf 7599 ddbf
000000b0: e834 16bf d513 04c0 b1f2 e2bd 78fd debf
000000c0: 20d2 683c 0936 463f 8b00 bbbe 7bd0 64bf
000000d0: 806a d93f b816 393f 059e 1fbd f3af 933e
000000e0: e02e f53d e9e1 81be d67e 2f3f 65ae 91bd
000000f0: 7b91 2abb 8550 043f 3d04 a53f ea48 493f
00000100: 7487 a53e ee9f 95bf 02c0 e73d 73b0 bb3f
00000110: ee56 32be 6c8e cf3f db28 cbbf 7622 d13f
00000120: 1a45 b53e 5153 33bf 5809 4b40 c76c 9fbe
00000130: d1a3 fcbc 1d11 ac3f ecd0 fabf 99cc aabe
00000140: 534e ac3d 460a a9bf 16fe 9d3e 250d b33f
00000150: 2350 05bf 94b2 3340 b27d 83bf fb4e 853f
00000160: b4a3 94be bcd1 8bbf 0977 3f40 2d48 8e3f
00000170: f14e 0bbe 27de 5740 165d b33d a3cb 993f
00000180: f346 e0bf 3d5f 1e3e 8721 0240 2b62 0abf
00000190: 99e7 bcbf 7c6e 3e3f 22f4 70bf df9f e63e
000001a0: f642 48bf 0abb a1be 5f3c 0f40 8ac6 923f
000001b0: 21c8 d0bf b3e2 5c3f a2e5 05be c77a 7d3f
000001c0: 2ade c8be 2fd3 e9be 829c ee3f 1351 933e
000001d0: 7a21 16bf 6664 22bf b06e b6bf 2599 dd3f
000001e0: 3949 04c0 e27b c6bf af86 d1be 2906 cdbe
000001f0: b24a 88c0 e1c8 b53f 853c 833e e0d6 ba3e
00000200: 4905 133f ad11 85bf 4022 e43d ae20 533e
00000210: 8a52 ed3f cb35 dbbe edd2 9dbe 425f 893f
00000220: f4a9 56bf 4cdf 063f 48d8 c1bf c341 493d
00000230: c699 57bf 36a1 bf3e 25af 7c3e f186 7e3e
00000240: e602 383e 8856 483f 44c4 a23e a0c2 2cbf
00000250: 92db edbe 9b4d 2ebf 5953 463e 9b92 0dbf
00000260: 5c7c a2bf a248 bc3e e449 1dbf 9a9f 0cbf
00000270: 808f 77bf 2aaa 49be 9dae 953e a51f d1bc
00000280: 3ad8 9fbe d164 43be 1c89 c2bf 9428 caba
00000290: ca1b b33e 0130 1cbe bfd8 a03e 0829 ad3e
000002a0: 8110 423f 7b5e 8abe 28e0 203f e8e2 0c3f
000002b0: 1394 673e 8967 cd3f 0539 08bf d01d 6d3f
000002c0: 3d41 a1be 813f efbe 24e5 723d 7253 e63e
000002d0: 73ad b8bf 9c43 b2be eb34 a23e 7938 a93e
000002e0: 9527 14bc 6a99 7d3d 4f05 433e cdc0 1bbf
000002f0: 60cf 263d 80f7 9e3e 9295 bf3f 8a12 033e

rnn.weight_hh_l2 f4 [24, 8]
0.28201032 0.3386838 -0.20761795 0.15738246 -0.41651297 0.20494269 -0.038791858 -0.42536882
0.24143538 0.5522855 -0.25085726 0.23485494 -0.2234034 0.14286931 0.2983911 -0.51376724
0.14181548 0.4839113 -0.35967788 -0.098609366 -0.5898015 0.18661964 0.07756553 -0.31880695
0.18985002 0.111634865 -0.24562691 0.43422875 -0.26302463 0.09524814 0.057810098 -0.18488681
0.10373122 0.3693506 -0.093833566 0.15201193 -0.56230456 0.35985476 0.06315531 -0.14367536
0.053957384 0.24639481 -0.4208968 0.07357146 -0.35986358 0.6896684 0.27327412 -0.25008887
0.21978308 0.6879471 -0.27540782 -0.028811602 -0.5320615 0.31716454 0.29519522 -0.2826099
0.23640463 0.40254337 -0.41864154 0.17393088 -0.33788908 0.11531923 0.18670264 -0.48824704
0.5492606 0.034231845 -0.23779686 0.24131073 -0.16533917 -0.12707974 -0.014659328 -0.09051321
-0.2878555 0.3298498 -0.41376317 -0.61095357 -0.90568775 0.18489711 -0.16628088 -0.71510714
0.7356668 0.054409996 -1.0630727 0.031859778 -0.103631504 0.24419366 -0.005419326 0.017915612
0.2638349 0.11965623 0.08984323 -0.400496 -0.03944992 0.47113547 0.018694766 -0.11550995
0.21617739 0.11630061 0.015019333 0.36611277 -0.9973459 0.2718577 -0.19200613 0.05595936
-0.38325456 0.17165734 0.44576442 0.04383675 -0.34157398 0.40807933 -0.14473683 -0.3653641
0.19759122 0.47039038 -0.5293087 0.6528371 -0.88102406 0.2555388 0.43245676 -0.52255595
0.27408227 -0.06712247 0.0878585 0.46015745 -0.4296294 -0.07619843 -0.24374129 0.5752049
0.4781492 0.8777581 -0.6468546 0.6981503 -1.17129 0.4730337 0.0063635586 -1.1251236
0.59647673 0.8488511 -0.8137306 0.5353989 -0.35655946 0.36834925 0.42602777 -0.45190898
-0.052831233 -0.3048313 0.2136349 0.15177368 0.191196 0.057263378 0.018988479 0.1431275
0.24613501 0.20359115 -0.16051994 0.4233068 -0.36457556 0.2303731 0.120740764 -0.30651212
0.017917814 -0.4170995 0.22691567 -0.3102052 0.42617956 -0.4918315 0.14613482 0.31356695
0.6341106 0.17488663 -0.5495971 0.008478995 -0.27060056 0.14547089 0.34873953 -0.12095433
0.07397425 0.31373256 0.105321884 -0.029283488 -0.36829272 0.13988902 -0.21398108 -0.01758818
-0.45301762 -0.36706355 0.33634788 -0.1366876 0.26054397 -0.087734096 -0.07704764 0.15286383
00000000: a863 903e f767 ad3e cd99 54be de28 213e
00000010: 3041 d5be 7fdc 513e 36e4 1ebd f1c9 d9be
00000020: d63a 773e 9562 0d3f 5d70 80be d07d 703e
00000030: dcc3 64be 554c 123e b8c6 983e 4086 03bf
00000040: 1438 113e 39c3 f73e b327 b8be b5f3 c9bd
00000050: 3bfd 16bf 3819 3f3e adda 9e3d aa3a a3be
00000060: 0b68 423e d2a0 e43d 9f85 7bbe 3b53 de3e
00000070: 2aab 86be 7511 c33d 48ca 6c3d f852 3dbe
00000080: 0971 d43d 861b bd3e d02b c0bd 04a9 1b3e
00000090: 31f3 0fbf e23e b83e 9257 813d a21f 13be
000000a0: 6b02 5d3d ec4e 7c3e c97f d7be a2ac 963d
000000b0: 0a40 b8be 1c8e 303f 96ea 8b3e a60b 80be
000000c0: d10e 613e 4d1d 303f 4102 8dbe 4f06 ecbc
000000d0: 2f35 08bf 6463 a23e d423 973e 3fb2 90be
000000e0: 0e14 723e 2a1a ce3e 2f58 d6be f01a 323e
000000f0: ccff acbe 7d2c ec3d fa2e 3f3e 84fb f9be
00000100: 589c 0c3f b136 0c3d 0581 73be 291a 773e
00000110: ac4e 29be 3121 02be ae2d 70bc fd5e b9bd
00000120: cc61 93be 13e2 a83e c4d8 d3be 7467 1cbf
00000130: 27db 67bf ab55 3d3e 8945 2abe 4311 37bf
00000140: a954 3c3f 04dd 5e3d c412 88bf 667f 023d
00000150: c13c d4bd e70d 7a3e 9a94 b1bb c3c3 923c
00000160: 5e15 873e 530e f53d baff b73d d00d cdbe
00000170: 3d96 21bd ab38 f13e c425 993c 7b90 ecbd
00000180: 9b5d 5d3e 042f ee3d a613 763c 2273 bb3e
00000190: 1052 7fbf ef30 8b3e 419d 44be a435 653d
000001a0: f139 c4be f1c6 2f3e 3c3b e43e 2a8e 333d
000001b0: c9e2 aebe c6ef d03e e435 14be 0111 bbbe
000001c0: 5a55 4a3e 02d7 f03e c680 07bf 5520 273f
000001d0: cb8a 61bf fbd5 823e f96a dd3e 3ac6 05bf
000001e0: 8354 8c3e 8177 89bd 28ef b33d c299 eb3e
000001f0: 62f8 dbbe ec0d 9cbd 5197 79be a140 133f
00000200: f9cf f43e c1b4 603f 4398 25bf fab9 323f
00000210: d5ec 95bf 7931 f23e 6685 d03b 0d04 90bf
00000220: b3b2 183f 4e4e 593f a650 50bf e70f 093f
00000230: f68e b6be 4698 bc3e 5020 da3e 9d60 e7be
00000240: 9065 58bd d912 9cbe 1bc3 5a3e 8f6a 1b3e
00000250: e2c8 433e 018d 6a3d ba8d 9b3c 0490 123e
00000260: d10a 7c3e 337a 503e 575f 24be abbb d83e
00000270: a6a9 babe ede6 6b3e ef46 f73d 28ef 9cbe
00000280: 61c8 923c 118e d5be 955c 683e 37d3 9ebe
00000290: 3534 da3e 57d1 fbbe 5ea4 153e d98b a03e
000002a0: 1355 223f 7b15 333e 65b2 0cbf 7ceb 0a3c
000002b0: 288c 8abe 52f6 143e fd8d b23e e7b6 f7bd
000002c0: d07f 973d 8ea1 a03e 00b3 d73d ede3 efbc
000002d0: dd90 bcbe 113f 0f3e db1d 5bbe 1615 90bc
000002e0: edf1 e7be c1ef bbbe ca35 ac3e d6f7 0bbe
000002f0: 0566 853e efad b3bd 27cb 9dbd 5688 1c3e

rnn.bias_ih_l2 f4 [24]
-0.45866162 0.07801712 -0.39558113 -0.18089212 -0.4231823 0.07381027 -0.50429916 -0.2685148
-0.5812407 -1.7247337 -0.8607073 -1.3055458 -2.0331213 -1.296664 -1.9292024 -3.9118404
0.06766598 -0.4121318 0.1525108 -0.26317522 0.12786864 -0.08537729 0.20879276 0.22097923
00000000: b2d5 eabe 71c7 9f3d 9c89 cabe c93b 39be
00000010: 5aab d8be d729 973d c019 01bf c67a 89be
00000020: 31cc 14bf 13c4 dcbf 5057 5cbf 201c a7bf
00000030: a91e 02c0 16f9 a5bf 1bf0 f6bf 985b 7ac0
00000040: 7694 8a3d f002 d3be cb2b 1c3e e7be 86be
00000050: ffef 023e 4ada aebd c5cd 553e 6148 623e

rnn.bias_hh_l2 f4 [24]
-0.45866162 0.07801712 -0.39558113 -0.18089212 -0.4231823 0.07381027 -0.50429916 -0.2685148
-0.5812407 -1.7247337 -0.8607073 -1.3055458 -2.0331213 -1.296664 -1.9292024 -3.9118404
-2.0375705 -1.4118677 0.33047444 -0.72698426 0.72527933 -0.8772321 -0.19840012 0.4524273
00000000: b2d5 eabe 71c7 9f3d 9c89 cabe c93b 39be
00000010: 5aab d8be d729 973d c019 01bf c67a 89be
00000020: 31cc 14bf 13c4 dcbf 5057 5cbf 201c a7bf
00000030: a91e 02c0 16f9 a5bf 1bf0 f6bf 985b 7ac0
00000040: 8e67 02c0 15b8 b4bf f233 a93e a41b 3abf
00000050: e8ab 393f 4892 60bf 6729 4bbe 8da4 e73e

fc.weight f4 [8, 8]
-2.0590389 17.335356 0.18721522 9.478064 3.4051063 -0.2958052 5.912594 5.4431033
1.8267763 -0.90382594 -2.4306586 3.2954352 -0.8437102 -1.649197 -0.24557386 3.8234084
-0.32455635 0.81346536 1.9629319 -1.5909826 -4.7784605 2.4076383 2.222027 0.2031247
0.205641 0.077676125 -1.3254167 0.09363147 -2.7587898 -0.09471753 3.8064415 -0.39860815
0.7758059 -0.56307423 -3.3920658 1.5764 -2.2816236 -1.433771 4.03829 -0.9340626
17.187294 -4.6395183 -1.9868581 -6.6352158 -0.5595076 1.4146934 2.108323 3.2522976
-1.7421288 -1.6018189 -21.433147 -3.2710185 1.7509347 13.546897 -0.84983057 2.5863068
2.760052 2.498729 -1.0083805 1.8117328 -8.996547 -0.5537489 -5.1272683 -2.8035183
00000000: 4bc7 03c0 cfae 8a41 59b5 3f3e 26a6 1741
00000010: 43ed 5940 c773 97be f833 bd40 e72d ae40
00000020: ced3 e93f 2361 67bf e98f 1bc0 69e8 5240
00000030: 64fd 57bf e318 d3bf b777 7bbe b9b2 7440
00000040: 402c a6be 443f 503f 5a41 fb3f 51a5 cbbf
00000050: 26e9 98c0 bf16 1a40 b135 0e40 ecff 4f3e
00000060: 8e93 523e a914 9f3d 41a7 a9bf dbc1 bf3d
00000070: 0390 30c0 44fb c1bd bd9c 7340 5e16 ccbe
00000080: 379b 463f a225 10bf 9b17 59c0 7ac7 c93f
00000090: 1f06 12c0 cf85 b7bf ac39 8140 ba1e 6fbf
000000a0: 947f 8941 ef76 94c0 5e51 febf b053 d4c0
000000b0: e43b 0fbf ac14 b53f c4ee 0640 a525 5040
000000c0: 14fe debf 6708 cdbf 1677 abc1 5e58 51c0
000000d0: a11e e03f 17c0 5841 7f8e 59bf 0d86 2540
000000e0: b1a4 3040 2deb 1f40 9d12 81bf dce6 e73f
000000f0: dbf1 0fc1 7dc2 0dbf 9512 a4c0 d86c 33c0

fc.bias f4 [8]
-0.22339256 -0.13963278 -1.9649957 -0.87725335 -0.47137964 4.0474815 1.1474885 -2.5776849
00000000: 05c1 64be e5fb 0ebe fb84 fbbf ad93 60bf
00000010: ac58 f1be f884 8140 e7e0 923f caf8 24c0
