output/TimeGAN/dapt_v6/train/weights/netR.pth (torch, 16255 bytes, 14 tensors)

rnn.weight_ih_l0 f4 [18, 150]
000000 2c 97 04 3e cb e0 7b bb eb 4b 44 be ea 23 8e 3c
       0.12948292 -0.0038433548 -0.19169585 0.01735111
000010 3d ba 26 be 91 f9 10 3e b5 45 eb 3d b4 83 39 be
       -0.16281982 0.14157702 0.11487905 -0.18116647
000020 0d 79 85 3d b9 17 72 bc 8e 73 b0 bd bf 73 9c 3c
       0.06517229 -0.014776164 -0.0861579 0.01909816
000030 bc ce e5 bd a9 4e 8f bc 2b 12 e7 3d 35 e2 01 3e
       -0.11221072 -0.017493563 0.11282762 0.12683947
000040 6d 67 31 be 54 0e e4 3d c4 dc e9 bc 67 1c 17 be
       -0.1732461 0.111355454 -0.028547652 -0.14756928
000050 80 66 af 3d 22 c9 24 3e 10 34 13 be fb 8b d1 3c
       0.08564472 0.16092351 -0.14375329 0.025579443
000060 0d b7 a0 3c 9c 08 34 be be c7 91 bb d3 84 14 bc
       0.019618535 -0.17581409 -0.00444886 -0.009064871
000070 40 8d 7f 3d 4a df 8e 3d 20 2a 3c 3e aa 93 a5 bd
       0.062390566 0.06976183 0.18375444 -0.08084805
000080 bd 0e 04 3e 3d 0a 72 bb 91 4c 0f bc 65 01 0b 3d
       0.12896247 -0.0036932372 -0.008746282 0.033936877
000090 02 94 28 bd 1c ef d5 bb c1 e0 a0 bd 9a 32 88 bc
       -0.041156776 -0.006528748 -0.078553684 -0.016625691
0000a0 ce fd a8 3b 0e 2f 48 3d 71 c9 2b 3e a4 fb 2c 3d
       0.005157209 0.048873 0.16776063 0.04223217
0000b0 5f 4b 09 bd f5 de 10 3e 82 74 00 bc a7 81 73 3c
       -0.033519145 0.14147551 -0.007840278 0.0148624545
0000c0 5a c3 24 3d 07 a7 bc bd 68 b2 9e bb ff fc 51 3d
       0.040225364 -0.092115454 -0.004843045 0.051266667
0000d0 54 7b 16 3e 25 78 cd bd 81 a1 11 bd 32 f5 1c be
       0.14695483 -0.100326814 -0.035554413 -0.1532791
0000e0 d1 d9 f9 3d 1e 48 29 3e 45 ac 77 bd a3 88 29 be
       0.12199748 0.16531417 -0.060467023 -0.16556029
0000f0 c6 3b ec 3d 8d 0a 35 3d b5 94 1c 3e f1 51 00 be
       0.115348384 0.044199515 0.15291102 -0.12531258
000100 e7 f4 e4 3d 6d 7b 19 be e0 0c dd 3d 1d 2c 20 be
       0.11179524 -0.1498849 0.10793471 -0.15641828
000110 9c 78 e4 3b ff b3 1b 3e ac 49 2f bd 10 1c 92 bd
       0.0069723856 0.15205382 -0.04279487 -0.07134259
000120 af a6 16 3e d2 3f 73 bd d4 bb 93 bb c1 ce 0a be
       0.14712022 -0.059387036 -0.004508475 -0.13555433
000130 99 58 bb 3d 02 93 0d 3e fc 77 59 bb c3 b3 37 bd
       0.09147758 0.1382561 -0.0033183089 -0.04484917
000140 05 22 2c be e8 8c 3a 3e 95 80 27 bd 63 7f dc bb
       -0.16809852 0.18217814 -0.04089411 -0.006729053
000150 99 4b b1 3d 64 a3 ee 3c 42 c8 43 3d de cb 23 3d
       0.08656997 0.029130645 0.047798403 0.039989345
000160 a3 41 cf 3d 8e f8 f3 3d e1 df 80 3d ed c5 8c bd
       0.10119941 0.119126424 0.062927015 -0.06873689
000170 e7 24 1f 3e 02 6b 02 bd a5 0c 01 bd 8c ec 33 be
       0.15541421 -0.03184033 -0.0315062 -0.17570704
000180 aa 30 d8 3d a9 f9 bf 3d e6 ba 0d bb 67 e6 db 3c
       0.10556157 0.09373791 -0.0021626293 0.026843263
000190 a2 f8 15 3e 68 cb 25 bd 49 0d 40 be 27 e2 11 be
       0.14645627 -0.040477186 -0.18755068 -0.14246427
0001a0 87 e1 47 3e 52 a5 2a 3d 05 f8 00 be 03 21 1a 3e
       0.19519626 0.041661568 -0.12594612 0.15051655
0001b0 78 62 f3 3d ef 16 18 be de 09 38 3d c9 0b a2 3d
       0.11884016 -0.14852498 0.044931285 0.07912404
0001c0 b6 34 0b 3e 2c 0b 27 bd c1 9a 0c 3e 65 b1 10 3e
       0.13594326 -0.04078214 0.13730909 0.1413017
0001d0 3b 6c 00 bd cc e2 6e 3d ce ca cc bd 7b 64 4b 3e
       -0.031353217 0.05832176 -0.099996194 0.19862549
0001e0 43 d1 c2 3d 12 02 c2 bd c7 8d c0 3d 66 d8 b8 3d
       0.0951257 -0.09473051 0.09402042 0.0902565
0001f0 e1 ff 29 3d f2 7a 1b 3e e5 9f 45 be 1f 5f dd 3d
       0.04150379 0.15183619 -0.19299276 0.108091585
000200 f0 6e 90 bd a6 dc 13 3e 5f c3 69 3d 67 80 c7 bd
       -0.0705241 0.1443964 0.057071086 -0.09741288
000210 69 36 07 be dc 55 6b 3d a0 ea c4 bd 3d 73 25 3d
       -0.1320435 0.05745493 -0.09615064 0.040393103
000220 a8 bc 25 bd 91 19 10 3e 86 fd ec 3d fb e1 f4 bd
       -0.04046312 0.14072253 0.11571793 -0.11957165
000230 9c 04 2d be f2 3b 35 3e 9a 2a ef 3d 39 af 12 3d
       -0.1689629 0.17698649 0.116780475 0.035811637
000240 c5 c4 1a be 09 15 a1 bc 28 10 28 3e 0a 65 a9 3d
       -0.15114124 -0.01966335 0.16412413 0.08271225
000250 89 2e 15 3d ea 10 6a bd eb 9e 27 3e fb ae bd 3c
       0.036421333 -0.057145037 0.16369216 0.023154726
000260 d3 42 46 3e d6 61 7c bd 32 f3 1b bd 4b 2f 84 bc
       0.19361429 -0.06161674 -0.038073726 -0.016135832
000270 ae ae ea bd 0b b5 d9 3d 92 03 20 be 75 38 23 3d
       -0.11459099 0.10630234 -0.15626362 0.039848763
000280 e8 86 2e 3e d6 a4 f5 3d 67 8b b1 bd 18 d1 2d be
       0.1704365 0.119943306 -0.08669167 -0.16974294
000290 7c f4 45 be 7b 30 03 3d af df f3 bd 1e 97 20 bc
       -0.19331545 0.032028656 -0.11907899 -0.009801654
0002a0 4f e6 65 3c ba 62 1e 3e 03 24 fd 3d a1 48 41 be
       0.014031961 0.15467349 0.12360384 -0.18875362
0002b0 44 41 1f 3e 68 85 25 be e8 58 0e 3e f8 57 bb 3d
       0.1555224 -0.16164172 0.13901103 0.09147638
0002c0 fb 57 09 be 7c 41 91 bd d2 b1 1d 3e 20 74 cf bd
       -0.13412468 -0.07092568 0.15399864 -0.10129571
0002d0 04 67 07 bd 1f 51 48 be a7 db 0a be e2 81 6b 3c
       -0.033057228 -0.19562195 -0.13560353 0.014374228
0002e0 87 16 3d 3d 0b 2d 08 be 9d 87 26 3e cc 16 f2 bd
       0.046164062 -0.13298433 0.1626267 -0.118207544
0002f0 e4 86 a5 bd a9 7f 9f bc a0 41 0f 3e be e9 9f bd
       -0.08082369 -0.019470053 0.13989878 -0.07808255
000300 7f ce 9d 3d 96 1d 85 3d f7 f8 35 3d 4d 22 b9 3c
       0.07705402 0.06499784 0.044426885 0.022599364
000310 90 aa 08 3e 9a 48 26 3e 8c c0 d6 bc 88 bc 47 be
       0.13346314 0.16238633 -0.02621486 -0.19505513
000320 70 d7 5d bc 5c bb d5 bd 25 2f aa 3c c3 b7 32 bc
       -0.013540134 -0.104361266 0.020774433 -0.01090807
000330 b8 fa 7c ba dc 7e 99 3d 3a 62 2c 3e 84 53 63 bd
       -0.0009650397 0.074949 0.16834345 -0.05549957
000340 90 1d 28 ba 77 b4 eb 3d 47 27 2e 3e ac 31 07 3e
       -0.00064130966 0.1150903 0.1700717 0.13202542
000350 d0 d5 4a bd 01 57 b8 bb 53 ca 89 bd b2 d9 27 be
       -0.049520314 -0.005625606 -0.067280434 -0.16391638
000360 b9 65 dc 3d 3b 6f d9 3b bd 22 1b 3e a8 e3 09 3e
       0.107615896 0.006635574 0.1514997 0.1346575
000370 61 c3 48 3e 39 45 46 bc c7 f4 0f be bc 1d 19 be
       0.19605781 -0.012101465 -0.14058219 -0.14952749
000380 17 d4 0d 3b 09 3d 5d bd 5b bc 03 be a1 1e 47 3d
       0.0021641308 -0.054013286 -0.1286482 0.048613194
000390 0c 93 a5 bc 3e 2d 0f be 36 39 01 be ee 70 d1 3c
       -0.020211719 -0.13982102 -0.1261948 0.025566544
0003a0 e3 08 ea bc 72 d0 73 bd a5 da c3 3c 4a ab 48 be
       -0.02856869 -0.05952496 0.023907969 -0.19596592
0003b0 d4 70 f0 bc ae 59 8c bd 9e 9c 1a 3e c3 7d 15 be
       -0.029350676 -0.068530425 0.15098807 -0.14598756
0003c0 87 44 0f be f9 4c 9d bd 92 57 f9 3d 7c fc 01 be
       -0.13990985 -0.07680697 0.12174906 -0.12693971
0003d0 08 6b 8f 3d 1e 16 be bc 64 0a 23 bd 58 61 a0 3d
       0.070028365 -0.023203906 -0.03980483 0.07831067
0003e0 e4 8a bb 3d bd 07 d4 bd 0f 55 49 3d 49 6b e5 3d
       0.09157351 -0.103530385 0.049153384 0.11202104
0003f0 7e 84 4d 3e bc 0e 98 bc de c9 d3 bd 48 37 0b 3e
       0.20070073 -0.018561713 -0.103412375 0.13595307

rnn.weight_hh_l0 f4 [18, 6]
000000 07 9e 89 bd 2a d6 34 3e be b8 fd bd f2 8b 1b bd
       -0.067195944 0.17659822 -0.123887524 -0.03797526
000010 cf c4 cc bd 75 f5 70 be 36 68 65 be 9a 3a f1 bd
       -0.09998476 -0.23531134 -0.22403035 -0.117787555
000020 0c 5c ab be 4d 54 71 3e aa 23 eb bd 1a 3e 0c 3f
       -0.33468664 0.23567314 -0.11481412 0.5478226
000030 2e 7d 2a bf 6b c4 42 3e 1a 47 17 3e b6 20 96 be
       -0.6659726 0.1902024 0.14773217 -0.2932183
000040 23 09 f8 bd b1 d5 43 be 34 8e 4b 3d b3 ad fa 3d
       -0.12111118 -0.19124486 0.049696162 0.12240162
000050 af 24 b7 3e a6 2f 42 3e 0e c8 9d be c9 1c 75 bc
       0.35770175 0.18963489 -0.30816692 -0.014960476
000060 fb 75 91 3d 6e 50 ba be 41 09 ac be 1f 0f 0a bf
       0.07102581 -0.36389488 -0.3360081 -0.5392932
000070 1e 24 00 be 99 26 12 be 47 eb 06 3e b7 ce c0 3e
       -0.12513778 -0.14272536 0.13175689 0.3765771
000080 e0 cc 49 be 6d 64 24 3e 47 bd 07 3f 01 5c b8 bd
       -0.1970706 0.16053934 0.5302319 -0.09001923
000090 ed 5e 82 3e f2 cb 12 be 74 7d d1 bc 1d d5 51 3d
       0.25463048 -0.14335611 -0.025572516 0.05122863
0000a0 15 79 0d 3e 52 2d 9a be 87 b2 b9 bd 2a a5 b3 3e
       0.1381572 -0.30112702 -0.090672545 0.35086948
0000b0 51 cc ef 3d 2f e7 81 bd f8 54 68 bc 7e e8 33 3c
       0.11708892 -0.06342923 -0.014180414 0.010980723
0000c0 c8 dd 16 3e 43 5e 41 be d9 16 88 3e 51 cf ec bc
       0.1473304 -0.18883614 0.2657993 -0.02890745
0000d0 d2 0f ec bd cf 1c ec bd 9d 09 9a be a4 13 7e be
       -0.11526455 -0.11528932 -0.3008546 -0.2481218
0000e0 63 05 2f 3d 98 39 e9 bd 67 96 c9 3e 68 9b 8e bd
       0.042729747 -0.11387938 0.3937256 -0.06963235
0000f0 18 61 88 3d 76 c1 55 be d8 11 83 3d 62 ab 45 3e
       0.06659144 -0.2087458 0.06399888 0.19303659
000100 5a a1 d5 be 8e ba 8f be c3 7a 10 bd 64 55 56 3e
       -0.41724664 -0.28072017 -0.035273325 0.20931011
000110 ee 25 8f 3e 6b 22 82 3d 4a d8 7c be 37 aa 14 3e
       0.27958626 0.06354221 -0.24691883 0.14518057
000120 43 cc 48 bc 35 1e 87 be 31 c8 fd 3e 20 35 91 3e
       -0.012255731 -0.26390234 0.49566796 0.28360844
000130 46 67 35 3e 7b 9e 6a bd aa be c0 be a0 80 55 be
       0.17715177 -0.057280045 -0.37645465 -0.20849848
000140 34 54 da bd c5 7e e8 3e 22 49 31 3e 36 b3 9b be
       -0.10660592 0.45409217 0.17313054 -0.30410165
000150 78 44 78 3e 13 dd 29 3e 0a b6 1e be 77 7d 07 39
       0.24244869 0.1658824 -0.1549913 0.00012921343
000160 c1 ee 8d bd 90 0a ad be 91 43 8c bc eb a0 a6 be
       -0.06930304 -0.3379712 -0.017122062 -0.32544646
000170 8e 7b 88 3d 7d fe d9 bd 4f 0f aa 3d 95 55 94 3e
       0.06664191 -0.10644243 0.08303701 0.28971544
000180 69 c2 68 be ef 92 b7 3d 85 de fe 3a 74 a1 94 be
       -0.22730412 0.08963572 0.0019444978 -0.2902943
000190 b2 d0 04 3e 0f cc f8 bd 65 f7 35 be ca e8 85 3c
       0.12970236 -0.12148296 -0.17770155 0.016346354
0001a0 ae f4 d0 be 89 33 af 3e 58 42 9d be e5 8f 0e be
       -0.40811676 0.34219006 -0.3071468 -0.13922079

rnn.bias_ih_l0 f4 [18]
000000 f2 39 05 3c b7 13 4e bc 45 41 44 3c 55 ea 39 bc
       0.008131491 -0.012577943 0.011978452 -0.011347373
000010 9d 85 43 3c 60 92 46 3c bd 24 2b be 1a cd 26 be
       0.011933711 0.012119859 -0.16713233 -0.16289178
000020 57 d3 20 be 4b d0 e6 bd f1 e7 35 be b4 20 27 be
       -0.1570562 -0.112701975 -0.1776426 -0.16321069
000030 28 4d 59 bc c7 48 6b bc e8 fe 55 bc 62 eb 5d bc
       -0.013263024 -0.014360613 -0.013061263 -0.013544889
000040 1b 0a 76 3c d5 1e 60 bc
       0.015017058 -0.013679226

rnn.bias_hh_l0 f4 [18]
000000 f2 39 05 3c b7 13 4e bc 45 41 44 3c 55 ea 39 bc
       0.008131491 -0.012577943 0.011978452 -0.011347373
000010 9d 85 43 3c 60 92 46 3c bd 24 2b be 1a cd 26 be
       0.011933711 0.012119859 -0.16713233 -0.16289178
000020 57 d3 20 be 4b d0 e6 bd f1 e7 35 be b4 20 27 be
       -0.1570562 -0.112701975 -0.1776426 -0.16321069
000030 47 0f 58 bc 02 2f 62 bc e9 ef 57 bc 54 62 46 bc
       -0.013187236 -0.013805153 -0.013179758 -0.012108404
000040 b3 9a 78 3c 11 27 66 bc
       0.015173602 -0.0140474

rnn.weight_ih_l1 f4 [18, 6]
000000 9b 46 ff 3e a0 90 58 be 97 51 36 be 2b 6a a8 3e
       0.49858555 -0.2114892 -0.17804562 0.328935
000010 83 dc 19 bf de 9b c7 3e db 64 2c be 1a b1 a1 be
       -0.601021 0.38986105 -0.16835348 -0.3158043
000020 58 2c b0 3d 6f b4 14 be c3 d3 1c 3d 72 80 e6 be
       0.08602208 -0.14521955 0.03828789 -0.4501987
000030 3f 1e 82 3e 75 dd 9a be 07 4f 2c 3d ab b6 e0 be
       0.254137 -0.30247083 0.042067554 -0.43889365
000040 43 95 96 3e 32 89 de 3e 9a 3d 2e be 5d fa 50 be
       0.29410753 0.43464047 -0.17015687 -0.20408006
000050 d2 f1 e0 be 0e a5 08 bf a8 85 0b 3f ee ae 13 bf
       -0.43934494 -0.53376853 0.5450082 -0.57688797
000060 58 41 d9 be db 76 8c 3e c2 40 95 3e 6a ea e2 be
       -0.42432666 0.2743443 0.2915097 -0.4431947
000070 5c c3 d2 bd c3 ae 7a 3d fb c6 0c bc 7c 5a 2d 3e
       -0.10291168 0.061201822 -0.0085923625 0.16929048
000080 c8 1a 01 3f 65 14 8f be dd 2c 68 3d 21 24 72 3e
       0.5043149 -0.27945247 0.05668341 0.23646595
000090 b0 fa fe 3d 0f e9 39 bd 5f 0d 1d bb 04 7e 89 bd
       0.124501586 -0.045388278 -0.0023964269 -0.06713489
0000a0 5a 72 19 bf ce 88 15 3f d8 24 64 3e f1 24 f9 bb
       -0.5994011 0.5841187 0.2227968 -0.0076032807
0000b0 9f 92 27 be ed 9e 85 be c0 bb dd be 9e 18 b3 be
       -0.16364525 -0.26097813 -0.43307304 -0.3497972
0000c0 37 8f 28 3f 10 44 a0 bd 28 00 fd 3d 27 ce 8e 3d
       0.6584353 -0.07825482 0.123535454 0.06972914
0000d0 fe c8 0a be 96 b0 08 bc 78 66 79 be 76 1c 75 bd
       -0.13553235 -0.008342883 -0.24355495 -0.059841596
0000e0 60 65 b9 3d 6c 44 69 3e de ec dd 3e 1d fa 61 be
       0.09052539 0.22780007 0.43344778 -0.22068067
0000f0 28 86 27 3e c7 8c c8 3e da 8a 62 bd 08 74 d9 3d
       0.1635977 0.39169905 -0.0553082 0.10617834
000100 d9 a9 3e 3e 3a 7c 1e 3c 8f 28 a4 3c 36 06 29 3f
       0.18619479 0.009673173 0.020038871 0.660251
000110 da 4a a1 3d 31 5b 9d 3d 13 7b ea be 1e 60 b8 bd
       0.07875605 0.07683409 -0.45797023 -0.09002708
000120 aa bd 44 3e 07 52 75 be d0 83 9a be 7b dc 0e bf
       0.19212976 -0.23957072 -0.3017869 -0.55805176
000130 b9 57 6c 3e e0 c5 07 bf 69 67 1e bf be a9 56 be
       0.23080339 -0.5303631 -0.6187654 -0.20963189
000140 de 68 8c 3e 69 0b 11 bf c3 cb 21 be fd 93 78 be
       0.27423757 -0.56658036 -0.15800385 -0.24275203
000150 da f1 2b be 34 50 f4 be 59 53 4f be ad 17 f2 be
       -0.16791478 -0.4771744 -0.20246638 -0.47283688
000160 5e 41 a5 3e b7 80 3e 3e 9f 94 a9 3e 80 39 43 3e
       0.32276434 0.18603788 0.331212 0.19064903
000170 b7 4b 25 3e a4 81 c4 bd 04 b7 fb bc b4 6f c7 3d
       0.16142164 -0.095950395 -0.030726917 0.097381026
000180 19 48 5d 3e aa e3 e8 3d dd 21 dd 3e cd 58 f3 3e
       0.21609534 0.113715485 0.43189898 0.47528687
000190 6e df a2 bd 99 0c 4f 3e 11 ad 11 be f7 c6 1a bf
       -0.07952772 0.2021965 -0.14226176 -0.60459846
0001a0 8b 0b 64 be 77 e3 85 bc 7b 37 e8 3e cf 46 9c be
       -0.22270028 -0.016343815 0.45354828 -0.30522773

rnn.weight_hh_l1 f4 [18, 6]
000000 7a 8a 03 bf 84 ca b4 be 39 01 19 be 67 88 d8 bb
       -0.51383173 -0.35310757 -0.14941873 -0.0066080573
000010 a4 12 66 bd a1 c9 ba bc a3 35 aa 3c a1 1b 05 3d
       -0.05617012 -0.022801222 0.02077753 0.032497052
000020 34 ca f6 3d bd 7d b3 3d 90 00 94 bd c2 b0 b0 3d
       0.12050286 0.08764217 -0.0722667 0.08627464
000030 fc a2 75 be 7c dd ba 3e e5 bd 62 be 70 38 04 3f
       -0.23987955 0.36497104 -0.22142752 0.51648617
000040 1d f0 31 3d c4 f0 51 be 30 66 80 3e 57 23 1e bd
       0.04344188 -0.20502001 0.25077963 -0.03860792
000050 a8 51 a3 3e 28 0a 74 be 67 a1 b6 be ff 89 c0 be
       0.31898236 -0.23832 -0.35670015 -0.37605283
000060 c7 92 5c 3e e9 68 08 3f f0 2e b4 3e f6 bd 2a be
       0.21540366 0.5328508 0.3519206 -0.16674027
000070 80 82 23 be ea c7 7b 3d eb 55 ac be 89 d9 05 3e
       -0.1596775 0.06146995 -0.336593 0.13071264
000080 bc a0 50 3e 61 94 0e be c0 d0 81 3e 8f ce a8 be
       0.20373815 -0.1392379 0.25354576 -0.32970092
000090 a7 05 9a bd ac cd 52 3d a1 c6 5d 3d 19 72 ef bd
       -0.07520609 0.051465675 0.054144505 -0.11691684
0000a0 13 ca 7a 3e d4 15 53 3e 7b 27 1e be 11 e9 dd 3e
       0.24491148 0.20613796 -0.15444748 0.43341878
0000b0 4e 56 cf be c6 0d 69 be d6 62 2e be 3b 82 1b be
       -0.40495533 -0.2275916 -0.1702989 -0.15186398
0000c0 43 d0 c7 3d bb a9 98 be 80 c9 fc be 28 0d e5 bd
       0.0975652 -0.29816994 -0.49372482 -0.1118415
0000d0 c8 93 28 3e 48 b7 a5 be 9f 23 69 3d 9e 9c 06 3e
       0.16462624 -0.32366395 0.056918737 0.13145682
0000e0 40 15 ba bd d4 1f 28 3e 81 d8 44 bc dc de fa 3e
       -0.09086084 0.16418391 -0.012014509 0.48998153
0000f0 c6 47 e6 be e0 3e ad 3d 5f 13 aa be 1d b1 07 3c
       -0.44976634 0.08459258 -0.33217904 0.008281973
000100 7d 6e 91 bc 5c b0 80 be 6a cf db be c1 14 9c be
       -0.01775288 -0.25134552 -0.42931682 -0.30484584
000110 43 0c f8 be 19 40 8a be 13 67 97 3e 10 b7 96 3d
       -0.48446855 -0.27002028 0.29570827 0.07359135
000120 8a cf 24 be 7b 73 5b be 40 b2 a3 3d 10 aa 8c bd
       -0.16094795 -0.21430771 0.07992983 -0.06868374
000130 5a 44 09 3d 08 a9 d0 3b b9 ea 98 3e 2a 71 41 3e
       0.03351245 0.0063678063 0.2986658 0.18890825
000140 aa b4 c3 3e 74 c1 23 be 0b bc ea 3d 23 a7 be 3e
       0.38223773 -0.15991765 0.114616476 0.3723689
000150 50 49 92 3d e0 95 3b 3e 5f d4 e3 3e 68 b6 66 3e
       0.071428895 0.18318892 0.44497964 0.2253052
000160 b1 87 22 3e 02 03 09 be e3 94 68 bd 69 55 c2 3d
       0.15872075 -0.13380054 -0.056782614 0.09488947
000170 49 db d1 3e ca e9 ea be 9d 2b b4 be 9d 3e cf 3d
       0.40987614 -0.45881492 -0.35189524 0.101193644
000180 5e 61 ff be 93 39 a0 bc 9f 44 7f bd 8b 7e fb bd
       -0.49878973 -0.019558704 -0.0623213 -0.122799955
000190 a2 6d 28 3f 93 84 fa bd b7 55 06 3f c6 c7 2e 3e
       0.65792286 -0.12232318 0.5247454 0.17068395
0001a0 31 4d 4a be 3c 98 87 be 27 da c4 3e ac d0 19 be
       -0.19756009 -0.26483333 0.38447687 -0.15021008

rnn.bias_ih_l1 f4 [18]
000000 b9 fa 00 be 55 43 35 3e 76 3d 97 3b e7 30 ee 3d
       -0.12595643 0.17701466 0.004615481 0.11630421
000010 df 4c e0 3d 19 a0 5f bd 3f 82 63 be 0e 8f 1c be
       0.10952162 -0.05459604 -0.22217654 -0.15288946
000020 9f 5a 64 be bc 0d 61 3d 55 bf 44 be d7 36 56 be
       -0.22300194 0.05494474 -0.19213612 -0.20919357
000030 d8 94 2a 3e b6 45 9c 3d f6 a6 d0 3d b8 82 02 3e
       0.16658342 0.07630484 0.10188095 0.12745178
000040 f1 80 2c bd a3 4f 86 3d
       -0.042115156 0.06558158

rnn.bias_hh_l1 f4 [18]
000000 b9 fa 00 be 55 43 35 3e 76 3d 97 3b e7 30 ee 3d
       -0.12595643 0.17701466 0.004615481 0.11630421
000010 df 4c e0 3d 19 a0 5f bd 3f 82 63 be 0e 8f 1c be
       0.10952162 -0.05459604 -0.22217654 -0.15288946
000020 9f 5a 64 be bc 0d 61 3d 55 bf 44 be d7 36 56 be
       -0.22300194 0.05494474 -0.19213612 -0.20919357
000030 00 84 ef 3d 85 11 be 3d d8 3b c4 3d e6 23 07 3e
       0.11695099 0.09280685 0.09581727 0.13197288
000040 9d 03 4a bd 46 c6 3d 3d
       -0.049319852 0.046331666

rnn.weight_ih_l2 f4 [18, 6]
000000 85 66 e8 be e7 f4 04 bf 84 3d d3 be 47 90 25 be
       -0.45390716 -0.5193619 -0.4125787 -0.16168319
000010 6a 8f 55 3e d8 0c 6f 3d 21 21 e6 3e 1f 29 03 3e
       0.2085549 0.058361858 0.4494715 0.12808655
000020 a5 fb d4 3b 86 d5 5a be ee 7e ff be f5 a8 17 3c
       0.006499725 -0.21370515 -0.49901527 0.009256591
000030 a7 27 88 3e 2c bd ff 3e f6 ce 2e 3f a6 65 1c bd
       0.26592752 0.49949014 0.6828455 -0.038182877
000040 07 07 b1 3c df d5 69 bd 66 f9 a2 be f4 05 00 be
       0.021609796 -0.05708873 -0.318309 -0.12502271
000050 d7 87 c8 be 58 24 8f 3e 0e 29 6c be ad 32 9c 3e
       -0.39166138 0.27957416 -0.23062536 0.30507413
000060 45 c9 85 be b5 de 8c be bc a7 a1 3e 1c 81 d0 3d
       -0.2613012 -0.27513662 0.31573284 0.10180876
000070 90 08 b2 3e a5 9c 58 bd 60 a6 cd 3e 7a 49 de 3e
       0.34772158 -0.052883763 0.40165997 0.43415433
000080 e4 45 cb 3d 66 bb e5 be 2c 32 83 be a5 72 e2 bd
       0.0992544 -0.44869536 -0.25624216 -0.11057023
000090 5f 17 02 3e d3 de 4d 3d 59 56 62 be c6 2a 95 bd
       0.12704228 0.05026133 -0.22103252 -0.07283549
0000a0 01 db e1 bd b7 f8 2a bd e9 a9 aa bd 7b 51 eb bd
       -0.110281 -0.0417411 -0.08333189 -0.114901505
0000b0 f0 b6 65 be fa c8 af bc 22 bd a2 be 18 8a 05 bf
       -0.22433066 -0.021458138 -0.31784922 -0.5216384
0000c0 4d fd f9 be b4 6d e3 be 56 30 7b be ba df 9c 3e
       -0.48826066 -0.44419634 -0.24530157 0.3063944
0000d0 17 01 1e 3f b8 15 6d be a2 78 40 be 5b 46 05 bf
       0.6172041 -0.23152816 -0.18796018 -0.5206048
0000e0 91 9c c4 be f8 26 13 3f 23 eb 25 3e d8 01 15 be
       -0.384007 0.57481337 0.16202979 -0.14551485
0000f0 8f 0f 91 bd cf 7a 72 3d ce 51 e8 3e bd 65 9c 3e
       -0.07083046 0.05919915 0.45374912 0.3054637
000100 fe f8 b4 bd 88 e0 e0 3e 03 91 b9 3d 9a 76 81 3e
       -0.08836554 0.43921304 0.09060862 0.25285798
000110 44 9a 9b 3e a2 c5 a7 3e 87 64 17 bc e4 fa bf be
       0.30391133 0.3276797 -0.009240276 -0.37496102
000120 e7 18 57 be a9 ae c5 be f7 fd ee 3d 27 4d 50 be
       -0.21005593 -0.38609818 0.11669534 -0.20341931
000130 ab e4 2d 3f a4 e8 44 be ce f7 2e bf b9 39 13 bf
       0.67927045 -0.1922937 -0.6834687 -0.5750995
000140 de 19 0a 3d 4f 34 8d 3e 1b fe 20 3f b9 32 7c 3d
       0.033716075 0.2757897 0.62887734 0.06157181
000150 06 a5 9f 3d 74 62 87 3e fe 71 c5 3e f0 65 28 3d
       0.077951476 0.264423 0.38563532 0.04111284
000160 ec 23 c5 be 42 51 1a 3f c1 60 fc bd 8b b6 1f 3e
       -0.3850397 0.6028024 -0.12323142 0.15596978
000170 53 48 af be 83 20 a1 3e c4 dc bb 3e 77 8b e8 be
       -0.34234866 0.31470117 0.36691868 -0.45418903
000180 9d 0e 67 3d 4c d2 ab be 32 86 bd 3e 6c f2 8f 3e
       0.05641042 -0.3355888 0.37016445 0.2811464
000190 9c d0 3f 3c 92 d3 61 3e 3b 1f 9a 3e ff 0f 72 be
       0.011707451 0.22053364 0.30101952 -0.23638915
0001a0 5d 04 0c 3e ba 8a 23 3e 4b aa f4 3d d8 ca 14 3e
       0.1367354 0.15970889 0.11946543 0.14530504

rnn.weight_hh_l2 f4 [18, 6]
000000 9e 71 1f 3f 48 33 99 3e 73 e0 2a 3e e7 00 79 3e
       0.6228274 0.29921937 0.16687183 0.2431675
000010 48 f5 9b be df 70 94 3d 0c 86 0a 3f e6 b5 c0 be
       -0.30460572 0.07248091 0.5411079 -0.37638777
000020 e5 00 a7 3d 3d 5b aa bd 70 b1 43 3e 68 92 0d be
       0.081544675 -0.083181836 0.19110656 -0.13825381
000030 85 2c a5 bc 8d b5 e0 bd 57 50 66 3d e9 a1 04 be
       -0.02016283 -0.10972128 0.05622896 -0.12952389
000040 3a 00 91 3e c4 a5 be 3c e7 50 88 be b7 b5 11 bd
       0.28320485 0.023272403 -0.26624224 -0.035573687
000050 28 bf aa 3c 51 cc 1d 3e 7d 88 12 be ea 94 ea 3e
       0.020843104 0.15409972 -0.14309879 0.45816737
000060 33 38 51 3e 47 16 38 bd 6c 54 47 3e c7 2a f5 bd
       0.20431595 -0.04494312 0.19465798 -0.1197105
000070 8b 8b 4d 3e 7d 39 c6 3d 8b 4b 18 be 9e d3 a1 bb
       0.20072763 0.09678934 -0.14872567 -0.004938557
000080 7e 0f af 3e ba cc 3c 3e a8 d5 17 3f 47 8d 15 be
       0.34191507 0.18437472 0.5931039 -0.14604674
000090 ea f3 24 3e c9 79 dd 3e 62 af da 3c 23 47 30 be
       0.16108671 0.43256977 0.026694957 -0.17214637
0000a0 32 dd ca be 0f b5 59 be 62 61 00 bc a8 9a a3 3e
       -0.39621884 -0.21260475 -0.007835718 0.3195393
0000b0 70 50 83 be 4e 76 a7 3e 61 f6 13 be 66 81 e9 be
       -0.25647306 0.32707447 -0.14449455 -0.45606536
0000c0 ba f7 98 3e 32 ef 36 3f d3 6a c6 be 01 d9 9f 3c
       0.298765 0.71458733 -0.38753375 0.019512655
0000d0 ed 04 f6 3d 85 0d d9 3e c8 c9 01 3e 2a 52 f3 3e
       0.12012658 0.42393127 0.1267463 0.47523624
0000e0 f0 bf 19 bf 33 71 1c bd 30 57 95 3d bf 1f a6 be
       -0.600585 -0.038193893 0.0729202 -0.32446095
0000f0 42 5b 99 3e 1c 59 a5 bd 96 d0 be be 48 eb 5e bc
       0.29952437 -0.08073637 -0.37268513 -0.0136059
000100 3e b3 64 be dc a1 3e 3e a8 3f a5 3e 34 77 ad 3e
       -0.22334 0.18616432 0.32275128 0.33880007
000110 7d 60 48 be 4d 3a 05 3e 71 d3 ab be 6a 4e aa be
       -0.19568057 0.13010521 -0.33559754 -0.3326295
000120 98 b0 4f bd 1b 4f 8a be 99 17 8d be c8 6e de bd
       -0.050705522 -0.27013478 -0.27557066 -0.108609736
000130 14 b0 de bd 80 1c da bd c0 f1 a7 3e f9 32 7c 3d
       -0.10873428 -0.10649967 0.32801628 0.06157205
000140 41 00 61 be ba a5 18 be 09 da d9 bd 2f 53 28 3d
       -0.21972753 -0.1490697 -0.1063729 0.041094955
000150 4b 94 42 be fd d6 87 3d 18 ac e4 3e af 26 13 be
       -0.19001882 0.06632803 0.44662547 -0.14370225
000160 93 57 c9 be fd 86 45 bc 8d 84 d7 3c 2e b3 95 3e
       -0.39324626 -0.0120561095 0.026308322 0.29238266
000170 d2 ef c4 3c cb 01 23 3e 51 80 70 bd 05 07 67 be
       0.024040136 0.15918653 -0.058716122 -0.22561271
000180 15 fc 4f 3b ce 8b 0f bd ac a8 5e 3d a5 eb 0a 3f
       0.0031735946 -0.035045438 0.054360077 0.54265815
000190 da 5a 17 3e 5f d1 b9 3e 68 ca 8d be cb 17 98 bd
       0.14780751 0.3629255 -0.27693486 -0.07426413
0001a0 08 3a 1f 3f 44 52 0a bf 0a fd 0a 3f b7 79 08 3e
       0.62197924 -0.5403178 0.54292357 0.1332768

rnn.bias_ih_l2 f4 [18]
000000 cf 4b d9 bd 2b 80 90 3d 60 55 24 3e 54 df bc 3d
       -0.106101625 0.07055696 0.16048193 0.09222284
000010 40 e4 42 3d f4 db 3d 3e 92 82 6e be 36 19 33 be
       0.047580957 0.18540937 -0.23291996 -0.17490086
000020 30 63 5c be 99 b2 5f be 58 5f 0c 3b 7f b9 19 be
       -0.21522212 -0.21845473 0.0021419134 -0.15012167
000030 c8 5d 32 be e9 e1 36 be cd 3a cb 3d f3 ef f4 bd
       -0.17418587 -0.17859615 0.09923325 -0.11959829
000040 75 57 4e bd bb 1a 20 3e
       -0.050376374 0.15635197

rnn.bias_hh_l2 f4 [18]
000000 cf 4b d9 bd 2b 80 90 3d 60 55 24 3e 54 df bc 3d
       -0.106101625 0.07055696 0.16048193 0.09222284
000010 40 e4 42 3d f4 db 3d 3e 92 82 6e be 36 19 33 be
       0.047580957 0.18540937 -0.23291996 -0.17490086
000020 30 63 5c be 99 b2 5f be 58 5f 0c 3b 7f b9 19 be
       -0.21522212 -0.21845473 0.0021419134 -0.15012167
000030 73 a2 df bd 85 ce 36 be bc 0b f0 3d b9 ed dd bd
       -0.109196566 -0.17852218 0.11720988 -0.108363576
000040 97 c9 42 bd 45 12 2c 3e
       -0.047555532 0.16803844

fc.weight f4 [6, 6]
000000 2f 49 f7 3e 5f 00 97 3e e0 f0 d5 be 69 42 17 3f
       0.48298022 0.2949247 -0.41785336 0.5908571
000010 8b cc 4e bf ac df 6f be cf d9 0c 3f 53 30 33 3f
       -0.8078086 -0.23425168 0.5501985 0.6999561
000020 b3 fb 33 bf a1 99 6d 3e 2b f4 90 3e 82 7e 1e 3e
       -0.7030594 0.23203136 0.28311285 0.15477946
000030 1d d4 ef be 15 f5 47 3f 94 2c 00 3f 35 2d 07 bf
       -0.46841517 0.7810834 0.5006802 -0.52803355
000040 f0 4e 69 3e b9 b0 69 be c7 49 a1 3e a0 de 49 be
       0.22784019 -0.2282132 0.315016 -0.19713831
000050 bd c1 73 bd 8e b4 16 be 1a 77 17 bf 0a 49 f4 3e
       -0.059510935 -0.14717314 -0.5916611 0.47711974
000060 f0 37 33 3e be ea 7a bc e9 81 f6 be b8 9a 1b be
       0.17501807 -0.015314756 -0.4814599 -0.1519574
000070 45 14 1d 3e 4e 36 52 bf d8 99 f8 bd 59 d8 82 3e
       0.15339763 -0.8211411 -0.12138718 0.25555685
000080 a1 61 18 bf 4f 3f b9 3e cc be 9e bd f3 b3 b5 3e
       -0.5952397 0.36181113 -0.07751235 0.35488853

fc.bias f4 [6]
000000 66 a6 2b be 8f 7c 36 be eb ad 03 bd 20 38 c9 bd
       -0.16762695 -0.17820953 -0.032148283 -0.09825158
000010 ed 99 4d be 8d 0d 2b be
       -0.2007825 -0.16704388
