output/TimeGAN/stock/train/weights/netD.pth (torch, 480881 bytes, 20 tensors)

rnn.weight_ih_l0 f4 [192, 64]
00000000: 1460 9cbd c1df ce3c 1f2c 68be e4fc 883d
00000010: 74dc 10bd a95a 3abd 3279 73be 024b ab3d
00000020: 656a 743e b542 e93d 9176 ef3d 0044 05be
00000030: c828 c6bd e59d 4e3d 028c 533d 4169 1dbe
00000040: 3be7 083e e1b6 ae3c 6e75 733e ebb8 8ebd
00000050: 3489 90bd a24b c53d 71c1 4d3e d903 603e
00000060: bd61 c3bd 7b7f 433e 63a1 7ebd 448d 80bc
00000070: 688f af3c b5f5 043d 6351 f33d 0e1c c43d
00000080: 2c88 2c3e 34d5 083e ad24 c93d 7251 7abd
00000090: 7f1a 8a3e 4898 323e bc6c 373b 8793 9a3e
000000a0: a62d a53d 0ca0 9cbd 70d2 ffbd 6cfe 503d
000000b0: 90aa ef3d 3ff0 033e 7413 3f3e ccee 0ebc
000000c0: 2259 4d3b e993 043d dc31 043e 4577 91bd
000000d0: 79cd 513c 9bd6 6e3e 435c 073c 315a 133e
000000e0: a363 a53e 7282 773e 32e4 b3bd 9743 533e
000000f0: 2c3c a6bd 17f3 693d 9295 10bd 274b d33d
00000100: 113f 68be 8d84 6fbe 3d92 18be e961 a33d
00000110: 4155 9aba 2acb ccbc 57a7 8ebd 5753 b1bc
00000120: 0e00 d8bd b322 c9bd eb6f 80bd b6da 26be
00000130: 960d 3fbe b902 65bc 09a8 29bd 7b0e a0bd
00000140: 623d 1fbd 4fd4 43be abda 71be a7ed dfbd
00000150: 4534 f5bd 5f63 15bd 3cad 3fbe 838a 4abe
00000160: 2432 0ebd 5f18 dabe c513 2dbe 0ef7 0dbe
00000170: 9d39 c3be 4a12 66bd 5e5b 98be 12f0 92be
00000180: 5bb6 92be 1dca 363d 116a 85be 5280 8ebe
00000190: 138d a0be 06cb 9dbd 3fd8 2dbe 8c89 67be
000001a0: 2b2e cabd 8b93 b83c 2082 b5bd 57c4 acbd
000001b0: f437 36be 9da0 c73c 45f4 6cbe 6fee e8be
000001c0: 5970 72be cabe 06bd 4705 4abe aada 14be
000001d0: 4026 f6bd a64f 69bc c98e 593d 6081 d93c
000001e0: 680c 75be d29b b3be e251 3ebd cbea bdbe
000001f0: f3e5 59bd 3c29 36be 82a3 c5bb 5cf8 3abe
00000200: 87eb 8ebd e008 b5bd db58 d6bd 4538 c2bd
00000210: 3bae 543c 75a4 0dbe 652e 483d 1e79 bdbd
00000220: 1616 93be b604 48be d329 ee3d 2a91 883e
00000230: d836 303c 2559 573d 11ce 49be 0e9f 1c3d
00000240: f7fc 90be be58 45bd 1269 573d 6321 0f3e
00000250: 9d30 073e 2d92 4fbd c59a 50bd 0599 f43a
00000260: 636d 0f3c 60a3 313c 7d28 943d 0efd 603e
00000270: 7685 f93c e587 103c 8cc2 e13c fc50 6a3e
00000280: 9bb2 0d3d 8a2d b83d 6a60 a7bd 75dd 03be
00000290: 92d9 d2bd ab80 a8bc 98b5 823e 8ef4 a1bd
000002a0: eeb6 703d a437 e13c f623 a6bc 5e3b 29be
000002b0: 24cc c63d e60b 0abe 6c3a 84bd f97e 153d
000002c0: c76b 3dbe 27d2 ec3d f35e 85bc 53fd 33be
000002d0: 15bd e43d 0852 883d 3c36 fbbd 9aa6 cf3c
000002e0: d954 bfbd 6d33 9cbd 3d88 fc3b 3160 473e
000002f0: 16f5 4d3c c551 52bd 408b 12be 1944 393d
00000300: ed52 f23d b7a4 533d 0f5b 7cbe 3cbc a9bd
00000310: 6b3a bebd 52dd b83d 9b35 e4bd 0275 84bc
00000320: cc9f 6bbe d85a a63d 7b2a 00be ab0b 78bd
00000330: bd61 183e 9d68 963c 156e fe3d e729 0c3e
00000340: 1f49 e4bc 551d 603d f00c 8dbe 0460 38bd
00000350: 6797 38be 66a8 0d3d aeec 57be d845 c739
00000360: 1919 2e3d 5ac9 42be 469c 08be e3c8 edbc
00000370: 137e 743d fbff 6ebd ec76 cbbd 0d38 7c3c
00000380: e5ad b3be 7c27 173b ce74 023e 7b38 df3d
00000390: 6391 77bc 2d96 bcbd 2612 4ebd f7dc 64be
000003a0: 2af6 3e3e f336 37be 987d 353d 8953 5bbd
000003b0: 723f 5b3c 1739 de3c 0b77 f43d 2828 47be
000003c0: 06b1 99bc 6d18 153d 0c6b 32be f78e 0d3e
000003d0: 9769 2c3e e05a 273e c06d 44bc 1d19 f3bc
000003e0: 3ec5 95be c5e8 48bd 690a 10be 5a6e 6dbe
000003f0: 05a9 4bbe 6465 56bc b019 1cbe 1d64 853b
-0.07635513 0.025253179 -0.22673081 0.0668886 -0.03536649 -0.045496617 -0.23776701 0.08363916
0.23868711 0.113896765 0.116925366 -0.13014221 -0.09675747 0.05044355 0.051647194 -0.15372182
0.13369457 0.021327438 0.23775265 -0.06968864 -0.070574194 0.096335664 0.20093323 0.21876468
-0.095401265 0.19091599 -0.06216563 -0.01569236 0.021430686 0.032460887 0.11880758 0.095756635
0.1684882 0.1336258 0.098214485 -0.06111283 0.2697334 0.17440903 0.0027988395 0.3019068
0.080653474 -0.07647714 -0.1249131 0.051023886 0.11702454 0.12884615 0.18659765 -0.008723926
0.0031333645 0.03236762 0.12909645 -0.07102827 0.012805336 0.23324053 0.008261743 0.14389874
0.3230258 0.24170855 -0.08783759 0.20631252 -0.081169456 0.057116594 -0.03529889 0.103170685
-0.22680308 -0.23390408 -0.14899535 0.07977659 -0.0011774675 -0.02499922 -0.06965511 -0.021646185
-0.105468854 -0.098210715 -0.06271347 -0.16294369 -0.18657526 -0.0139777 -0.041420016 -0.07815262
-0.0388769 -0.19123958 -0.23618571 -0.109340005 -0.1197286 -0.03647172 -0.18718427 -0.197794
-0.034715787 -0.4259672 -0.16902073 -0.13863775 -0.38129893 -0.056169786 -0.29757208 -0.28698784
-0.2865475 0.044626344 -0.26057485 -0.27832276 -0.3135763 -0.07704739 -0.16977023 -0.22611064
-0.09872087 0.022531291 -0.0886271 -0.08435886 -0.17794782 0.024368579 -0.23140056 -0.4549441
-0.2367567 -0.032896794 -0.19728576 -0.14536539 -0.12019014 -0.014240181 0.053114686 0.026550949
-0.23930514 -0.3507982 -0.04646481 -0.37093195 -0.053197812 -0.17789167 -0.0060314545 -0.18258804
-0.06978517 -0.088395834 -0.104661666 -0.09483389 0.012980993 -0.13832267 0.04887237 -0.09251617
-0.28727788 -0.19533047 0.11629071 0.2667325 0.010755263 0.05257525 -0.19707514 0.038237624
-0.28317997 -0.048180334 0.052590437 0.1397758 0.13202138 -0.050676513 -0.05092885 0.0018661326
0.008754107 0.010842174 0.07234285 0.21971533 0.030459147 0.008821462 0.027558587 0.22882456
0.03459416 0.08993061 -0.081726864 -0.12877448 -0.102954045 -0.020569166 0.2552917 -0.07907973
0.058768205 0.027492352 -0.02028082 -0.16526553 0.097069055 -0.13481101 -0.064564556 0.036498044
-0.18498145 0.11563521 -0.016280627 -0.17577104 0.11168877 0.06656271 -0.12266204 0.025347997
-0.09342355 -0.07626996 0.0077066706 0.19470288 0.01257064 -0.051347513 -0.14310932 0.04523096
0.11832223 0.051670756 -0.24644111 -0.08287856 -0.09288486 0.090265885 -0.11143037 -0.016169075
-0.23010176 0.08122796 -0.12516205 -0.060558002 0.14881034 0.01836043 0.1242334 0.1368786
-0.027866898 0.054715473 -0.27548933 -0.045013443 -0.18026505 0.034584425 -0.2108638 0.00038008275
0.042504404 -0.19022122 -0.13340864 -0.029026454 0.059690546 -0.05834959 -0.09934792 0.015394223
-0.35093608 0.0023064306 0.1273987 0.10899445 -0.0151103465 -0.09208331 -0.050310276 -0.22349916
0.18648592 -0.17892055 0.04430923 -0.053546462 0.013381826 0.027126832 0.11936768 -0.19448912
-0.01876117 0.036400247 -0.17423648 0.13824068 0.16837154 0.1634326 -0.011989057 -0.02967506
-0.29252046 -0.04905011 -0.14066471 -0.23186627 -0.19888695 -0.013085697 -0.15244174 0.0040707723

rnn.weight_hh_l0 f4 [192, 64]
00000000: 6714 e93d a35d 423e da1a 5dbd f452 7a3d
00000010: 2373 7bbd 0480 863c 467c 0abd a190 163e
00000020: e548 cebd ff06 cf3d 643e 803d 80a2 a73d
00000030: 3f6c 4bbe c2fa 84bd f377 473e a13f d23d
00000040: a7ee 993d c045 56be d0f3 99bb 60b3 e6bd
00000050: b5be 85bd 8929 22be 224a 693d cd26 2a3e
00000060: 28da 6fbd ab32 49be 9775 e63b 590e 533d
00000070: b4fe 5c3e 87bd bbbc 190e 35bd 1b26 3ebd
00000080: 10d6 bbbd d717 213c 68f7 3c3e 59ca 343e
00000090: c708 81bd 442c 47bd c4bb adbc 9ed7 f5bd
000000a0: b420 243d 60f7 e73d 2e82 df3c 267c 67bc
000000b0: 743e e03b 39ec e13d 1d52 8abd cfe9 90bd
000000c0: 79cd bbbc d740 3ebe 7d26 9a3c 941c b1bd
000000d0: c123 c33d f477 75be 4bbf 813d dad5 c7bc
000000e0: 7b2a e539 7c32 a2bb d6de 54bd adc7 90bd
000000f0: a492 5a3d 70b2 4cbe 22e6 a73c 0d28 85bd
00000100: 6f33 c03d ffe8 2fbe 9b78 103e 599c 8abb
00000110: cb3b 8ebc 61db 30bd 5150 403c ec4e e5bd
00000120: 7f28 193d 1a87 2ebe 44e0 87bd 0222 aa3c
00000130: 2b54 4dbe 2787 c5bd 379d 8e3d f81a f2bd
00000140: 540d 26be 9f2f bf3d 5c42 54bd 47a3 093c
00000150: d66e 27bd 86ad 523d 66c5 183e c916 1fbe
00000160: 0699 f93b 12c8 ab3a c9f7 41bd 69c1 b33b
00000170: a0e0 81bd b7b8 2f3d 0e6b ecbd d9ff e7bd
00000180: a6bc 4fbe 36e5 78bd 94e9 94bd 5811 e53d
00000190: 8783 dcbb e459 d63d 2bf7 a2bd aa26 5bbd
000001a0: d64c b4bc 72b4 35bd aad1 c53b bebb 17bd
000001b0: e43c 9dbc b9de 54bd b81e 99bc 45a5 e0bd
000001c0: 2be5 e33d d687 97bd f067 b43d 2530 d5bd
000001d0: db39 abbd b281 babd 72de 333e 30f2 60be
000001e0: 2ee3 89bd 00b8 0cbe 648c b73d 7eee afbd
000001f0: 7f4c 83bd 6649 ef3d 0ba6 513e 5cc7 923d
00000200: dc85 41bd b86d 703d 9edc 1abe 3000 f1bc
00000210: 4808 11be 3443 97bd 5e54 a83c a384 273e
00000220: 1cab 24bd 47f0 1c3e dacd 4a3c 07fa 88bd
00000230: 19fb 403e da92 96bd 082b 963a 8bef ac3b
00000240: d514 74bd 7564 5bbd 4090 9abd 91e8 fd3a
00000250: b78d f53c 5b75 17be e492 f03d 2b4b f53c
00000260: 77e1 053e b407 bf3c a8ec 163e e7e4 e83d
00000270: ad36 433e c348 48bc da91 a33b cc7d a2bb
00000280: c127 ca3c 0e73 b1bc 3391 b4bd 79a1 d4bd
00000290: fe58 913e 22a0 b23d 4279 c5bd 565f 663e
000002a0: 8c22 09be 9eb9 9039 171c 513d 2e8f 1fbe
000002b0: 7371 d53d 0594 0dbe cfd5 923d f93a bebd
000002c0: db1a 1dbe d27f 08be 110d 1d3d 57ce fdbd
000002d0: 5d84 f5bd 7782 50bd d4f0 bbbc 75a9 583a
000002e0: 8b51 76be dfc9 22be b365 01be 33b1 823d
000002f0: b992 d0bd 502b 81bd 795e 543c d257 4f3e
00000300: e6a7 723d a029 843c 3158 373c 656a f83c
00000310: e552 21bd 25fb 6d3d d67c 253d 829f e23d
00000320: 7e85 79bc 3aab c6bd 208c 453d ad56 08be
00000330: fb5a 503c f79d 9dbd bafc fe3d 1080 09be
00000340: 8265 513d 732b 343e 8f74 073e 195f dc3c
00000350: 9427 3d3e 5919 2abd 5da1 a8bd a75c 443e
00000360: 1f70 2b3e 6090 f53d 2809 943d a3f5 0c3e
00000370: a9f0 9cbb 1b2f 073d 65ad acbc 3896 01bd
00000380: ed13 423d f28b 03be dd4f 1f3e ad68 29bd
00000390: 3827 393e ff16 b53c 5f02 a039 32ae 373d
000003a0: ebb8 67bd 70bb 073e 9ed0 b5bd 6877 9ebd
000003b0: 96d7 083d c73e 0c3d f001 0bbd 4913 eb3d
000003c0: c1db 7bbe 28c1 803d 6fd2 873c 804b 423e
000003d0: 0bd7 34be e3ab 35be 3402 323e b17e f33d
000003e0: 02db c3bc 63a7 0e3d 232a bc3d 1032 afbd
000003f0: 1106 f2bc c165 a03d bb7f a1bc acb2 033e
0.113808446 0.18981032 -0.053980686 0.061114267 -0.0613891 0.016418464 -0.033809923 0.14703609
-0.10072497 0.10108756 0.062619 0.08185291 -0.19865511 -0.06493141 0.19479351 0.102660425
0.075162224 -0.20925045 -0.004698254 -0.11264682 -0.06530515 -0.15836157 0.056955464 0.16616364
-0.05855766 -0.19648235 0.007033061 0.051527355 0.21581537 -0.022917522 -0.044202898 -0.04642306
-0.091716886 0.009832344 0.18453753 0.17655315 -0.06300502 -0.0486262 -0.021207698 -0.12004016
0.04007025 0.1132648 0.027283754 -0.01412872 0.0068433825 0.11031384 -0.06753943 -0.070758455
-0.022925125 -0.18579422 0.01881718 -0.08648029 0.09528304 -0.2397154 0.06335314 -0.024393965
0.00043709934 -0.004949866 -0.051970325 -0.07069335 0.053362504 -0.19989944 0.020495478 -0.0650178
0.0938481 -0.17178725 0.14108507 -0.004230064 -0.017362496 -0.043177966 0.011737899 -0.11196694
0.037392136 -0.17043725 -0.06634572 0.02076817 -0.20051639 -0.09644919 0.0696358 -0.1182155
-0.16216022 0.09335255 -0.051821098 0.008400745 -0.040877186 0.051435016 0.14919052 -0.15536036
0.007617119 0.001310589 -0.047355447 0.005485703 -0.06341672 0.042900767 -0.115438566 -0.11328096
-0.20286807 -0.060765468 -0.07271114 0.11184949 -0.0067295465 0.10466364 -0.079573 -0.05350367
-0.022009294 -0.04436154 0.006036957 -0.03704428 -0.019194074 -0.051970217 -0.018691406 -0.10969023
0.11127695 -0.073989555 0.08808887 -0.104095735 -0.083606444 -0.09106769 0.17565325 -0.21967387
-0.06732784 -0.13742065 0.08962324 -0.08590411 -0.06411075 0.116839215 0.20473497 0.07166931
-0.0472468 0.058698386 -0.15123221 -0.029419035 -0.14163315 -0.07385865 0.020548042 0.1635919
-0.040202245 0.15326034 0.01237818 -0.06688314 0.18845786 -0.073522285 0.0011456916 0.005277579
-0.05959018 -0.0535626 -0.07547045 0.0019371678 0.029974801 -0.14790861 0.11746767 0.02994307
0.1307429 0.023319103 0.14738715 0.11371785 0.19063826 -0.012224379 0.004991752 -0.004958844
0.02467716 -0.021661308 -0.08816757 -0.10382361 0.28388208 0.08721949 -0.09642269 0.22497305
-0.13392085 0.00027604116 0.05105218 -0.15581962 0.10422029 -0.13825996 0.07169687 -0.09288592
-0.15342276 -0.1333001 0.03834254 -0.12392872 -0.11988137 -0.05090567 -0.022941984 0.0008264997
-0.24054544 -0.1589732 -0.12636451 0.06381454 -0.10184235 -0.06307089 0.012961977 0.20248345
0.05924215 0.01613313 0.01119046 0.03032417 -0.039385695 0.05810084 0.040402256 0.1106558
-0.015229581 -0.097006276 0.048229337 -0.13314314 0.012717004 -0.07696145 0.124505475 -0.13427758
0.051122196 0.175947 0.13228057 0.026900815 0.18472129 -0.04152808 -0.082339026 0.19175969
0.1674199 0.11990428 0.07228309 0.13765578 -0.004789431 0.033003908 -0.021078775 -0.0316374
0.047382284 -0.12846354 0.15557809 -0.041359592 0.18081367 0.022105692 0.00030519345 0.04484386
-0.056572836 0.13255095 -0.08877681 -0.07737619 0.033408724 0.034239557 -0.033937395 0.11478288
-0.24595548 0.06286842 0.016579835 0.18974113 -0.17660157 -0.17741351 0.17383653 0.11889399
-0.023908142 0.0348276 0.091877244 -0.085544705 -0.029543908 0.07831908 -0.019714227 0.12861127

rnn.bias_ih_l0 f4 [192]
00000000: 5fe5 8c3b 5bd0 bdbd 41cf e5bc 8edc 813d
00000010: 14a5 283e ee57 10bd dcc9 fc3d 3b6a 24bc
00000020: 8ef7 99bd e346 bdbd ab64 61bd a7f2 b03b
00000030: f1f4 a4bd 1c51 06bd 2529 843c 1ce6 1c3d
00000040: 0126 5cbd 31c8 56bd fe23 f3bc fb75 2bbd
00000050: cf1e 86bc 9572 b2bc 6703 633d 2c50 91bd
00000060: 3b80 c23d 2bd7 693d c459 5cbc e352 9f3d
00000070: 4194 193c 7823 2abd 25fc 3f3d 5209 fa3c
00000080: 061c 5fbd bbc8 c1bd 3bfd 1abc 07b4 8f3d
00000090: 3691 e93b 77c9 8ebd 965d 223d 1735 2d3d
000000a0: 9e73 013d 83ea 0abd 3e23 053a 117f 8a3c
000000b0: ab03 0f3d 46af 4bbc 8c1c c5bc 9bea 113e
000000c0: 768f 97bc e42d c8bc 3402 3bbd b5f9 0c3e
000000d0: 8568 efbc ba26 c53d c941 51bd 3ebb 17bb
000000e0: a75b 2bbc 01fe 283d 55d1 c23d 4258 b9bd
000000f0: 921a 3b3c 349c 10bd 3cc7 8ebd a5e2 bbbd
00000100: 342f 3ebd 4f1e 12be cac9 b43d 5450 38be
00000110: 4a1d 01be 0631 bbbd 7c13 8bbd b9c7 223d
00000120: 9970 ee3c 0ce5 3a3d 1a73 d43c 5391 e8bd
00000130: 1e2f 39be 9eb6 033c ab2e b1bd f4bf 2ebd
00000140: 0c7c d9bd a6d0 19be 73e8 ddbc e733 08be
00000150: a412 c8bd 80bf f23c efd1 3e3d b45d 2dbd
00000160: 62b5 78bd e7a7 0dbe 0286 8ebe cabe 77bc
00000170: e5fd 00be 356a b7bd 4410 fbbd 0f8d 9ebc
00000180: 73da 50bd 8aca 62bc effc 30be 4bff c1bd
00000190: e881 01be a34b 7b3d 62fc fdbd 71e5 993d
000001a0: 0dba e3bb 2f96 21be 1c44 a6bd a263 89be
000001b0: 73d9 9cbe d861 72bd 5af8 123c 805c 80bd
000001c0: 00cf cdbd 6102 04bd 04a8 f7bc a015 ab3d
000001d0: a87f 32be c59a 6dbd 02d4 59bd 1294 b4bc
000001e0: 2d8b 9abd 7b96 56bc e39a c7bd 06e6 5bbc
000001f0: 5562 9e3d d7f5 3f3d d9d8 fabc d8ff 81be
00000200: 1d3b 503d 8986 47bd ad16 56bc 1c07 e9bc
00000210: 62f5 f53c 1da2 a93d 1b33 433d 39b7 d43c
00000220: ecbb e9bc 5880 75bd a445 32bc 4c4a bc3c
00000230: 784a 343d 568a 21bb b904 1cbd 989e ff3c
00000240: 069b 33bd 159f c63c d235 893d b495 80bd
00000250: 0a83 983d 73ad d3bc 1d76 0abd 41a9 363c
00000260: 58bf 0b3d 867d ea3c 5bed 003d f2ea 7bbc
00000270: 02e1 5cbc b031 88bd b75e 363b 0b00 58bd
00000280: d8eb 593d 8772 8cbc c60f 27bc a652 b13d
00000290: 4610 2b3d 367a efbc 4240 4bbc 3773 fa3b
000002a0: 70ad aebd 2092 c1bc 96aa aabd 8005 26bd
000002b0: 8ac7 183d 2098 983d 289a 853d b048 eb3d
000002c0: ea48 5bbd 2f83 4c3d fa15 303d bbb5 a73d
000002d0: 508e c53c 2ad7 80bd 88ff 923c 85e7 503d
000002e0: 6a0a 15bb 70c6 4b3d d65c 223d 01ee dfbc
000002f0: 28a9 0fbc 3e96 893b 5de8 1b3d b8a0 563b
0.004299804 -0.09268256 -0.028052928 0.063408956 0.16469222 -0.035240106 0.12343189 -0.010035093
-0.075179204 -0.09242036 -0.055027645 0.00540002 -0.08054531 -0.032792196 0.0161329 0.038305387
-0.05374718 -0.05243701 -0.029680248 -0.04186056 -0.016372113 -0.021783153 0.055423167 -0.0709537
0.09497114 0.057089966 -0.013449136 0.07779481 0.009373725 -0.041537732 0.046871323 0.030522022
-0.054470085 -0.094621144 -0.009459789 0.07016759 0.007127906 -0.0697202 0.03964003 0.04228696
0.0316044 -0.033915054 0.0005078799 0.016906293 0.034915607 -0.012431925 -0.024061464 0.14249651
-0.018501025 -0.024435945 -0.045656398 0.1376713 -0.029224643 0.09626527 -0.05108813 -0.0023152377
-0.010458863 0.041257862 0.09512583 -0.09050037 0.011419909 -0.035305217 -0.06971595 -0.091740884
-0.046431735 -0.14269374 0.08827551 -0.17999393 -0.12608829 -0.0914021 -0.06790826 0.03974125
0.029106425 0.045628592 0.025933791 -0.113558434 -0.1808438 0.008039145 -0.08651479 -0.04266353
-0.10619363 -0.15021 -0.02708838 -0.13301049 -0.097691804 0.02963233 0.046586927 -0.04232569
-0.060719855 -0.13833581 -0.27836615 -0.015121171 -0.12596853 -0.08955804 -0.12258962 -0.019354371
-0.05098958 -0.013842234 -0.17283987 -0.094725214 -0.12647212 0.06135143 -0.12401654 0.075144656
-0.006949669 -0.15779947 -0.081184596 -0.26833826 -0.3063465 -0.059175342 0.008970344 -0.06267643
-0.10049248 -0.03222883 -0.030231483 0.08353734 -0.1743151 -0.058008928 -0.053180702 -0.022043262
-0.07546077 -0.013097401 -0.09746339 -0.013421541 0.07733599 0.04686531 -0.03062098 -0.25390506
0.050837625 -0.048712287 -0.01306693 -0.028445773 0.030024234 0.08282874 0.04765616 0.025966274
-0.028531991 -0.05993685 -0.010880861 0.022984646 0.04401633 -0.0024649105 -0.03809044 0.031203553
-0.043849014 0.024245778 0.066997185 -0.062785536 0.07446869 -0.025839543 -0.033804048 0.011148752
0.034118026 0.028624307 0.03147636 -0.01537584 -0.01348138 -0.06650102 0.002782745 -0.052734416
0.053203434 -0.017144455 -0.010196632 0.08658342 0.041763566 -0.02923308 -0.012405457 0.007643129
-0.08529174 -0.023629248 -0.08333318 -0.04053259 0.03729967 0.074508905 0.065235436 0.114884734
-0.053536333 0.049929794 0.04298971 0.08188959 0.024115711 -0.06291039 0.017944112 0.051002044
-0.0022741803 0.04974979 0.039639316 -0.027335169 -0.008768357 0.0041988185 0.038063396 0.0032749604

rnn.bias_hh_l0 f4 [192]
00000000: 5fe5 8c3b 5bd0 bdbd 41cf e5bc 8edc 813d
00000010: 14a5 283e ee57 10bd dcc9 fc3d 3b6a 24bc
00000020: 8ef7 99bd e346 bdbd ab64 61bd a7f2 b03b
00000030: f1f4 a4bd 1c51 06bd 2529 843c 1ce6 1c3d
00000040: 0126 5cbd 31c8 56bd fe23 f3bc fb75 2bbd
00000050: cf1e 86bc 9572 b2bc 6703 633d 2c50 91bd
00000060: 3b80 c23d 2bd7 693d c459 5cbc e352 9f3d
00000070: 4194 193c 7823 2abd 25fc 3f3d 5209 fa3c
00000080: 061c 5fbd bbc8 c1bd 3bfd 1abc 07b4 8f3d
00000090: 3691 e93b 77c9 8ebd 965d 223d 1735 2d3d
000000a0: 9e73 013d 83ea 0abd 3e23 053a 117f 8a3c
000000b0: ab03 0f3d 46af 4bbc 8c1c c5bc 9bea 113e
000000c0: 768f 97bc e42d c8bc 3402 3bbd b5f9 0c3e
000000d0: 8568 efbc ba26 c53d c941 51bd 3ebb 17bb
000000e0: a75b 2bbc 01fe 283d 55d1 c23d 4258 b9bd
000000f0: 921a 3b3c 349c 10bd 3cc7 8ebd a5e2 bbbd
00000100: 342f 3ebd 4f1e 12be cac9 b43d 5450 38be
00000110: 4a1d 01be 0631 bbbd 7c13 8bbd b9c7 223d
00000120: 9970 ee3c 0ce5 3a3d 1a73 d43c 5391 e8bd
00000130: 1e2f 39be 9eb6 033c ab2e b1bd f4bf 2ebd
00000140: 0c7c d9bd a6d0 19be 73e8 ddbc e733 08be
00000150: a412 c8bd 80bf f23c efd1 3e3d b45d 2dbd
00000160: 62b5 78bd e7a7 0dbe 0286 8ebe cabe 77bc
00000170: e5fd 00be 356a b7bd 4410 fbbd 0f8d 9ebc
00000180: 73da 50bd 8aca 62bc effc 30be 4bff c1bd
00000190: e881 01be a34b 7b3d 62fc fdbd 71e5 993d
000001a0: 0dba e3bb 2f96 21be 1c44 a6bd a263 89be
000001b0: 73d9 9cbe d861 72bd 5af8 123c 805c 80bd
000001c0: 00cf cdbd 6102 04bd 04a8 f7bc a015 ab3d
000001d0: a87f 32be c59a 6dbd 02d4 59bd 1294 b4bc
000001e0: 2d8b 9abd 7b96 56bc e39a c7bd 06e6 5bbc
000001f0: 5562 9e3d d7f5 3f3d d9d8 fabc d8ff 81be
00000200: 7677 333d 4c78 40bd f6de d53b 90fb e8bc
00000210: 59a6 4e3d d135 7b3d 538e 263d efd2 f738
00000220: 4ec5 cebc 6048 963b 36a7 d23c ff96 d93a
00000230: 2227 fc3c db79 a3bc 280f 89bd 9e8d 1e3d
00000240: b18a 213b ad45 183d f10b 873d 20f2 ba3c
00000250: 97ae 873d 7023 69bc d98a 84bd 63ea 9d3c
00000260: 4741 d7bb d4e8 933d aec8 773d c87a 43bc
00000270: 277f 4f3d d097 acbd 11f6 7bbc 7f1c babd
00000280: b98e b63b ae57 24bd 2311 13bd 3e0c d23d
00000290: ffca 323c 0d46 0b3c 72a5 b9bc 39bc 0dbd
000002a0: 68b1 b2bd 41a7 1cbd 03c6 bbbd 4fb1 78bd
000002b0: f7e0 8b3d ddf6 a03d 3e1c 093d a8f0 ea3d
000002c0: a9ec 88bd 00b6 d4bc 56b1 ee3c 911d 9b3d
000002d0: 8aa2 14bd 5938 95bd 4ef6 70bc d6c3 ad3c
000002e0: 9358 383c e1b7 543d 1584 f23c 7dd2 1cbd
000002f0: df8c ffba 646e 073d d98a 163d ccde 213c
0.004299804 -0.09268256 -0.028052928 0.063408956 0.16469222 -0.035240106 0.12343189 -0.010035093
-0.075179204 -0.09242036 -0.055027645 0.00540002 -0.08054531 -0.032792196 0.0161329 0.038305387
-0.05374718 -0.05243701 -0.029680248 -0.04186056 -0.016372113 -0.021783153 0.055423167 -0.0709537
0.09497114 0.057089966 -0.013449136 0.07779481 0.009373725 -0.041537732 0.046871323 0.030522022
-0.054470085 -0.094621144 -0.009459789 0.07016759 0.007127906 -0.0697202 0.03964003 0.04228696
0.0316044 -0.033915054 0.0005078799 0.016906293 0.034915607 -0.012431925 -0.024061464 0.14249651
-0.018501025 -0.024435945 -0.045656398 0.1376713 -0.029224643 0.09626527 -0.05108813 -0.0023152377
-0.010458863 0.041257862 0.09512583 -0.09050037 0.011419909 -0.035305217 -0.06971595 -0.091740884
-0.046431735 -0.14269374 0.08827551 -0.17999393 -0.12608829 -0.0914021 -0.06790826 0.03974125
0.029106425 0.045628592 0.025933791 -0.113558434 -0.1808438 0.008039145 -0.08651479 -0.04266353
-0.10619363 -0.15021 -0.02708838 -0.13301049 -0.097691804 0.02963233 0.046586927 -0.04232569
-0.060719855 -0.13833581 -0.27836615 -0.015121171 -0.12596853 -0.08955804 -0.12258962 -0.019354371
-0.05098958 -0.013842234 -0.17283987 -0.094725214 -0.12647212 0.06135143 -0.12401654 0.075144656
-0.006949669 -0.15779947 -0.081184596 -0.26833826 -0.3063465 -0.059175342 0.008970344 -0.06267643
-0.10049248 -0.03222883 -0.030231483 0.08353734 -0.1743151 -0.058008928 -0.053180702 -0.022043262
-0.07546077 -0.013097401 -0.09746339 -0.013421541 0.07733599 0.04686531 -0.03062098 -0.25390506
0.0438151 -0.046989724 0.006526823 -0.028440267 0.05045161 0.06133062 0.040663075 0.00011817167
-0.025240567 0.0045862645 0.025714498 0.0016600786 0.030780379 -0.019955566 -0.06692344 0.038709275
0.0024649317 0.037175823 0.065940745 0.022820532 0.06625097 -0.01422964 -0.064717956 0.019276803
-0.006569061 0.07222143 0.060494117 -0.011931129 0.05065837 -0.084273934 -0.015378491 -0.090874664
0.005571213 -0.04012268 -0.035905015 0.10256241 0.010912656 0.008500588 -0.022661898 -0.03460333
-0.08725244 -0.038245443 -0.09168627 -0.06071597 0.06830018 0.078595854 0.0334742 0.11471683
-0.06685764 -0.02596569 0.029137295 0.07573999 -0.03628782 -0.07286138 -0.014707161 0.021211546
0.0112515865 0.051933173 0.029603997 -0.038286675 -0.0019496939 0.03306426 0.03675351 0.009879779

rnn.weight_ih_l1 f4 [192, 64]
00000000: 2062 e8bb 8474 2b3c c8ee 5e3e ff0d 353d
00000010: 9d2c 5f3b 5e7d 94bd f7bf 503d 6134 50be
00000020: 761f c33d 4779 d6bb f725 6dbd 1d19 1fbe
00000030: 97c5 cbbd 7e24 b0bc 4543 0039 f9ee 04be
00000040: 1e90 e83c 3de1 b63d ecc0 55be 71f9 e73d
00000050: 88ac 603d 6905 07bd 2a10 b3bd d8a1 92be
00000060: 8eef 7dbc e1e8 2dbe e6cb ac3c 59ea f63c
00000070: bd52 933d 433b 81bd f29c 00bd cc5e 18be
00000080: 1409 693c 7c30 dc3d bc04 fa3d 3474 84be
00000090: 8a4b 42bd c174 93bd 5389 3abd 80dc f6bd
000000a0: ebc8 9bbd 29fd 27bd 3965 64bd a0d2 1abd
000000b0: 7aac b8bd fd44 47be 069b adbd caf1 3fbe
000000c0: 9888 2e3e 408b 453d dbe4 44be 5b7b b1bc
000000d0: d715 833d 0d1d 893e 07de 1fbc 6fbf aabb
000000e0: c9f2 9b3c be20 ac3c ef28 a83d fee6 163e
000000f0: f849 c3bc 794a 7a3c 1483 0b3c 79ca a13d
00000100: d85e 04be 91bb 78bd 2b41 c6bc f88b 0ebd
00000110: bc44 7fbd 63ee 34be 56ef 223e 1d02 cebd
00000120: c848 093e 7f3d 1f3e 2714 353e 278e 6fbe
00000130: f4fd da3c 1c4f be3d 7c03 363e 2550 26be
00000140: 1d40 0abd 69e7 c83d d604 a33d 4be6 dd3d
00000150: 7cb1 cd3d 94c6 37be c4a1 1dbe 6f71 da3d
00000160: 14dc a3bd f4b5 303e bc87 b7bd 6d31 c73d
00000170: 669a 8ebd 4eb2 d63d ade2 9f3d 26da e53d
00000180: 7558 56be 6b1a e23c ec0a 8ebe f67d 45bd
00000190: ca56 81bd 084b f03d cf1a b23c f8eb b43d
000001a0: b385 71bd e6db f4bd a793 cbbd b3a7 743d
000001b0: 75be 0bbe df61 bcbd 635e 813e 3885 613d
000001c0: 59fc 70bb d930 5cbd c3b3 b1bd a251 0f3d
000001d0: fd6d 46bd e873 c7bd a79a 35be 4c5f c2ba
000001e0: 8fe5 fe3d a952 033d ced2 e23b 6976 f63b
000001f0: b04f 323d 7395 4c3d 1a5a d33d c635 693d
00000200: 3dce 383d b1e6 563d 8dc9 053d 9258 8bbe
00000210: e2c4 e6bd 028a a0ba 0f85 9dbd 160a e03d
00000220: 7099 fabc cc0b 5d3e f8e8 53bc 7e57 993c
00000230: 287a 63bd b0f2 04be 0828 ffbd 6752 19be
00000240: d769 083e bbb9 7d3e a9d7 b3bd bd87 7bbc
00000250: ef2f 40bd 2963 253e def6 f9bd cdf9 dbbd
00000260: 9bef 323e 652e 173d e70c 99bd f359 35be
00000270: 66b3 723d 0b4a 183e a573 49be d8b5 d5bd
00000280: 1508 383e a183 203e 29fe b53d ae77 93bd
00000290: af99 723d fc37 cb3d db68 4bbe ea2a e0bd
000002a0: 4829 bdbd ef3b fcbc 87ec 1d3e 8479 b03a
000002b0: 8380 80bd ab84 463d 28e9 4f3b b205 08bd
000002c0: 78b4 993d b4f0 9e3d fa2d 3a3d 7c8b 0f3e
000002d0: 5306 85bd 4f1c 183e 41d6 6c3d c91b ac3d
000002e0: ce2c 3cbe d528 083d 0a13 b53c 34ad 4b3d
000002f0: 6a96 b2bd 2dab 24bc 6066 e33d 6f06 ed3c
00000300: 8c90 3e3c aed8 86bd 5efc 8dbe d2f0 e33d
00000310: 852a 4b3d 40c4 053e 49ea 28be d2c8 2e3e
00000320: 658b 9b3d accd 213d d32c 853b a323 2fbc
00000330: 774c 313d ae8d 03bd fd6b 993d 2fa3 5c3d
00000340: f3f9 86bd 06b1 06bc c0db 453d eca3 ecb9
00000350: bffc ac3d 6036 cebc f8c3 d4bd 35df 563d
00000360: 419e c53d cb6a eeba 3fdb fd3d 3fc3 83bd
00000370: 768a 6fbd 74c0 45be 7f2e 3dbd b12c debc
00000380: dc6a 90bd 0f21 153e b14f 3b3c 4e64 2e3e
00000390: 3fb1 cd3d 1755 fdbd 3751 023e e98d 623d
000003a0: f35e 39bc f2ff cb3d f787 5fbe 0858 28bb
000003b0: 052b 0cbe 746f 413d 3ae5 19be 5dc2 593e
000003c0: 78cd 8bbd 6f07 7a3c 2a08 f4bd 3f39 20bd
000003d0: 37d1 63bd d46b 433d 9a09 9d3d 3e06 6cbd
000003e0: bad0 a0bb 1c88 1fbb fafb 9cbd b2a5 a2bc
000003f0: 3922 833e ea8f 663d 8759 263d 6832 30be
-0.0070917755 0.010464791 0.21770775 0.0442028 0.0034053691 -0.072504744 0.050964322 -0.20332481
0.09527485 -0.006545219 -0.057897534 -0.15536924 -0.09949797 -0.021501776 0.00012232091 -0.12981786
0.028389033 0.089296795 -0.20874375 0.11326874 0.05485204 -0.032964144 -0.087433174 -0.28639102
-0.015499009 -0.16983368 0.02109332 0.030141043 0.071935154 -0.063101314 -0.031399675 -0.14879912
0.014223356 0.10751435 0.12207934 -0.25869906 -0.04743532 -0.072000034 -0.04554112 -0.12053776
-0.076066814 -0.041012917 -0.055760596 -0.037798524 -0.09017272 -0.1945991 -0.08476834 -0.18744579
0.17044294 0.048228502 -0.19227926 -0.021665266 0.0640065 0.26779976 -0.009757525 -0.005210809
0.019036667 0.021011706 0.082109325 0.14736554 -0.023838982 0.015276545 0.008515138 0.07899947
-0.12926805 -0.060725752 -0.024200996 -0.034801453 -0.06232141 -0.17669062 0.15911612 -0.10058997
0.1340667 0.15550803 0.17683469 -0.2339407 0.026732422 0.09292433 0.17774767 -0.1624151
-0.03375255 0.09809763 0.07959907 0.108349405 0.10043618 -0.17946845 -0.1539374 0.10666167
-0.08000961 0.1725691 -0.08961436 0.09726224 -0.06963043 0.10483228 0.07806907 0.11223249
-0.20932181 0.027600488 -0.27742708 -0.04821583 -0.06315382 0.11733061 0.021741299 0.0883407
-0.058965396 -0.11956005 -0.09940272 0.059730243 -0.13646872 -0.09198355 0.25267324 0.055058688
-0.0036771505 -0.053757522 -0.08676865 0.03498996 -0.048444737 -0.09738904 -0.17734776 -0.0014829426
0.124461286 0.032061253 0.0069221025 0.00752144 0.043533027 0.049947213 0.1031992 0.056936048
0.04511856 0.0524661 0.032662917 -0.2721601 -0.11268021 -0.0012248161 -0.076913945 0.10939424
-0.030590743 0.21586531 -0.012933962 0.018718477 -0.05553642 -0.12983203 -0.12458807 -0.1497284
0.13321625 0.24777882 -0.08781368 -0.015352187 -0.046920713 0.16151108 -0.12205289 -0.10741005
0.17474215 0.03690948 -0.07473164 -0.17710094 0.05925312 0.14871995 -0.19673021 -0.104350746
0.17971833 0.15675212 0.08886368 -0.072005615 0.059228595 0.099227875 -0.19864218 -0.10945685
-0.092363894 -0.030790297 0.1542226 0.0013463949 -0.06274512 0.048466366 0.0031724665 -0.033208556
0.07505125 0.07760754 0.045454003 0.14018053 -0.06495347 0.14854549 0.057821516 0.08403737
-0.18376467 0.033242065 0.022103805 0.049725726 -0.087200955 -0.010050577 0.11103511 0.028933732
0.011631142 -0.06584297 -0.27731603 0.11129917 0.049601097 0.13063145 -0.16495623 0.17068794
0.07594947 0.039502785 0.0040641814 -0.010689649 0.043285813 -0.03211754 0.074913 0.05386656
-0.06590643 -0.008220917 0.048305273 -0.0004513556 0.08446645 -0.025172412 -0.103889406 0.05245896
0.09649325 -0.0018189786 0.123953335 -0.064337246 -0.058481656 -0.19311696 -0.04618692 -0.02712092
-0.07051632 0.14563392 0.011432574 0.1703045 0.10043573 -0.12369745 0.12726294 0.055311117
-0.011314142 0.09960927 -0.2182921 -0.0025687236 -0.13688286 0.04722543 -0.15028849 0.2126555
-0.068262994 0.015260561 -0.1191562 -0.039117094 -0.055619445 0.047710255 0.07667847 -0.05762314
-0.0049076946 -0.0024342602 -0.07665248 -0.0198544 0.25612047 0.05628959 0.040612724 -0.17206728

rnn.weight_hh_l1 f4 [192, 64]
00000000: 2871 c0bd 22e1 3ebd ca68 c23d 3ae4 7e3e
00000010: f745 f23d f6e0 9fbc d754 623e 1b73 a4bd
00000020: da88 afbd 956d 663d 3be7 b9bc 41be ebbd
00000030: 316e c33d a371 ba3d 76cc cdb8 11a5 df3d
00000040: 3d39 ce3b c02e 20bd 85a0 673d f38d 69bd
00000050: ea0a 4fbd 09f2 373d 5272 25be 2082 3fbd
00000060: abe4 16be 155a c8bd 3b8e b63c 893e 7fbd
00000070: c96f 983d 8b20 543d 50a8 32be 0f20 3bbd
00000080: 07fb 17be 5e22 5e3e 0495 fbbd 4fa0 d9bd
00000090: 142b a5bc cea0 c43d 3122 c3bd 7c6f 87b9
000000a0: 7628 833e ef67 593e a5fe 4dbd a0ad 003e
000000b0: 718a 78bd 3ec9 3a3a 41d3 4dbd 6140 993d
000000c0: e0dc 523e a87d 4a3c 1615 a7bd af4c a5bd
000000d0: d11d 3e3d 86cc a63d 5043 8fbd b5e1 3f3e
000000e0: f40b 893d 0e47 1cbd d073 a33c 767a 05be
000000f0: 8b46 403e 6f4c 943e 29ce 13be 40bd cd3b
00000100: 81a5 9abc 2a35 60bc c9dd 3d3d 87f2 0b3e
00000110: 4a5e c83d 32ff 9f3d c477 763d 2e7d 9cbd
00000120: cb69 693c 8ffd 233d 0a08 84bd 28f3 e1bd
00000130: 55b9 ca3c 61ed 173e 8915 00be 60f4 06bc
00000140: 801c 97bd c240 153e d955 833d 977f c8bd
00000150: cf5a 563d dc25 063e be50 bbbc e289 20be
00000160: 8555 14be c675 c4bd 443d 143e ecec 1dbe
00000170: 62ed e43c 1de4 2e3d fed8 98bd d7fb 4dbe
00000180: 6119 16be c9fd 5d3e ded3 04bc 7e40 c6bc
00000190: ed41 db3d 9ae0 303d a0b7 b2bc 32b4 213b
000001a0: e666 233d 55e2 df3d ebb1 1b3e aa2c 173c
000001b0: 6705 6e3d cfcd 853d 26c6 75bd ecfd 3b3e
000001c0: 4e2a 343d 7e81 c93d 1247 f23d c8d8 dc3d
000001d0: ce1e cb3c f846 f03b 50ce 423e 3a70 bd3d
000001e0: aa64 463c 7b1b 073d 4218 8cbe 2b40 31bd
000001f0: fb2b c1bd 5625 78bd 82fb 37be 572e eebd
00000200: 7a16 643d 23fc fe3c 872b 873d 78de 51bd
00000210: 02eb 053e d06f 243d 149a f33c 7fc4 dcbc
00000220: c98d c2bd 5c49 ad3c 46e7 1bbd 52ca a1bc
00000230: b095 82bd d963 3a3c 830b 823d ca27 9cbc
00000240: b049 cabd 0ac6 8dbd 8c17 873d 3488 09be
00000250: 0a45 f43c 0ca3 26bc a08f a2bd 3ceb eabd
00000260: b5a7 fd3d 74e9 2ebe 2659 cbbd b99f 0f3e
00000270: 4561 09bd 979c 343e 8b8e 583e 4cc1 373d
00000280: 05e3 813d 3667 f33c 5bfc 2fbd 31ce a8bd
00000290: 9598 583d 413d b43c 797a 5cbe 57be 7c3d
000002a0: f57c 29bb 084e fabd df62 f53d e5e4 663d
000002b0: 4b0d 50bd 4831 fdbc 0602 b1bc e6b7 ba3d
000002c0: 16d9 86bd 6cc6 f83c cdbe 613d 7865 5bbe
000002d0: 1cb1 a9bc a18f b9bc 9e93 2f3d 306d e23d
000002e0: 8dfa 69bd 4adf 5f3d 0cdd 4d3d c9e6 91bd
000002f0: 91df 18bd 8d5a a6bc eafc 36be 18d1 18be
00000300: 86e0 bd3c 18c2 753d 1085 a33d 18e2 74be
00000310: c46c dabd 6487 c53d 2640 42bd 0767 403e
00000320: e78a ac3d 89ab a7bd 9ab3 293e ea92 da3c
00000330: 6d32 2f3c 72b4 c6bd 3e94 e8bc 524c 8b3d
00000340: 1233 5cbd 6d84 cd3d 5808 68bb 097f 6dbb
00000350: 8b14 5abd 69ab 85ba 04d6 3d3c 6d11 093e
00000360: 67f6 473e 7213 3e3d d411 9fbb a470 4ebd
00000370: 630a 35be 9124 333e 85a4 a03d b664 ba3d
00000380: 7be4 353d 34ed 05bd 888e b33d 5859 2a3e
00000390: ef4b 903d 39fd ac3d e03c 4d3d caba 07be
000003a0: 5427 7fbd 4663 fbbc afe7 82be 1948 87bd
000003b0: 7831 06bd f522 c63d d42d df3d f05b babc
000003c0: ea80 fcbc 4945 1abe 6a4b 04bd 7523 72bd
000003d0: 408a 103d 691f 09bd e47b ee3d 6a27 02bd
000003e0: 0a00 08be 6162 eb3d 1f9e 9cbd 294a e53c
000003f0: 0192 3f3c bc6c d1bd 34f3 5e3d e444 3d3e
-0.09396583 -0.046601422 0.09492643 0.24891749 0.11829751 -0.01951645 0.22102676 -0.08029767
-0.08571024 0.05625685 -0.022693267 -0.115108974 0.09542502 0.09103706 -9.8132456e-05 0.10920156
0.0062934444 -0.039107084 0.056549568 -0.05702014 -0.050547518 0.044908557 -0.16156891 -0.046754956
-0.14735667 -0.09782807 0.022284618 -0.062315498 0.07443196 0.051788848 -0.17447019 -0.04568487
-0.14841853 0.21692798 -0.12284282 -0.106262796 -0.020162143 0.096009836 -0.09528006 -0.0002583227
0.25616807 0.21231054 -0.050291676 0.12566233 -0.060678903 0.00071253243 -0.050250296 0.074829824
0.2059207 0.01235906 -0.08158319 -0.08071267 0.046415154 0.081444785 -0.06995261 0.18738444
0.06691733 -0.0381537 0.019952685 -0.13034996 0.1877691 0.28964564 -0.14434113 0.006278664
-0.018877747 -0.01368455 0.04635409 0.13666736 0.09783609 0.078123465 0.06017281 -0.07641064
0.014246414 0.040036734 -0.06446846 -0.110327065 0.024746576 0.14836647 -0.12508215 -0.0082369745
-0.07378483 0.14575484 0.064128585 -0.09789961 0.052332696 0.1310038 -0.02286565 -0.15677598
-0.14485748 -0.09592776 0.14476496 -0.1542241 0.027945224 0.042698015 -0.07463263 -0.201156
-0.14658119 0.21678843 -0.008107154 -0.024200674 0.10705934 0.043182947 -0.021816075 0.0024674055
0.039893053 0.10931841 0.15204589 0.009226957 0.05811062 0.065333955 -0.060003422 0.18358582
0.043985657 0.09839152 0.11829962 0.10783535 0.024794962 0.007332679 0.19024014 0.09249921
0.012108961 0.03298519 -0.27362257 -0.043274086 -0.09432217 -0.06058248 -0.17967036 -0.116299324
0.055685498 0.031126088 0.06600099 -0.051237553 0.1307793 0.040145695 0.029736556 -0.026949165
-0.094996996 0.021153145 -0.038062356 -0.019749794 -0.06376207 0.011376345 0.06349852 -0.019061942
-0.09877336 -0.069225386 0.06596288 -0.13430864 0.029818077 -0.010170709 -0.079375505 -0.11470649
0.12385503 -0.17081243 -0.09929113 0.14025773 -0.03354003 0.1763786 0.21148126 0.044862077
0.06342129 0.0297123 -0.042965274 -0.08242453 0.05287989 0.022001864 -0.21531095 0.06170496
-0.0025861834 -0.122219145 0.11981749 0.056370635 -0.050793927 -0.030907288 -0.02160741 0.09117107
-0.065843746 0.030368052 0.055113602 -0.21425426 -0.020714335 -0.022651495 0.042865388 0.11055982
-0.05712371 0.054656304 0.050259635 -0.07124097 -0.037322585 -0.02030685 -0.17869917 -0.14923513
0.02317835 0.059999555 0.07984364 -0.23914373 -0.10665277 0.09644964 -0.047424458 0.18789302
0.08424931 -0.081870146 0.16572419 0.026681382 0.010693175 -0.09702386 -0.028391 0.06801666
-0.053759642 0.10035024 -0.0035405364 -0.003623905 -0.053242248 -0.0010198179 0.01158667 0.13385554
0.19527589 0.046405263 -0.00485442 -0.05040039 -0.17679743 0.17494418 0.078438796 0.0910124
0.04440735 -0.032696918 0.0876742 0.16635644 0.07045733 0.08446736 0.050106883 -0.13254848
-0.062293366 -0.030686986 -0.25567386 -0.066055484 -0.03276202 0.09674636 0.10897413 -0.022748917
-0.03082319 -0.15065493 -0.032298483 -0.059115846 0.035288095 -0.03347722 0.11644724 -0.03177587
-0.13281265 0.11493374 -0.07647347 0.027989464 0.011692525 -0.102258176 0.054431155 0.18483311

rnn.bias_ih_l1 f4 [192]
00000000: b995 54bd 3d84 04bd 15cd d6bc 5060 033e
00000010: 3698 0e3d 0146 823c 533f c13d b258 163e
00000020: b21e 133c 1aeb 25bd 32c4 9c3d bb4c 8bbd
00000030: ef71 9d3d b29a 663d 2c11 e63c 52d7 d4bd
00000040: f40e f9bc bd24 083d 54f7 d8bd 4f74 a1bc
00000050: 15b2 65bd 7c02 593d 9523 743d 247c cabd
00000060: 645c 9c3c e057 1b3d 4400 a8bc 8e2e 12be
00000070: 0316 903d f766 8d3d 269b 84bd 4f5b 30bd
00000080: 70a2 e0bc 8ee8 d53b a612 b3bc 2ea9 5a3d
00000090: 41db 72bb d9f1 e4bc e09e cd3d d727 9ebc
000000a0: 6f6b e23c e9bb 6c3d d416 a53d 1c95 4fbc
000000b0: 9b1e 4fbd 8d4f 2bbd e2a7 be3c 51b3 b53c
000000c0: 5545 f0ba 3791 81bb dab8 303c 84b3 743d
000000d0: e12a 0e3e 8400 933d fccf a6bd 0543 873d
000000e0: 1d6f cb3d 98e7 0e3d 1c47 48bd 68c4 1e3e
000000f0: 856c 973d f37b 10bc 2c71 8b3d 9e93 0f3d
00000100: 7369 3dbd 2ada 7e3d 03bf 03be 70f1 55bd
00000110: 392f bbbe 06dd 13be d781 49bc 087b e1bc
00000120: a9f7 34be 7d0c 8b3d 2a0f ffbd 35b8 dabd
00000130: 8644 af3b 96d6 9ebc a768 cdbd 4c63 7dbc
00000140: 4070 153d a3d7 dcbc 9f05 87bc 043f a0bd
00000150: 7fe3 27be 1ee9 f6bd bd29 3dbe 0c13 593c
00000160: ba7c 29be 2710 20bc 635b 00be 4c7e 50be
00000170: 8199 843c 8116 80be 02ca 93bd 1011 933d
00000180: 400f 283d dad8 d1bd 307a ee3c 3105 b2bd
00000190: c490 b0bd 2f3e 803d d932 08bc 983e 57be
000001a0: ea64 5ebe c4ce 6fbd fe44 7dbc 8737 1bbd
000001b0: d12c 2fbd c12f c3bd 756a 9dbc 5fed ffbd
000001c0: 60f6 73bc 90ea 1f3d 91d0 20bc 8cbb 383d
000001d0: 3a88 53be a4c2 c53b 7457 d5bd eda0 00be
000001e0: 4a1d 20bd b066 6e3c 9415 48bd 4463 21be
000001f0: 56e3 a5bd 9310 31be 18e2 a3bc cfc2 73be
00000200: db3f 563b 9375 ca3c b026 1f3c bfe2 05be
00000210: 5cf6 65be a27c c43c a047 c9bd 04ff ae3d
00000220: 655c 6fbd 6e20 5b3d 800e 813d 1db2 df3c
00000230: 20e5 43bd bd95 e5bd 1443 acbd 77a6 2e3c
00000240: 187d b63c b798 abbd b450 d1bd 45f2 8c3d
00000250: c83c 8a3a 573b 27bd 118a d83c cb29 843c
00000260: dbc8 cc3c cce3 333d 3325 36bd af85 563d
00000270: 3758 5ebd 1348 9b3c 0232 533d 8147 ed3c
00000280: 3274 003d b4fb 9bbd 05a2 2a3c f8b6 2c3d
00000290: c43d 823c 3da6 97bd 5542 11bd 47f3 e9bc
000002a0: 8e79 963d aae7 18bd d884 a0bd 8174 95bd
000002b0: dcdd 773c 150c b53c 7bc1 a53d 40fd e4bd
000002c0: 2006 14be de66 eb3c beba 15bd f30b d23a
000002d0: e48a e4bc 66d3 09be caf2 22bd b429 fcbd
000002e0: 92ef ebbd 30ff 46bd 8a7a 6f3d d354 1a3e
000002f0: 7408 993c 9380 433d 384a 1fbd 259c 083d
-0.0519006 -0.032352675 -0.026220838 0.12829709 0.03481313 0.015902521 0.09435906 0.14682272
0.008979486 -0.040507413 0.07654609 -0.068017446 0.07687747 0.056299873 0.02808436 -0.103926316
-0.030402638 0.03323816 -0.10594049 -0.01970878 -0.056078035 0.052980885 0.059604246 -0.09886959
0.019087024 0.0379256 -0.02050794 -0.14275572 0.070354484 0.069044046 -0.06474905 -0.04305583
-0.027421206 0.006527967 -0.021859478 0.053384 -0.0037056955 -0.027947353 0.100400686 -0.019306106
0.027639119 0.057796393 0.08060995 -0.012669828 -0.050566297 -0.041823912 0.023273412 0.022180231
-0.001833121 -0.0039540785 0.01078626 0.059741512 0.13883545 0.07177833 -0.081451386 0.0660458
0.099333026 0.034888834 -0.04889594 0.1550461 0.07393745 -0.008818614 0.06808695 0.035052888
-0.046243142 0.062219776 -0.12865834 -0.052232206 -0.36559466 -0.14439783 -0.012299023 -0.027524486
-0.176726 0.06789491 -0.12454064 -0.10679666 0.005348745 -0.019389432 -0.100297265 -0.015465569
0.036484003 -0.026958292 -0.016482173 -0.07824519 -0.16395377 -0.12056182 -0.18472953 0.01324917
-0.16551486 -0.009769476 -0.12534861 -0.20360678 0.016186478 -0.2501717 -0.07216264 0.07180989
0.04103017 -0.10246439 0.029110998 -0.086923964 -0.08621362 0.062618606 -0.008312904 -0.21019971
-0.21718183 -0.058546796 -0.015458344 -0.037894752 -0.04276735 -0.09530593 -0.019215802 -0.12496447
-0.014890283 0.039042056 -0.009815351 0.045100734 -0.20657435 0.006035166 -0.10417071 -0.12561388
-0.039090432 0.01455085 -0.048848704 -0.15760523 -0.081000015 -0.17291479 -0.02000527 -0.23804782
0.003269187 0.024714267 0.009713814 -0.13074778 -0.2245726 0.02398521 -0.098281145 0.08544734
-0.058437724 0.053497724 0.06301594 0.02730661 -0.047825933 -0.11210201 -0.08411232 0.0106598055
0.022276446 -0.083787374 -0.10220471 0.06882147 0.0010546679 -0.040828075 0.026433023 0.01613321
0.02499812 0.043918416 -0.04446907 0.052373584 -0.054283347 0.018955266 0.051561363 0.02896476
0.031360812 -0.07616368 0.010414605 0.04216668 0.015898593 -0.07404754 -0.03546365 -0.028558386
0.073474035 -0.037330307 -0.07837838 -0.07297612 0.015128579 0.022100488 0.08093544 -0.11181116
-0.14455462 0.028735574 -0.036555044 0.001602529 -0.02789826 -0.13459548 -0.039782323 -0.12312642
-0.11520304 -0.04858321 0.05846647 0.1507142 0.018680789 0.04773004 -0.03888914 0.033352036

rnn.bias_hh_l1 f4 [192]
00000000: b995 54bd 3d84 04bd 15cd d6bc 5060 033e
00000010: 3698 0e3d 0146 823c 533f c13d b258 163e
00000020: b21e 133c 1aeb 25bd 32c4 9c3d bb4c 8bbd
00000030: ef71 9d3d b29a 663d 2c11 e63c 52d7 d4bd
00000040: f40e f9bc bd24 083d 54f7 d8bd 4f74 a1bc
00000050: 15b2 65bd 7c02 593d 9523 743d 247c cabd
00000060: 645c 9c3c e057 1b3d 4400 a8bc 8e2e 12be
00000070: 0316 903d f766 8d3d 269b 84bd 4f5b 30bd
00000080: 70a2 e0bc 8ee8 d53b a612 b3bc 2ea9 5a3d
00000090: 41db 72bb d9f1 e4bc e09e cd3d d727 9ebc
000000a0: 6f6b e23c e9bb 6c3d d416 a53d 1c95 4fbc
000000b0: 9b1e 4fbd 8d4f 2bbd e2a7 be3c 51b3 b53c
000000c0: 5545 f0ba 3791 81bb dab8 303c 84b3 743d
000000d0: e12a 0e3e 8400 933d fccf a6bd 0543 873d
000000e0: 1d6f cb3d 98e7 0e3d 1c47 48bd 68c4 1e3e
000000f0: 856c 973d f37b 10bc 2c71 8b3d 9e93 0f3d
00000100: 7369 3dbd 2ada 7e3d 03bf 03be 70f1 55bd
00000110: 392f bbbe 06dd 13be d781 49bc 087b e1bc
00000120: a9f7 34be 7d0c 8b3d 2a0f ffbd 35b8 dabd
00000130: 8644 af3b 96d6 9ebc a768 cdbd 4c63 7dbc
00000140: 4070 153d a3d7 dcbc 9f05 87bc 043f a0bd
00000150: 7fe3 27be 1ee9 f6bd bd29 3dbe 0c13 593c
00000160: ba7c 29be 2710 20bc 635b 00be 4c7e 50be
00000170: 8199 843c 8116 80be 02ca 93bd 1011 933d
00000180: 400f 283d dad8 d1bd 307a ee3c 3105 b2bd
00000190: c490 b0bd 2f3e 803d d932 08bc 983e 57be
000001a0: ea64 5ebe c4ce 6fbd fe44 7dbc 8737 1bbd
000001b0: d12c 2fbd c12f c3bd 756a 9dbc 5fed ffbd
000001c0: 60f6 73bc 90ea 1f3d 91d0 20bc 8cbb 383d
000001d0: 3a88 53be a4c2 c53b 7457 d5bd eda0 00be
000001e0: 4a1d 20bd b066 6e3c 9415 48bd 4463 21be
000001f0: 56e3 a5bd 9310 31be 18e2 a3bc cfc2 73be
00000200: 5569 a43b 31f3 2ebd 16a2 9cbb 69b9 fabd
00000210: 7c01 6dbe d19b c03c f97d dcbd fd68 aa3d
00000220: 8e14 d2bc 9437 ed3b 23ba 6a3d b483 e93c
00000230: 9087 1fbd 7da7 f7bd bd76 dcbd 37a8 62bc
00000240: 3b99 913c 60ad a8b7 a41a 81bd 6881 b93d
00000250: 4d32 4d3c 2ded a6bc 8081 4f3d c31a 993c
00000260: 10e1 393d e0cb 613d 0481 d9bc 8f4a 613d
00000270: c6de 1bbd bf1a 9f3c 3b84 0fbc 5a8a 1bbc
00000280: d497 ec3c a5bc 70bd 2f1e 093d 3f2d 053d
00000290: f4a1 2abc fe78 70bd 35da 26bd 791c 023d
000002a0: e0d1 813d 558b 3dbd b86c b3bd d058 b3bd
000002b0: 1c9c 1c3b cf6a b1bc eeff 733d 6fdd 06be
000002c0: 199a 80bd 56b9 89b9 dbd4 63bc 237d e9bb
000002d0: fa96 763c 2dd0 03be 58a7 d3bb 0914 c6bd
000002e0: f576 d9bd 4e95 87bd db03 2b3d bbc0 293e
000002f0: e101 c13c 3978 9e3b 1aa0 08bd 757d 6e3c
-0.0519006 -0.032352675 -0.026220838 0.12829709 0.03481313 0.015902521 0.09435906 0.14682272
0.008979486 -0.040507413 0.07654609 -0.068017446 0.07687747 0.056299873 0.02808436 -0.103926316
-0.030402638 0.03323816 -0.10594049 -0.01970878 -0.056078035 0.052980885 0.059604246 -0.09886959
0.019087024 0.0379256 -0.02050794 -0.14275572 0.070354484 0.069044046 -0.06474905 -0.04305583
-0.027421206 0.006527967 -0.021859478 0.053384 -0.0037056955 -0.027947353 0.100400686 -0.019306106
0.027639119 0.057796393 0.08060995 -0.012669828 -0.050566297 -0.041823912 0.023273412 0.022180231
-0.001833121 -0.0039540785 0.01078626 0.059741512 0.13883545 0.07177833 -0.081451386 0.0660458
0.099333026 0.034888834 -0.04889594 0.1550461 0.07393745 -0.008818614 0.06808695 0.035052888
-0.046243142 0.062219776 -0.12865834 -0.052232206 -0.36559466 -0.14439783 -0.012299023 -0.027524486
-0.176726 0.06789491 -0.12454064 -0.10679666 0.005348745 -0.019389432 -0.100297265 -0.015465569
0.036484003 -0.026958292 -0.016482173 -0.07824519 -0.16395377 -0.12056182 -0.18472953 0.01324917
-0.16551486 -0.009769476 -0.12534861 -0.20360678 0.016186478 -0.2501717 -0.07216264 0.07180989
0.04103017 -0.10246439 0.029110998 -0.086923964 -0.08621362 0.062618606 -0.008312904 -0.21019971
-0.21718183 -0.058546796 -0.015458344 -0.037894752 -0.04276735 -0.09530593 -0.019215802 -0.12496447
-0.014890283 0.039042056 -0.009815351 0.045100734 -0.20657435 0.006035166 -0.10417071 -0.12561388
-0.039090432 0.01455085 -0.048848704 -0.15760523 -0.081000015 -0.17291479 -0.02000527 -0.23804782
0.0050174394 -0.042712394 -0.0047800643 -0.122423954 -0.23145097 0.023511799 -0.10766215 0.08320806
-0.025644567 0.0072392914 0.05730642 0.028505184 -0.03894764 -0.12092493 -0.10764835 -0.013834051
0.017773261 -2.0107895e-05 -0.063039094 0.090578854 0.0125242 -0.020376766 0.05066061 0.018689519
0.045380652 0.05512607 -0.026550777 0.055002745 -0.03805425 0.019421933 -0.008759554 -0.009493435
0.028880991 -0.058773655 0.03347605 0.032513853 -0.010414589 -0.058709137 -0.040735442 0.031765435
0.063388586 -0.046275456 -0.08760971 -0.08757174 0.002389676 -0.021657376 0.059570245 -0.13170408
-0.06279392 -0.00026268762 -0.013905729 -0.007125513 0.015050644 -0.12872382 -0.006459158 -0.0967179
-0.106183924 -0.066202745 0.041751724 0.16577427 0.023560466 0.004836109 -0.03335581 0.0145562785
