output/TimeGAN/stock/train/weights/netE.pth (torch, 375935 bytes, 18 tensors)

rnn.weight_ih_l0 f4 [192, 8]
00000000: 6100 a23d 0190 eb3c bf91 77bd 3639 3cbe
00000010: 6a1c 613d a0b1 0abe 7703 57be 8703 203e
00000020: 99f4 3b3e b735 6abd 3cb7 463d 13f0 afbc
00000030: 1a03 773e 7db7 83bb c249 e93c d661 a03d
00000040: 7553 883d 040a b7bd 419a a9bd 6f69 43bc
00000050: bbcd cb3a f35c 3dbe 88bb 5dbe ec0b df3b
00000060: 6ca0 5abd 77bf 5dbe ab73 3e3e d7b6 923d
00000070: c30b 783e fc32 0b3d 2ee5 b73d db59 e5bc
00000080: 2436 883e 57a9 ac3d d57e 233e f2b2 873e
00000090: b398 4a3d 0f42 1abd 3dc1 b43d 2692 8e3e
000000a0: 4674 1e3b 5a7a b4bc 9766 0b3e 0956 0d3e
000000b0: 91a4 11bc b361 cabd e15c 8ebd eb62 14bd
000000c0: 5fb3 4d3e eaf2 263e bec5 393d f388 0c3d
000000d0: f2a5 183e 485c 3bbe c5f3 e0bc fbe1 c2bd
000000e0: 8f96 54ba af4f 913e 8b83 c2bd 1211 b43d
000000f0: c335 233e 27f7 45bd a4ba ce3d bd8f 1a3e
00000100: 96f9 6e3d d347 59be 54e1 e1bd 8d2c 9dbe
00000110: bc70 0cbe 31cf b63d a5e4 9bbe 82a0 3abe
00000120: 3508 373d 050a 253e 0645 863e b818 8d3c
00000130: ac76 56bd fa20 51bd 22a9 133e 7083 0f3e
00000140: 3671 113e d574 543e 66f9 1e3e edd6 a9bc
00000150: 27e1 b9bd 5f66 073e 7571 023e e0af e63d
00000160: 4c7e aabd bd2a 4dbc e15e 9a3e 051b 393e
00000170: eeca 7cbd 974d 97bb d5ff 733d 1d31 8e3d
00000180: 575a 4b3e 87b8 f0bc 273b 4a3c 941a 673e
00000190: e81b 2c3e 7139 63bd ec85 d53d c80a 5d3e
000001a0: 41f5 8f3d 8b2f 963b e2a4 1a3e a56c 823d
000001b0: 2049 ac3d 5379 85bd 9027 0d3e 25a3 d13d
000001c0: c121 38be 0350 e43d 766d f43d b206 99bd
000001d0: 2725 ab3c 796f 33bd e649 a2bb 3d4f d23d
000001e0: ecc8 dabd c5a7 323e 10b2 e73c f1a1 be3d
000001f0: 0184 433d b533 ed3d f832 f03d e280 243d
00000200: d013 223e f23a 62bd ecca 39bd 31d0 c83d
00000210: 1603 5bbd f705 693d 7dca 20be 0795 fb3c
00000220: 5d12 a83d 5cfb 233e 1380 193e f61a dd3d
00000230: 8134 303c aa07 143d 6132 14bd e738 afbd
00000240: 1289 e1bd a925 ffbd 7453 43bd 7648 99bc
00000250: cd12 873d 3e01 323d edbc 68bd 55a1 bebc
00000260: d343 a0bc c74a 823e cb9c 503d aa76 103e
00000270: 161b 893e 9804 c33d df98 3f3b 3724 143b
00000280: 90c2 12bc e27e fd3d 24a2 3e3d 4884 0a3d
00000290: edc1 1f3e 9c5a 253d e79e 5a3d d142 093e
000002a0: 03eb 5bbb 522e 1a3e 8d30 c23b 94ce 40be
000002b0: 3379 14be 45b3 4ebe 5f21 49bd 432d a73c
000002c0: 3624 0d3e 3afd 1e3d e1f3 eb3d 1dff 2f3d
000002d0: bbe9 853e 21f7 1b3d 759e 3e3e 24e6 813e
000002e0: a99c cd3d 7eaa cb3d 7c85 903e 634e c73d
000002f0: a211 953c 3ad9 32bb fd5f 233e 9155 5c3e
00000300: 12e2 773d fe15 2bbd 9557 8f3e c658 523d
00000310: 450b 4f3c 9ff1 643e a24e dc3d 03e0 ab3e
00000320: 8fe0 98bd 0d16 4b3e 2f13 e1bc aa9a 453e
00000330: bebe 133c afd6 a5bd 15ea db3d 7062 13bd
00000340: 0bc1 05ba eed8 063e 5c18 ce3c da0e f73d
00000350: 04f9 e3bc db17 8c3c ea99 c03d 6e2f 7d3e
00000360: 8250 403e e15a 96be ded0 a43e 7e44 963d
00000370: 6866 413c 0c22 073e 00cf 713d e850 983d
00000380: 8509 973e fb8a 363d 1ee8 073e ad33 323e
00000390: ef31 9abd 742d 1dbf 1e2e e8be b68f 84bc
000003a0: 896e 11be 1154 bd3b c0ff a8bd 3810 de3d
000003b0: 17c7 2d3e 98c3 0a3c 6fa3 2d3d 533f 5a3e
000003c0: 62ee c03d b393 37be 4ed6 04bc b6a5 01bd
000003d0: 9b31 a13d f599 3a3e bd0e 923d 1b1b 31bc
000003e0: 8ad4 b03d 03e8 9ebd e6e0 103e 9abb 2e3d
000003f0: 9e4e 1e3d 5b7a f53b b490 233e b79c 253e
0.079102285 0.02875519 -0.06044173 -0.18381199 0.05495874 -0.13544321 -0.20997415 0.15626346
0.18355025 -0.057180133 0.04851459 -0.021476781 0.24122277 -0.0040196762 0.028477553 0.07831161
0.06656543 -0.08937457 -0.08281375 -0.011926993 0.0015548983 -0.18492489 -0.21653569 0.006806841
-0.053375646 -0.2165507 0.18598811 0.0716378 0.24223237 0.03398417 0.089792594 -0.027996948
0.26603806 0.084307365 0.15966351 0.26503712 0.04946203 -0.037660655 0.0882592 0.27845877
0.002417819 -0.022030998 0.13613354 0.13802351 -0.008889333 -0.09881916 -0.06951309 -0.036227148
0.20087956 0.16303602 0.045354597 0.034310292 0.14907053 -0.18296921 -0.027459988 -0.095157586
-0.0008109593 0.28381106 -0.09497746 0.087923184 0.15938477 -0.048331406 0.100941926 0.15093894
0.058343492 -0.21218805 -0.11029306 -0.30698052 -0.1371488 0.089262374 -0.3044788 -0.18225291
0.04468556 0.16117103 0.26224536 0.0172237 -0.052359268 -0.05105684 0.14419988 0.14014983
0.14203343 0.20747693 0.15524825 -0.020732367 -0.090761475 0.13222645 0.12738593 0.11264014
-0.083248705 -0.012522397 0.30150512 0.18076713 -0.061716966 -0.0046174037 0.059570152 0.06942961
0.1985868 -0.029384864 0.012343205 0.22568733 0.1680752 -0.055474702 0.10425934 0.21586144
0.070292 0.0045833043 0.1510196 0.063683785 0.08412385 -0.065172814 0.13784623 0.102361955
-0.17981626 0.111480735 0.119349405 -0.0747198 0.020891739 -0.04380748 -0.004952657 0.1026902
-0.10682854 0.17446811 0.028283149 0.093082316 0.04773331 0.11582128 0.117284715 0.040161975
0.1582787 -0.055231996 -0.045359537 0.09805334 -0.05346974 0.056890454 -0.15702243 0.03071071
0.082066275 0.16013855 0.14990263 0.10796158 0.010754705 0.03614012 -0.036180858 -0.08555775
-0.11012472 -0.12458355 -0.04768701 -0.01871131 0.06595383 0.043458216 -0.0568208 -0.023270288
-0.019563591 0.25447676 0.05093078 0.14107767 0.26778477 0.095223606 0.0029235405 0.0022604594
-0.00895752 0.123777166 0.046541348 0.03381756 0.1560132 0.040369615 0.053374197 0.13404395
-0.0033556826 0.15056732 0.005926198 -0.18828803 -0.14499359 -0.20185573 -0.04910409 0.020407325
0.13783345 0.038815714 0.115211256 0.042967904 0.26154885 0.038077477 0.18615134 0.25370896
0.10039646 0.09944628 0.2822684 0.09731748 0.018196885 -0.0027290122 0.15954585 0.21517016
0.06051833 -0.04176902 0.27996507 0.051354192 0.012636964 0.22357796 0.107571855 0.33569345
-0.07464706 0.1983263 -0.027474968 0.19297281 0.009017644 -0.08097588 0.10738007 -0.03598255
-0.0005102313 0.1316869 0.0251581 0.120633796 -0.0278287 0.017101219 0.09404357 0.24725124
0.18780711 -0.2936621 0.32190603 0.073372826 0.011804201 0.13196582 0.0590353 0.07437307
0.2949945 0.044566136 0.1327214 0.17402525 -0.07529055 -0.6139748 -0.45347685 -0.016181808
-0.14202322 0.0057778438 -0.082519054 0.10842937 0.16970478 0.008469485 0.04239219 0.21313219
0.09420468 -0.17927437 -0.008107735 -0.031652175 0.078707896 0.18222792 0.07131717 -0.010809685
0.086342886 -0.077590965 0.14148292 0.04265938 0.038649194 0.0074913925 0.15973169 0.16173063

rnn.weight_hh_l0 f4 [192, 64]
00000000: 3667 1dbd 9805 8c3e fabf 9b3d a689 253b
00000010: 5929 a6bc b7e3 cabd 7570 59ba 729d 3a3e
00000020: d4fd d0bd e179 36bd a930 12be c222 003d
00000030: 6e8c 3c3e f8d2 273e 3f09 573d 97db 0fbe
00000040: 34d0 cd3d 29b9 83bd 3e85 66bd 4433 8d3b
00000050: 827f b1bc 15cf dfbd 9f90 233e 7834 f83b
00000060: 2806 903e d82c 0abe f034 81bb 9c7f 46bc
00000070: 7779 0e3d 712f 4e3e 52b0 f43d c013 123e
00000080: 2c7c 07be 76d5 ab3d d915 39be 7e3b 51bd
00000090: 1654 fabd 3912 b03a 4c19 12be aec2 07be
000000a0: 34ad 4f3d 54ac 353e ce63 dabd 4d7d 12be
000000b0: d294 173e ffff 1ebd 1a76 d43d edf7 1e3d
000000c0: a097 03bd e972 f1bc 271a 34bd 4af4 fdbd
000000d0: d4a1 05be 8c4e 4dbd 3479 f9bd eae3 803e
000000e0: 739c a8ba a079 713e 5875 02bd 012a 203e
000000f0: 4091 d5bc 2f65 91bd 6cf3 d63d 5955 823c
00000100: ff35 d43d ed49 8cbc 65ce 933d 4636 d9bd
00000110: c0dd 353e 535a cdbd 8ca1 48bd 43b1 413c
00000120: 1477 d9bd 6d26 0f3d 78d5 0dbe eed8 e8bd
00000130: 25b9 063d 62f8 fa3d 3c8d 5b3d 640c c4bd
00000140: a469 a83d 13c3 61bd 4d38 9dbd 7f34 10bd
00000150: 5a89 373c 360b 6bbd 7673 673e 20b3 0ebe
00000160: 346a cdbd ddc6 edbd d614 d13d 1552 a3bc
00000170: bfc3 273d 57d8 a2bd 46d8 c93c d30e 9b3d
00000180: 4bec bebb 9672 32be 37b7 f8bb a666 cd3d
00000190: 5b9c 82be f280 753d 519d 08be 6c20 55bd
000001a0: 2991 433d 8001 5b3b 05cc de3d fdf9 143e
000001b0: 6d5e 9f3d f6f4 27bc 19e6 693e 1d61 b2bd
000001c0: ed04 9cbd 12f9 a7bc 77a2 aa3d 6377 e1bd
000001d0: a57b babd 34db bf3c c06c d6bd 6274 a7bc
000001e0: af76 ce3c 47c2 943c dc1c 7c3d 348d 413d
000001f0: 3a56 7abb 79be 883d 3efa 953d 5ce3 19bd
00000200: cd61 7abd f007 f13d a150 00be dbf8 8a3c
00000210: 4dd8 b4bd ebd8 a03d 1dbc 9cbd 6065 f8bd
00000220: 4fea b63d c1f6 ff3d 8aad eabd ae89 debd
00000230: 8aa1 5c3d e3d8 a73c 1075 0dbd a788 b33c
00000240: 8d2a 593d be77 b6bd ca08 e43c d70e b83c
00000250: a5df f03d 9060 ee3c 0f15 25bd 3bf6 b63d
00000260: 7220 c93d a4a6 c6bc 1060 db3d f52c 1e3e
00000270: f88a 9abd c246 77bd e348 bc3d a281 0d3e
00000280: c49c 0cbe 3387 163d 2cb9 16bd 58b0 303d
00000290: 6b70 c43c 66a9 eb3d 354e 8e3d dcde 103e
000002a0: 7aa6 39bd f5c7 d73b 4374 9bbd 4db8 b33d
000002b0: fb71 d13d 6519 7fbe 0876 0f3d 0223 b73d
000002c0: b6b8 01be 4637 20bd 6252 d8bd fc1e 0f3d
000002d0: 77d9 4b3d 9902 fc3d 2711 58be f35f 26be
000002e0: ec14 4dbd 241c a8bc 1e76 bf3d 29f0 c3bd
000002f0: 8fe8 513e 373b 193e 35ea e0bc 733f 3cbd
00000300: 3833 88bd a0ae e13d 28ab c93d 9e3d 09bd
00000310: d3c9 bcbc 4e23 523d 0d58 8cbd 0e2c 89bc
00000320: 86d5 21be 98be c3bd 1e80 1fbe a09c a83d
00000330: bf70 e83d fb0f 6f39 7ac2 e53c 4f03 b3bd
00000340: a751 a53d ce06 96bd bc9b 743c ee06 5e3c
00000350: 0564 bfbd d2e7 43bd ef15 f33b f348 e93c
00000360: 8f40 14ba 7520 d2bd b516 d83c 9f2d e6bd
00000370: da9b ae3d f517 713c 7a2e 12bd 5b20 a7bd
00000380: 68ce 4a3d e646 6cbc d5b9 123d 0da1 b23c
00000390: 6b05 d2bb 35f7 7dbc 419e 1f3d a9aa 583a
000003a0: 868f cc3d 7889 9cbb a341 d4bb 811e a93c
000003b0: c61b a43d 90f9 183e c0a8 353c c67a 6c3d
000003c0: 3404 16be fabb a6bd 5d25 b73b 471a dbbd
000003d0: f753 5abd 3cf2 cebc c184 a13c b698 fa3d
000003e0: cfdf 81bd a58a 8a3d 3033 ed3c aa1b f0bd
000003f0: 3414 24bd 26c6 86bd 5e81 9cbd 4962 503d
-0.038428508 0.27348018 0.07604976 0.0025259047 -0.020283388 -0.099067144 -0.00082946505 0.18224123
-0.10204664 -0.044549827 -0.14276375 0.031283148 0.18412945 0.16389072 0.052499052 -0.1404861
0.10049477 -0.06431801 -0.056279413 0.00430909 -0.021667246 -0.1092817 0.15973137 0.007574614
0.28129697 -0.13493669 -0.003943078 -0.012115385 0.034783807 0.20135285 0.11947693 0.14265347
-0.13230962 0.08390324 -0.1807474 -0.051082127 -0.12223069 0.0013433165 -0.14267462 -0.13257858
0.05070229 0.17741519 -0.106635675 -0.14305611 0.14802864 -0.038818356 0.103740886 0.03881066
-0.032127023 -0.029473739 -0.043970253 -0.1240011 -0.13050014 -0.050123736 -0.12181321 0.25173885
-0.0012864008 0.23581553 -0.03185019 0.15641023 -0.026070237 -0.07099377 0.10495648 0.015909838
0.103618614 -0.017125094 0.07217101 -0.10606055 0.17760372 -0.100269936 -0.048982188 0.011822048
-0.106184155 0.034948755 -0.13850963 -0.11369501 0.03289141 0.122544065 0.05360149 -0.09572676
0.08223274 -0.055117678 -0.07676754 -0.035206314 0.011202181 -0.05738374 0.22602639 -0.13935518
-0.10030022 -0.11610196 0.10209052 -0.0199366 0.040958162 -0.0795142 0.02463926 0.07571187
-0.005826508 -0.17426524 -0.0075902003 0.10029344 -0.25509915 0.059937425 -0.13341261 -0.052032873
0.047745857 0.0033417642 0.108787574 0.14548488 0.07781682 -0.010251274 0.22841682 -0.08709929
-0.07618127 -0.020504508 0.08331769 -0.11009099 -0.091056146 0.023419954 -0.10469961 -0.020441238
0.025203077 0.018159045 0.06155096 0.047253802 -0.0038198368 0.06676955 0.073231205 -0.037570342
-0.061128426 0.11769092 -0.12530757 0.016964367 -0.088303186 0.07853874 -0.07653067 -0.12128711
0.089314096 0.124982364 -0.11458881 -0.10866104 0.053864993 0.020489162 -0.034535468 0.021915747
0.053019095 -0.08909558 0.027836222 0.022468014 0.11761407 0.029098779 -0.040303286 0.089336835
0.098206416 -0.024249382 0.10711682 0.15446837 -0.075460374 -0.060370214 0.091935895 0.13818982
-0.13731676 0.03675003 -0.036797687 0.043136925 0.023979386 0.115069196 0.069485106 0.14147514
-0.04532478 0.006585116 -0.075905345 0.08775387 0.10226818 -0.24912031 0.035024673 0.08942224
-0.12668118 -0.039115213 -0.10562588 0.03494166 0.049767938 0.12305183 -0.21100293 -0.16247539
-0.05006878 -0.020521231 0.09348701 -0.09567291 0.2049887 0.14963995 -0.027455429 -0.045958947
-0.06650394 0.11019635 0.098470986 -0.03350603 -0.023045456 0.0513032 -0.06852732 -0.01674464
-0.15804109 -0.09557837 -0.15576217 0.08232999 0.113496296 0.0002279877 0.028046835 -0.087408654
0.080722146 -0.07325517 0.014929708 0.013551457 -0.09345249 -0.047828503 0.007418386 0.028477168
-0.0005655372 -0.10260097 0.026378015 -0.1123917 0.0852582 0.014715184 -0.035688855 -0.08160468
0.04951325 -0.0144212 0.035821754 0.02180531 -0.0064093373 -0.015500833 0.038969282 0.00082651764
0.099883124 -0.0047771297 -0.006477551 0.020644428 0.0801311 0.1493895 0.011087596 0.057734273
-0.14650041 -0.081413224 0.005589171 -0.106983714 -0.05330273 -0.02526199 0.019716622 0.122361585
-0.06341516 0.067647256 0.028955072 -0.117240265 -0.04005833 -0.065807626 -0.07641862 0.050874982

rnn.bias_ih_l0 f4 [192]
00000000: 4575 84bd ad17 bbbd 456b 9f3b feea 6cbd
00000010: 89b9 98bd 1ea7 4dbc baad e5bc 606a 4cbd
00000020: a3cc 3c3d f882 a2bd f484 3cbd 3dd1 cdbd
00000030: 3eef 2cbd f4ec a5bd ddb4 d43c 3d1b 78bb
00000040: c7c3 9fbc 00e8 1e3b fad0 2a3c bb14 003d
00000050: 40f3 d1bd 5dbc 20bc 1189 b2bc 49c1 08bd
00000060: d95c 35be 65d2 78bd e14d b1bd d4df 41be
00000070: e0d4 fe3c a7ed 2abd 0ad1 b0bb 265e 8ebd
00000080: 6497 84bd ab76 06bd 50f5 bebc cf81 1bbe
00000090: 5d79 35bd 29a5 453c 15b3 1dbd 1210 5cbd
000000a0: 168c c9bb c889 5a3c db17 863d f766 26be
000000b0: f1d4 39bd 5110 b4bd b0f9 3f3d b11b 10bd
000000c0: 8e91 193d 3ec6 39ba ada4 0fbd f4bb edbb
000000d0: d608 adbc 9498 a6bc f811 9fbd bf03 623d
000000e0: 18b7 43bd 65e1 0abe ac86 e63c 9859 19bd
000000f0: 6b99 f0bd ba11 0abe fa28 99bd 381f 33bd
00000100: 86ae 10be 4a44 6abc fc7d 25be cfc7 2bbb
00000110: 5d1b 18be 0b06 9fbd dde5 86bd a1e8 d9bd
00000120: a1eb c9bd 04c6 3ebe 150c d9bd 518d 9ebe
00000130: c0d2 6ebd a5f9 fdbd 26f9 01be 3198 933c
00000140: ba0d 41bd 58c7 67bd eaa9 00be 0780 c5bd
00000150: d4b8 20be 2607 0abe 9e11 9cbd 126b 31be
00000160: 11cd aabe 47ff 9ebd 7baa 9abd b491 27be
00000170: 6472 14be ad01 83bd e7bb 4ebe de6a 6abe
00000180: 1fb9 a6bd 895b b1bd 694c 98bd 33a6 31be
00000190: e923 2fbe 01f2 25bd baf4 8dbd 5f57 7bbd
000001a0: 3742 853c a327 043e c825 b6bd 1052 b7be
000001b0: f856 4bbe f4dc 4fbe 3c2f 593c 8600 aabe
000001c0: 2be0 35be 028f 173d de81 4ebd bed1 8bbe
000001d0: 7e17 8dbc 9ca1 88bd 4621 f7bd 91a9 1ebe
000001e0: c8d5 f2b9 0999 24be 6ed9 e2bd 14e8 bfbc
000001f0: 1076 16be c38f c3be 1c66 b6be 6a7f a2bd
00000200: 69c8 f83c f957 f3ba ed59 d5bd 30cc 8dbc
00000210: f75e 3e3c e1f8 a73d 68f2 073d dc3f debb
00000220: 8e5c 01bd 8d71 6e3b 42f7 bbbb 239d b6bc
00000230: 765a 89bc 2192 f8bc 7a1f c2bd f90e 933c
00000240: 9b17 973b 3a01 4f3d 8b7e d63c 6fac f93d
00000250: 4c01 67bc 4aac bd3d 37f4 48bd 67ed 03bd
00000260: e57c 8db9 1949 b3bc 022e 8fbc 42bd c0bc
00000270: 4d67 7f3d d523 93bd a585 9aba b1eb 123c
00000280: 786d c03c 999d f3bb 7349 e33c a426 4b3d
00000290: a1d7 a53d 6dcd 963c 6dac 213d 5ab5 723c
000002a0: af10 2abd 4fdd b1bc c6bb 9cbd 5594 96bd
000002b0: 0ed0 373c 4f65 f4bc 6de6 3fbd 1362 c53d
000002c0: adad 5f3d 8be6 01bd bc57 ab3b d418 8f3d
000002d0: 2208 7d3c 31eb f83b 4578 723c bbee 01be
000002e0: 0d20 66bd 85f2 a9ba c463 c7bd 2078 2ebd
000002f0: 87c1 c93c d933 da3c d5f2 0ebd e0c8 5d3b
-0.0646768 -0.09135375 0.0048650824 -0.057841294 -0.07457263 -0.012552051 -0.02803694 -0.049906135
0.046093594 -0.079351366 -0.04602523 -0.10049675 -0.042220347 -0.08101836 0.025965149 -0.0037858032
-0.019502534 0.002424717 0.0104258 0.03126977 -0.102514744 -0.009810534 -0.021793874 -0.033387456
-0.177112 -0.060747523 -0.08657432 -0.1893304 0.031107366 -0.04173055 -0.005396013 -0.06951551
-0.06474188 -0.032828014 -0.023310333 -0.15186237 -0.044305194 0.012063303 -0.038500864 -0.053726263
-0.0061507327 0.013338514 0.06547519 -0.16250215 -0.045369092 -0.087921746 0.04686898 -0.03518266
0.037492327 -0.00070867303 -0.035069156 -0.007255072 -0.021122377 -0.020336427 -0.07767099 0.055179354
-0.047782034 -0.13562544 0.028140388 -0.03743896 -0.11748012 -0.13483325 -0.07478519 -0.043730944
-0.14129075 -0.014298508 -0.1616134 -0.0026211624 -0.14854188 -0.077648245 -0.06586812 -0.106400736
-0.09859396 -0.18630224 -0.105980076 -0.3096719 -0.058306456 -0.124011315 -0.12692699 0.018016906
-0.04713223 -0.056586593 -0.12564817 -0.0964356 -0.15695506 -0.1347929 -0.07620548 -0.17326
-0.33359578 -0.07763534 -0.07552048 -0.16364175 -0.14496762 -0.06396804 -0.20188867 -0.22892329
-0.08140778 -0.08660037 -0.07436449 -0.17348556 -0.17103542 -0.040513996 -0.069314435 -0.06136262
0.016266925 0.12905745 -0.08893925 -0.35804796 -0.19857395 -0.2029913 0.01325589 -0.33203524
-0.17761295 0.037001617 -0.05041682 -0.27308458 -0.017223116 -0.066714495 -0.12066893 -0.15494372
-0.00046317116 -0.16074003 -0.11076628 -0.023426093 -0.14693475 -0.3819562 -0.35624778 -0.079344586
0.030369 -0.0018565647 -0.104175426 -0.017309278 0.011619321 0.08201767 0.03319016 -0.006782515
-0.031582408 0.00363836 -0.0057362625 -0.022291726 -0.016766768 -0.030343117 -0.0947866 0.017951475
0.0046109683 0.05053828 0.026183387 0.12191092 -0.01409943 0.09261377 -0.049061026 -0.032208826
-0.0002698667 -0.021885442 -0.017477993 -0.023527745 0.062354375 -0.07184569 -0.0011789097 0.008967326
0.023489699 -0.0074345586 0.027744984 0.049597397 0.080977686 0.018408502 0.03947108 0.014813745
-0.041519817 -0.021711973 -0.076530024 -0.07352511 0.011219038 -0.029833464 -0.04685061 0.09637847
0.05460899 -0.031714004 0.0052289646 0.069871575 0.015443834 0.0075963964 0.014799182 -0.12688725
-0.05618291 -0.0012965953 -0.09735826 -0.04259503 0.024628414 0.026636051 -0.03489955 0.0033841655

rnn.bias_hh_l0 f4 [192]
00000000: 4575 84bd ad17 bbbd 456b 9f3b feea 6cbd
00000010: 89b9 98bd 1ea7 4dbc baad e5bc 606a 4cbd
00000020: a3cc 3c3d f882 a2bd f484 3cbd 3dd1 cdbd
00000030: 3eef 2cbd f4ec a5bd ddb4 d43c 3d1b 78bb
00000040: c7c3 9fbc 00e8 1e3b fad0 2a3c bb14 003d
00000050: 40f3 d1bd 5dbc 20bc 1189 b2bc 49c1 08bd
00000060: d95c 35be 65d2 78bd e14d b1bd d4df 41be
00000070: e0d4 fe3c a7ed 2abd 0ad1 b0bb 265e 8ebd
00000080: 6497 84bd ab76 06bd 50f5 bebc cf81 1bbe
00000090: 5d79 35bd 29a5 453c 15b3 1dbd 1210 5cbd
000000a0: 168c c9bb c889 5a3c db17 863d f766 26be
000000b0: f1d4 39bd 5110 b4bd b0f9 3f3d b11b 10bd
000000c0: 8e91 193d 3ec6 39ba ada4 0fbd f4bb edbb
000000d0: d608 adbc 9498 a6bc f811 9fbd bf03 623d
000000e0: 18b7 43bd 65e1 0abe ac86 e63c 9859 19bd
000000f0: 6b99 f0bd ba11 0abe fa28 99bd 381f 33bd
00000100: 86ae 10be 4a44 6abc fc7d 25be cfc7 2bbb
00000110: 5d1b 18be 0b06 9fbd dde5 86bd a1e8 d9bd
00000120: a1eb c9bd 04c6 3ebe 150c d9bd 518d 9ebe
00000130: c0d2 6ebd a5f9 fdbd 26f9 01be 3198 933c
00000140: ba0d 41bd 58c7 67bd eaa9 00be 0780 c5bd
00000150: d4b8 20be 2607 0abe 9e11 9cbd 126b 31be
00000160: 11cd aabe 47ff 9ebd 7baa 9abd b491 27be
00000170: 6472 14be ad01 83bd e7bb 4ebe de6a 6abe
00000180: 1fb9 a6bd 895b b1bd 694c 98bd 33a6 31be
00000190: e923 2fbe 01f2 25bd baf4 8dbd 5f57 7bbd
000001a0: 3742 853c a327 043e c825 b6bd 1052 b7be
000001b0: f856 4bbe f4dc 4fbe 3c2f 593c 8600 aabe
000001c0: 2be0 35be 028f 173d de81 4ebd bed1 8bbe
000001d0: 7e17 8dbc 9ca1 88bd 4621 f7bd 91a9 1ebe
000001e0: c8d5 f2b9 0999 24be 6ed9 e2bd 14e8 bfbc
000001f0: 1076 16be c38f c3be 1c66 b6be 6a7f a2bd
00000200: 167f d23c 3732 e23b 3e78 bbbd 51a1 06bc
00000210: ac2e 8f3c 1da6 8b3d cbb3 fa3c 886a 23bb
00000220: 6566 41bd f87c 34ba c191 debb 4fab 34bd
00000230: cb09 53bc 321a aabc 4284 b0bd 201a d53b
00000240: 535e 823c 8ca0 2f3d 2c67 cb3c 861e d53d
00000250: 3906 303a 682e a73d 2f9b 6cbd 6852 91bc
00000260: 574d 8c3c 0e1e b4bc 15b5 cabc be08 a4bc
00000270: 076c de3c c804 86bd 8fbf ebb9 ade7 d73a
00000280: 37da d23c 8c68 78bb d594 fa3c 5aa0 2c3d
00000290: 4eec ce3d b54d 8d3c 4f64 193d 1502 313c
000002a0: bbf4 25bd 1e7f 82bc d252 cabd 2518 dabd
000002b0: b1fd 943c f0ee 2fbd 3495 30bd 0c3a ea3d
000002c0: 6c11 553d b00d dbbc 867e b8b8 06ba 6e3d
000002d0: fafb 203c ffec 923a f6f5 2d3c 2c86 04be
000002e0: 00f1 67bd 02db af3b d6da b9bd f461 0fbd
000002f0: 9e76 5a3d a7a0 833d a070 31bd d0ae af3b
-0.0646768 -0.09135375 0.0048650824 -0.057841294 -0.07457263 -0.012552051 -0.02803694 -0.049906135
0.046093594 -0.079351366 -0.04602523 -0.10049675 -0.042220347 -0.08101836 0.025965149 -0.0037858032
-0.019502534 0.002424717 0.0104258 0.03126977 -0.102514744 -0.009810534 -0.021793874 -0.033387456
-0.177112 -0.060747523 -0.08657432 -0.1893304 0.031107366 -0.04173055 -0.005396013 -0.06951551
-0.06474188 -0.032828014 -0.023310333 -0.15186237 -0.044305194 0.012063303 -0.038500864 -0.053726263
-0.0061507327 0.013338514 0.06547519 -0.16250215 -0.045369092 -0.087921746 0.04686898 -0.03518266
0.037492327 -0.00070867303 -0.035069156 -0.007255072 -0.021122377 -0.020336427 -0.07767099 0.055179354
-0.047782034 -0.13562544 0.028140388 -0.03743896 -0.11748012 -0.13483325 -0.07478519 -0.043730944
-0.14129075 -0.014298508 -0.1616134 -0.0026211624 -0.14854188 -0.077648245 -0.06586812 -0.106400736
-0.09859396 -0.18630224 -0.105980076 -0.3096719 -0.058306456 -0.124011315 -0.12692699 0.018016906
-0.04713223 -0.056586593 -0.12564817 -0.0964356 -0.15695506 -0.1347929 -0.07620548 -0.17326
-0.33359578 -0.07763534 -0.07552048 -0.16364175 -0.14496762 -0.06396804 -0.20188867 -0.22892329
-0.08140778 -0.08660037 -0.07436449 -0.17348556 -0.17103542 -0.040513996 -0.069314435 -0.06136262
0.016266925 0.12905745 -0.08893925 -0.35804796 -0.19857395 -0.2029913 0.01325589 -0.33203524
-0.17761295 0.037001617 -0.05041682 -0.27308458 -0.017223116 -0.066714495 -0.12066893 -0.15494372
-0.00046317116 -0.16074003 -0.11076628 -0.023426093 -0.14693475 -0.3819562 -0.35624778 -0.079344586
0.025695365 0.0069029587 -0.09153794 -0.008217172 0.01747831 0.06818793 0.03060331 -0.0024935324
-0.04721679 -0.0006885077 -0.0067922776 -0.044108685 -0.012880753 -0.020764444 -0.08618976 0.0065033585
0.015914118 0.04287772 0.02482947 0.104062125 0.00067147944 0.08163148 -0.057765182 -0.01773949
0.017126722 -0.021986987 -0.02474455 -0.0200237 0.02715112 -0.06543881 -0.00044965415 0.0016472243
0.025738819 -0.0037904112 0.030588547 0.04214511 0.10103665 0.017248968 0.037449177 0.010803719
-0.040516596 -0.015929755 -0.09879078 -0.106491365 0.018187376 -0.042952478 -0.04311104 0.11436853
0.052018568 -0.026739925 -8.7973705e-05 0.058282875 0.009825701 0.0011209546 0.010617724 -0.12941808
-0.05662632 0.005366684 -0.09074943 -0.035005525 0.05333578 0.064271264 -0.0433203 0.0053614154

rnn.weight_ih_l1 f4 [192, 64]
00000000: c35c 613c d320 1a3d ea72 dabd 40f2 b43d
00000010: 0d79 9dbd b38b e23c 2379 7dbe 6c37 583e
00000020: 6b2d f73d 22a5 e4bd 6ef8 7ebe ba85 ebbd
00000030: 28b7 443d 3292 783d 1ec3 5e3d 2b73 b6bd
00000040: 54d9 9dbd 00e2 0fbe bbc9 01be 91f5 9d3d
00000050: d0a1 61bc c01e cf3c 2765 21bd 0b9b f63d
00000060: 0f9a 263b e567 7f3e a48c 4bbd 6896 53bd
00000070: ebb5 173e 215e 113e 4e06 e83b 82d7 bfbd
00000080: 664a 68be 0545 62bc 0285 a0bd 49fa 98bd
00000090: 671b bcbd cde7 f23c 6f41 0b3c 6275 a1bd
000000a0: 75a9 94bd 2be5 ad3d fe6d d2bc 2bb3 8e3d
000000b0: fbeb 373e 08bf ac3d 857f f33d 0419 7f3c
000000c0: 4291 88bd cc8c b8bd 2037 8d3d 5fcc 24be
000000d0: 6ee8 5e3c 0466 0f3d 0ba1 57bd 754e cb3d
000000e0: 44f4 1c3c 727c 0b3c 04f2 973d 9ce1 243e
000000f0: 1349 d5bd 4d8a f73d b90f 463d dc04 153d
00000100: 9688 3a3e 0a5f 103e 082d 81bd 4835 e33d
00000110: 39fb 053e b970 183e 3bae 853d e4e6 b03d
00000120: 9072 e43d c70c a83c 74ef b6bc a8ad 1c3d
00000130: 731a 003c 6846 f73d e46c 1abe 651d d33d
00000140: 6d78 38bc 3b90 943c 5925 9dbd b22d 95bc
00000150: 8a0d 65bd 0c3d 0b3e 5771 113c 0b06 073d
00000160: 3807 2ebe ff80 5ebc 2618 033c 15e3 4ebe
00000170: ff4b bcbd b9e3 e3bc ceee 4fbd 4cf7 a0bc
00000180: ee23 733d 6ddf bdbc d84c 0a3e a6b8 2c3d
00000190: 230e 8b3d 99d1 cebd ab54 e13d e240 fc3d
000001a0: 0d79 2bbe 44db 58be 653c 6cbc a1e5 31be
000001b0: a4af 013e b0a2 07be e8ea 1abe 9fa8 70bd
000001c0: 97bb a1bd 2931 00be 0f10 b0bd ea32 343d
000001d0: 1b79 2fbd c5ca 94bc 821f c1bd 108c 9fbd
000001e0: 64e2 f63d 6af3 213d dc05 b9bc 4e52 01bd
000001f0: 79d2 05be 870a 24bb a179 663d b2ba b53c
00000200: 203c 89be 7ff9 1a3d 4e52 8c3e 35d7 363e
00000210: 229f d0bd 4bfe 10bd e800 40be b4db b53d
00000220: 668c a03d 4c2b 813d 0763 07be 0c92 823d
00000230: bf59 243e 0224 883e a953 5b3e 9052 8dbe
00000240: 832b de3d 8140 84be d028 03bd 1afb 33be
00000250: c101 9abd 275d 83bd 867d 113c 8b31 8d3d
00000260: 57b9 3c3e 3cad 4b3d f183 2b3e 289d 5e3d
00000270: 5828 303e bc3e 9c3d 380f 7fbd 8f54 153e
00000280: dac8 1fbc 4ffd 013e 384b 80be 5f28 8dbe
00000290: d6ff 8fbe ca55 19be 8cff b7bd 9ab5 38be
000002a0: bae4 da3d 0c0d 313e 8623 2cbe 9f50 12be
000002b0: 528b 6cbb f211 c23d e113 5a3d c291 83be
000002c0: d7b8 febd 79a1 213e 78b4 9fbd f97f 3dbe
000002d0: dea2 dfbd 1630 0fbd bfd8 5f3e 53b1 843e
000002e0: 2cec c53d 4a68 0b3d b214 383e 3f8d 073e
000002f0: 267f b1be 8b6b 54be ef7f 933e 6e42 39ba
00000300: 1c4f 893d c03e 9cbc 3c84 043e 5216 e0bc
00000310: 38c0 d93d 0da4 913c 988a 2ebe 5737 0a3e
00000320: 3797 6fbc 1531 f03c 3052 153d 2f4e 6abe
00000330: ebc8 6dbd 4eba a33d 07a4 dd3c 10ab 023e
00000340: c21a 113d 1579 be3d 2c7b a0bc f458 44bd
00000350: fbb1 803c 6d28 063e ddd8 86bc 7d17 963c
00000360: 4c1c 1b3e ac8d b0bc 7b27 243e 26e8 edbd
00000370: 60c4 d53c 3c21 d13d 5a97 b5bd 574d 53bd
00000380: dc33 cdbd e6c4 7cbc a3e6 273d d539 debd
00000390: f264 54bd 57c4 9ebd 2b2b 193e b44a 25bd
000003a0: e844 633d 8208 143e f1f0 f73c 1038 b83d
000003b0: 3dd1 293d 9861 99bd 0757 5a3d 8716 143e
000003c0: 2c44 80bd 6d8b 273d 32b6 35bd 9736 433e
000003d0: f74e ffbd 173d 4cbd b8b2 ba3c abc2 bbbc
000003e0: 301e 183e 9d32 993d 5787 9c3d f564 f33c
000003f0: 2ea2 3cbc 1a43 30bd 0b4a 5bbd 8977 8e3c
0.013755026 0.03762896 -0.10666449 0.08835268 -0.07689104 0.027654504 -0.24753241 0.21114892
0.1206921 -0.11164309 -0.24899456 -0.11500116 0.048026234 0.060686298 0.054385297 -0.08908685
-0.07707468 -0.14051056 -0.1267461 0.07712854 -0.013771489 0.025283217 -0.039403107 0.12041291
0.0025421416 0.24941976 -0.049694672 -0.05165711 0.1481549 0.14196064 0.0070808297 -0.09367277
-0.22684631 -0.013810401 -0.07837869 -0.07469613 -0.09184914 0.029651547 0.008499487 -0.07883717
-0.07258884 0.08490976 -0.025687214 0.06967767 0.17961113 0.08434874 0.11889557 0.015569929
-0.06668331 -0.0901123 0.0689528 -0.16093586 0.01360522 0.0350094 -0.052643817 0.09927074
0.009579722 0.008513557 0.07419208 0.16101688 -0.104143284 0.12086926 0.048354838 0.036381587
0.18216166 0.14098755 -0.06307417 0.11094147 0.13084115 0.1488675 0.065273724 0.08637789
0.111546636 0.020513905 -0.022330977 0.03825155 0.007818806 0.12073976 -0.15080601 0.10308341
-0.0112591805 0.01813518 -0.07673139 -0.018210266 -0.055921115 0.13597506 0.00887712 0.032964747
-0.16994941 -0.01358056 0.008001363 -0.20203812 -0.091941826 -0.027818548 -0.05076485 -0.01964917
0.059360437 -0.023177827 0.13505876 0.042168282 0.06789806 -0.10098571 0.11002477 0.12317063
-0.16745396 -0.21177393 -0.014418696 -0.17372753 0.12664658 -0.13245654 -0.15128672 -0.05875456
-0.07897108 -0.12518753 -0.08596813 0.043993868 -0.042840105 -0.018163094 -0.09429838 -0.07790387
0.12054899 0.03953878 -0.022585802 -0.031572632 -0.1306857 -0.002503069 0.056268338 0.02218375
-0.26803684 0.037835594 0.27406543 0.17855532 -0.10186602 -0.035398763 -0.18750346 0.08879796
0.07839279 0.06307086 -0.1322137 0.063755125 0.1604986 0.26589972 0.21418633 -0.27602053
0.10848143 -0.25830463 -0.032021344 -0.17576256 -0.07519866 -0.06414252 0.008880025 0.06894215
0.18430077 0.049725756 0.1674955 0.054349095 0.1720289 0.07629153 -0.062270373 0.14583038
-0.009752477 0.12694286 -0.25057387 -0.27569863 -0.28124875 -0.14974132 -0.089842886 -0.18038025
0.106881574 0.17290133 -0.16810426 -0.14288567 -0.0036093784 0.09476079 0.053241614 -0.25697142
-0.12437599 0.15784253 -0.077980936 -0.18505849 -0.10919736 -0.034957968 0.21860026 0.25916538
0.09664187 0.034035005 0.17976645 0.13237475 -0.3466732 -0.2074415 0.28808543 -0.0007067089
0.06704542 -0.01907289 0.12941068 -0.027354393 0.10632366 0.01777842 -0.17045057 0.13497673
-0.014623455 0.02932028 0.036455333 -0.22881387 -0.05805294 0.07994519 0.027055753 0.12760568
0.03542591 0.09300438 -0.019589983 -0.047936395 0.015709868 0.13101359 -0.01646083 0.018321747
0.15147513 -0.02155193 0.16030686 -0.116165444 0.026094615 0.10211417 -0.08866759 -0.05158743
-0.10019657 -0.015427804 0.040991437 -0.10850874 -0.05185408 -0.077522926 0.14957874 -0.040354446
0.055485636 0.1445637 0.030266257 0.08995068 0.04145931 -0.07489318 0.053305652 0.14461718
-0.06263003 0.04090445 -0.044363208 0.19063793 -0.12466233 -0.049862947 0.022790298 -0.022919973
0.14855266 0.07480357 0.076430015 0.029711226 -0.011513276 -0.043032743 -0.05353741 0.017390983

rnn.weight_hh_l1 f4 [192, 64]
00000000: d469 b4bd 9cf3 c4bc a408 35be d0ad 353e
00000010: 49d9 873d 2c0f a739 38b9 00bc e805 21be
00000020: adfd e0bd 6919 dd3d 7317 9f3d fa6b d8bd
00000030: f81b 6e3d d669 e1bd 03cc 033e f086 89be
00000040: 327c 3dbd 2e30 03bc 0a3b 3abd e079 7fbd
00000050: a890 793b a285 97bd 830e e9bd 9d3e d93d
00000060: 799a bcbc ffe8 92bd 8f20 263e 1601 c73d
00000070: 840d aa3b 7e62 5a3c 21d6 fbbc 32c8 8abd
00000080: 34d0 63bd 618b 0d3e 3972 49be 68d5 f5bd
00000090: 6f87 063d 67ed 10be 6d93 36bd 7551 a3bd
000000a0: defe c33c 6b63 263e 0ddf e13d 2ea4 d23c
000000b0: 7292 713d f301 2d3d cbdc 02bd 4408 39bd
000000c0: d7e8 6dbd a2d3 573c b78d 0d3d 6373 fc3c
000000d0: 760d 00be 947c 31bc e10a 843d 5097 b03d
000000e0: 8234 96bd 2416 cbbd e92c cd3d c473 a6bd
000000f0: a934 c33d 5329 a33d a939 923d 2dc5 e53d
00000100: ae26 8abe d62d 393d 0480 ea3d d219 dd3c
00000110: 2356 2fbd 6f6e c43d ae00 f43c 0e4f 9cbd
00000120: e50f 86bd f1e6 76bd 85ba a5bd 131e 2fbe
00000130: 2bc8 b93d fb55 dfbb d474 f4bc 3950 d7bc
00000140: d095 d13b f4f0 0abd e6d0 e0bb fadd 82bc
00000150: bcc7 15be 6d35 0f3d 753b 17bc d091 cf3b
00000160: 7ee7 2d3c 37be 04be 9571 3abd ec59 14bc
00000170: 46d9 ec3c 63e5 6abd cec7 193e dad1 5f3d
00000180: b0a2 c5bd 849c 7f3d 3d33 95bc 2d94 f2bc
00000190: 8935 15be 0779 a23d 1802 11bc fe8f 8cbd
000001a0: b025 7fbd 8e32 1abe b8c2 33bc 6ba7 fa3b
000001b0: 8146 fabd 1b24 88bd 92ef 1cbe 0f78 5dbc
000001c0: 775c a3bd 8401 9cbd c696 24be 7854 f73d
000001d0: ae66 533d df48 8c3c a20f bb3d f4bc a23d
000001e0: aff7 bcbd 9f52 b63d ddba ebbc 92de 813d
000001f0: b819 93bc 10e1 b7bb 8bec 92bc ae7c d23d
00000200: 5772 173e efde f0bd 196c ca3d fb60 86bd
00000210: c151 65be b28e bdbd ae30 683d 13d0 b5bd
00000220: 0641 41bd 0b21 b63d 9448 85bc 8a66 6c3d
00000230: b55d 26be bcba 7e3d 9354 05be f966 083e
00000240: e743 b5bd 68be 09bd 9743 d43c 3c73 c3bd
00000250: 27e1 313e 442a 1e3d cf01 193d cf47 0cbd
00000260: 85e9 dfbd e4f4 bdbd 12b2 f63d 6a52 3e3e
00000270: 3a08 4dbe f791 173e 7a98 77be b81e 1abe
00000280: ea19 f03d b8d2 54be 6885 553d 45fe fb3d
00000290: 42b9 343e 34fe 1c3e f797 6fbe 8111 f0bd
000002a0: 31f6 803d a70c 313e 5fa8 793b 6034 3fbd
000002b0: 54ad b03e 6065 08bc ce28 04be 6238 7cbe
000002c0: 844b c23d b33a 653e 9b20 ce3c 6341 0ebc
000002d0: 9938 ea3c d5a9 d43d caf1 053d 09d8 803e
000002e0: b6e9 923d 6ca9 0e3e ab6c 4f3e a5fb 00be
000002f0: 50c6 ef3d e643 823d 7aa5 12be 2311 cc3c
00000300: 246e 85bc 0d13 803d 71d4 c6bd b8c6 28be
00000310: f672 e2bb 9f63 f1bd 4e84 9c3d ad57 b93c
00000320: 05a3 7ebd 5b55 98bd 1d09 f6bb 70f8 303d
00000330: 1724 e1bd 0409 aa3d 4649 c4bc a6e0 ae39
00000340: 32bb 93bd baf7 2fbc d5a7 d83c dafe 073e
00000350: a3c1 483d 2cb2 cbbb 8abb 1d3d 408d a0bd
00000360: e688 30bd 2470 9f3c c78f 793b f634 fbbb
00000370: 26f8 babc 99ae 943c 8601 913d b24b 51be
00000380: 0573 183e 7874 4c3d f425 043e c2f9 b83d
00000390: d52a 883c ff8e 053e e7a8 6a3d f14b f2bd
000003a0: a692 9c3d 4e55 88bd c6b1 48be 1f1b 453d
000003b0: e5f8 03be 2c30 8dbd 26f8 4e3e 6884 07bc
000003c0: 7c95 b0bc 133f 6dbc 4b7d 673b f004 b0bd
000003d0: 0362 443b 3d2e e2bc 659c a43d f16d e43d
000003e0: f259 553c 68da 0b3e 91df 763c 43a4 1a3d
000003f0: 071a b8bc e606 0ebd 7df5 b1bd 8273 8d3c
-0.088092476 -0.024041943 -0.17679077 0.17742085 0.06633241 0.00031864026 -0.00785666 -0.1572491
-0.10985885 0.10795862 0.077681445 -0.1056747 0.05813214 -0.11006515 0.12870793 -0.26860762
-0.04626102 -0.008007092 -0.04546646 -0.06237209 0.0038080607 -0.07398535 -0.11379721 0.10607646
-0.023022877 -0.07173347 0.16223358 0.09717004 0.0051895995 0.013329146 -0.030741753 -0.067764655
-0.05561848 0.138227 -0.19672479 -0.12003595 0.032844003 -0.14153062 -0.04457419 -0.07974521
0.023925241 0.16248862 0.11028872 0.025713053 0.05897755 0.042238187 -0.031948846 -0.0451739
-0.05808338 0.013173016 0.034558978 0.03081674 -0.12505135 -0.010832924 0.064473875 0.086226106
-0.07334234 -0.09916332 0.100183316 -0.08127549 0.095315285 0.07966866 0.07139904 0.11219249
-0.26982635 0.04520973 0.11450198 0.026989851 -0.042806756 0.09591376 0.02978548 -0.07632266
-0.065460004 -0.060278837 -0.080922164 -0.17101316 0.09071382 -0.0068156696 -0.029840864 -0.02628337
0.006396033 -0.033921197 -0.00686084 -0.015974987 -0.14626974 0.03496306 -0.009230484 0.006334521
0.010614274 -0.12963186 -0.045518477 -0.009054642 0.028912198 -0.057347666 0.15017626 0.05464349
-0.09650171 0.062405124 -0.018212909 -0.029611671 -0.14571203 0.079332404 -0.008850597 -0.06863402
-0.0622918 -0.15058348 -0.010971718 0.0076493523 -0.12220479 -0.066475116 -0.15325764 -0.013517394
-0.07976621 -0.076174766 -0.1607314 0.12076658 0.051611595 0.017124591 0.09133841 0.07946196
-0.092269294 0.089024775 -0.028775627 0.0634128 -0.0179566 -0.0056115463 -0.017935058 0.10277687
0.14789711 -0.11761271 0.09883899 -0.06561466 -0.22394468 -0.092557326 0.05668705 -0.08877578
-0.04718115 0.08893021 -0.01626996 0.057714976 -0.16246684 0.062189803 -0.13020544 0.13320531
-0.08850842 -0.03362885 0.025911136 -0.095434636 0.17371045 0.038614526 0.03735524 -0.03424817
-0.10933212 -0.09275225 0.12045683 0.18586126 -0.2002267 0.14801775 -0.24179259 -0.15050781
0.11723693 -0.20783508 0.05212918 0.123043574 0.17648795 0.15331346 -0.23397814 -0.117220886
0.06296957 0.17289983 0.0038094742 -0.046680808 0.3450724 -0.008324951 -0.12906191 -0.24630883
0.0948706 0.22385673 0.025162032 -0.008682582 0.028591441 0.103839554 0.03270129 0.25164822
0.07173483 0.13931817 0.20256297 -0.12595995 0.11707747 0.06360607 -0.14320937 0.024910515
-0.01628787 0.06253634 -0.09708489 -0.16482055 -0.006910677 -0.11786579 0.076424226 0.022624815
-0.062167186 -0.07438155 -0.0075084106 0.04320568 -0.10993212 0.08302501 -0.02396072 0.00033355242
-0.07213439 -0.010740215 0.026447216 0.13280812 0.04901279 -0.006216308 0.03850893 -0.07839441
-0.043099307 0.019462653 0.0038080083 -0.0076662255 -0.022823405 0.01814966 0.07080369 -0.20439032
0.14887626 0.04991576 0.12905103 0.090320125 0.016621986 0.1304283 0.057289984 -0.11830891
0.076451585 -0.066568956 -0.19599065 0.048121568 -0.12887914 -0.06893954 0.20211849 -0.008271314
-0.021555655 -0.01448037 0.0035322483 -0.08594692 0.0029965646 -0.027609939 0.080376424 0.11153782
0.013021933 0.13657534 0.015067951 0.03775431 -0.022473348 -0.034674548 -0.08689401 0.017266992

rnn.bias_ih_l1 f4 [192]
00000000: 548b afbd b3fc 5b3d 8910 1fbe 7670 ddbb
00000010: 6678 15bd fc37 0bbd 78b8 67bd 80a3 2f3d
00000020: fdb3 cfbc 55f4 d73d cb11 743d 29a3 383c
00000030: 5a92 88bd 78ed efbc cc8d 71bd 8eba 87bd
00000040: 6e28 85bd aa5b 8b3c 2448 36bd 3823 d5bd
00000050: 89b4 db3c a3ad 3bbd 9b2d 0ebd 2175 f9bb
00000060: e734 b1bd ee64 b5bd 5c83 b33d 965a 05bd
00000070: 4b38 03be 1a48 373d 04b9 e43c 114a 7cbc
00000080: cdfb dc3d 334a 19bd ebf0 77bd 7e3d a6bd
00000090: 2878 cbbd c2f0 a5bc 6e6d f43d 8595 cf3d
000000a0: 56bf 2abd e0e2 7b3e 1cf3 31bd 40df 46bd
000000b0: c172 2d3e 9788 81bd f7f5 7abd 1da7 743e
000000c0: c663 d9bc eec1 5abc b27e cd3c 171d b9bd
000000d0: 2fa5 6cbd fb27 d1bd a578 9dbd f3a8 09bc
000000e0: f2d5 073d 0af1 85bd 4240 b83d 4f46 d0bc
000000f0: 8755 89bd 3c66 42bd a5f4 a8bd b9f2 e8bd
00000100: aca6 a4be 8d3c c6bc 13b1 913d af85 fc3c
00000110: 1c52 d63c 1dd4 48bc cfed 393c 71c6 7f3d
00000120: 7054 2aba fb9d 7bbf 8db1 86bd 77b9 73bd
00000130: f720 a3bd 3b2d 89bd 3a93 3fbe 3799 b43d
00000140: d60f f7bc 2c55 653c 192a 083d 8fbd 70be
00000150: 2f53 6dbe e442 8bbd 62ad 77bd 495d eabc
00000160: fa05 863d 9cbc e6be a7ef 1a3e 2845 9c3c
00000170: 7a8f a8bd e1ba 66bd ebcb 66be e498 0cbe
00000180: e054 923d 13b1 ea3c 1e3a 8a3c 4612 33bc
00000190: 54d9 d5ba a579 a73c 8c47 36be df35 98be
000001a0: caeb 92bd 57aa 2bbe 16d9 cebd 5905 8bbd
000001b0: 7364 07bf ed70 a33d 29d4 6b3d 4a7a 05bf
000001c0: 2f59 0d3d 8c5c 2d3d 9995 80be 9881 7bbb
000001d0: b931 bc3b 6a34 023e c6c6 173c 6f05 123c
000001e0: f17b cabd 3077 91bd 0a0a 18be 9468 a8bc
000001f0: da63 8ebe 5793 ccbd 7105 d6bc f2d1 26bc
00000200: 6666 1cbe ca24 9f3c f74f 32b9 9a73 4dbb
00000210: d881 103c 0946 2b3d 8689 5dbb d683 27bd
00000220: d5af 7c3c 47ee 11be 879e 5ebd 0556 dabc
00000230: 3051 5f3d d4dd 35bd 1aa7 813d 475b 1c3c
00000240: 4795 d53c 6918 7fbd 35b5 4a38 a08a 40bd
00000250: cec7 dabd 961b d0bc 2e59 8ebc 98eb 943b
00000260: 7738 663c ff17 1fbe 36d3 22bd a8d2 cabb
00000270: f41e eb3b 4aef b53c 7b8e e43d b2e3 753d
00000280: c29f 46bd 6f05 e83a 565d 283c de9e 05bd
00000290: 8bb1 dfbc 94a2 a3bb a795 1a3e 4cfd 0f3e
000002a0: 3c19 8dbc 8fc8 4fbe c01e 453d 49ae f33b
000002b0: 31e9 47be fb50 c8bc 3c19 0a39 2f05 903e
000002c0: 07e5 5fbc a751 68bc 208e 08be 27a0 9e3b
000002d0: b096 813b 0b82 7ebd db6b 84bc 144c 5abd
000002e0: 7eb1 b13b a4e1 aebc fc32 c4bd 1716 993c
000002f0: cc23 9fbd 1d7d 0bbd 5d4b b93c 469c 3f3d
-0.085714966 0.05370779 -0.15533651 -0.006757791 -0.036491774 -0.033988938 -0.056572407 0.042880535
-0.02535438 0.105446495 0.05958728 0.011269369 -0.06668539 -0.029288039 -0.05897312 -0.06627379
-0.06501852 0.017011482 -0.044502392 -0.10407108 0.026819484 -0.04581989 -0.03471146 -0.00761284
-0.086526684 -0.088571414 0.08765289 -0.032557093 -0.12814443 0.044746496 0.027920254 -0.015398518
0.10790215 -0.037424278 -0.06053249 -0.081171975 -0.09935027 -0.020256404 0.119349346 0.101359405
-0.04168638 0.24598265 -0.043444738 -0.04855275 0.16938306 -0.063248806 -0.061269727 0.23891874
-0.026536833 -0.0133519005 0.025084827 -0.090387516 -0.05777472 -0.10212704 -0.07689027 -0.008402097
0.03316302 -0.06540115 0.08996631 -0.02542415 -0.06705766 -0.04746078 -0.08249787 -0.11374421
-0.3215841 -0.024198795 0.07113852 0.030825464 0.0261622 -0.012257603 0.011348202 0.062445108
-0.00064975675 -0.98287934 -0.06576834 -0.059503045 -0.07965272 -0.0669808 -0.18708506 0.08818286
-0.030158918 0.013997357 0.033243272 -0.23509811 -0.23176263 -0.06799868 -0.060468085 -0.028608935
0.06544109 -0.45065773 0.15130483 0.019075945 -0.08230491 -0.056330565 -0.22538726 -0.13730198
0.07145095 0.028648889 0.016873416 -0.01092965 -0.0016315379 0.020443747 -0.1780073 -0.297286
-0.071738794 -0.16764198 -0.100999996 -0.06788129 -0.5288765 0.07980523 0.05757538 -0.52139723
0.03450888 0.042324588 -0.25114134 -0.0038376804 0.005743232 0.12715307 0.0092637 0.008912428
-0.09886921 -0.07102811 -0.1484758 -0.02055768 -0.27810556 -0.0998904 -0.026125642 -0.010181891
-0.15273437 0.019426722 -0.00017005192 -0.0031349421 0.00882002 0.041814838 -0.0033803894 -0.040897213
0.015422781 -0.14251052 -0.054350402 -0.026652345 0.054520786 -0.044401005 0.063307 0.009543247
0.026072158 -0.06227914 4.8329315e-05 -0.047007203 -0.10682641 -0.025403779 -0.017376509 0.0045446865
0.014051548 -0.15536498 -0.039752208 -0.006189663 0.0071753208 0.022208828 0.111599885 0.0600316
-0.0484922 0.0017701815 0.010276159 -0.03262221 -0.027306339 -0.004993746 0.1509615 0.14061469
-0.017223947 -0.20291351 0.04812503 0.007436548 -0.19522549 -0.024452677 0.00013170106 0.28128955
-0.013665444 -0.014179624 -0.13335466 0.004840869 0.003954731 -0.062135737 -0.01616471 -0.05329521
0.00542277 -0.021347828 -0.09580037 0.018687291 -0.077704996 -0.034054864 0.022618944 0.046779893

rnn.bias_hh_l1 f4 [192]
00000000: 548b afbd b3fc 5b3d 8910 1fbe 7670 ddbb
00000010: 6678 15bd fc37 0bbd 78b8 67bd 80a3 2f3d
00000020: fdb3 cfbc 55f4 d73d cb11 743d 29a3 383c
00000030: 5a92 88bd 78ed efbc cc8d 71bd 8eba 87bd
00000040: 6e28 85bd aa5b 8b3c 2448 36bd 3823 d5bd
00000050: 89b4 db3c a3ad 3bbd 9b2d 0ebd 2175 f9bb
00000060: e734 b1bd ee64 b5bd 5c83 b33d 965a 05bd
00000070: 4b38 03be 1a48 373d 04b9 e43c 114a 7cbc
00000080: cdfb dc3d 334a 19bd ebf0 77bd 7e3d a6bd
00000090: 2878 cbbd c2f0 a5bc 6e6d f43d 8595 cf3d
000000a0: 56bf 2abd e0e2 7b3e 1cf3 31bd 40df 46bd
000000b0: c172 2d3e 9788 81bd f7f5 7abd 1da7 743e
000000c0: c663 d9bc eec1 5abc b27e cd3c 171d b9bd
000000d0: 2fa5 6cbd fb27 d1bd a578 9dbd f3a8 09bc
000000e0: f2d5 073d 0af1 85bd 4240 b83d 4f46 d0bc
000000f0: 8755 89bd 3c66 42bd a5f4 a8bd b9f2 e8bd
00000100: aca6 a4be 8d3c c6bc 13b1 913d af85 fc3c
00000110: 1c52 d63c 1dd4 48bc cfed 393c 71c6 7f3d
00000120: 7054 2aba fb9d 7bbf 8db1 86bd 77b9 73bd
00000130: f720 a3bd 3b2d 89bd 3a93 3fbe 3799 b43d
00000140: d60f f7bc 2c55 653c 192a 083d 8fbd 70be
00000150: 2f53 6dbe e442 8bbd 62ad 77bd 495d eabc
00000160: fa05 863d 9cbc e6be a7ef 1a3e 2845 9c3c
00000170: 7a8f a8bd e1ba 66bd ebcb 66be e498 0cbe
00000180: e054 923d 13b1 ea3c 1e3a 8a3c 4612 33bc
00000190: 54d9 d5ba a579 a73c 8c47 36be df35 98be
000001a0: caeb 92bd 57aa 2bbe 16d9 cebd 5905 8bbd
000001b0: 7364 07bf ed70 a33d 29d4 6b3d 4a7a 05bf
000001c0: 2f59 0d3d 8c5c 2d3d 9995 80be 9881 7bbb
000001d0: b931 bc3b 6a34 023e c6c6 173c 6f05 123c
000001e0: f17b cabd 3077 91bd 0a0a 18be 9468 a8bc
000001f0: da63 8ebe 5793 ccbd 7105 d6bc f2d1 26bc
00000200: 4125 27be 8749 7c3c 6efa 10bc 10cf 1d3c
00000210: 5eff 9d3a 343c 0f3d 91a6 753a 66c0 06bd
00000220: 0b7d 7e3c d7ce 25be 8fda 2ebd 2b1a fdbc
00000230: cf47 a13d 90eb ecbc 10e2 033e 22c1 613c
00000240: 17a0 d73c 2073 52bd aedb 013b c261 0dbe
00000250: bf40 e2bd d4ef 03bd e70e 273b 2733 dd3c
00000260: 8b23 d93c 1857 eabd 67f3 39bd 27c1 9cba
00000270: 39cf 8cbb cf66 373c c785 e03d ff99 1a3d
00000280: f6f9 84bd 6354 02b9 6c8b 963c c482 ecbc
00000290: 489f 95bc 3919 29bc 95a1 163e 1c8e 1c3e
000002a0: 48f2 bcbc c3ae 51be 316a 443d 98a9 bd3b
000002b0: afb4 4ebe b6c5 683c 92c2 a1ba 1eda 9e3e
000002c0: e252 2fbd b175 00bc c572 f4bd c31c 493b
000002d0: 7b4b d1bb 470e f9ba 1ca8 aabc cfc3 f0bc
000002e0: b54e 843b 9f5f 03bd 15ea cdbd 9f8a 703c
000002f0: 540a 91bd 12dd 33bd bd9f 903c 6ff4 963d
-0.085714966 0.05370779 -0.15533651 -0.006757791 -0.036491774 -0.033988938 -0.056572407 0.042880535
-0.02535438 0.105446495 0.05958728 0.011269369 -0.06668539 -0.029288039 -0.05897312 -0.06627379
-0.06501852 0.017011482 -0.044502392 -0.10407108 0.026819484 -0.04581989 -0.03471146 -0.00761284
-0.086526684 -0.088571414 0.08765289 -0.032557093 -0.12814443 0.044746496 0.027920254 -0.015398518
0.10790215 -0.037424278 -0.06053249 -0.081171975 -0.09935027 -0.020256404 0.119349346 0.101359405
-0.04168638 0.24598265 -0.043444738 -0.04855275 0.16938306 -0.063248806 -0.061269727 0.23891874
-0.026536833 -0.0133519005 0.025084827 -0.090387516 -0.05777472 -0.10212704 -0.07689027 -0.008402097
0.03316302 -0.06540115 0.08996631 -0.02542415 -0.06705766 -0.04746078 -0.08249787 -0.11374421
-0.3215841 -0.024198795 0.07113852 0.030825464 0.0261622 -0.012257603 0.011348202 0.062445108
-0.00064975675 -0.98287934 -0.06576834 -0.059503045 -0.07965272 -0.0669808 -0.18708506 0.08818286
-0.030158918 0.013997357 0.033243272 -0.23509811 -0.23176263 -0.06799868 -0.060468085 -0.028608935
0.06544109 -0.45065773 0.15130483 0.019075945 -0.08230491 -0.056330565 -0.22538726 -0.13730198
0.07145095 0.028648889 0.016873416 -0.01092965 -0.0016315379 0.020443747 -0.1780073 -0.297286
-0.071738794 -0.16764198 -0.100999996 -0.06788129 -0.5288765 0.07980523 0.05757538 -0.52139723
0.03450888 0.042324588 -0.25114134 -0.0038376804 0.005743232 0.12715307 0.0092637 0.008912428
-0.09886921 -0.07102811 -0.1484758 -0.02055768 -0.27810556 -0.0998904 -0.026125642 -0.010181891
-0.16322805 0.01539839 -0.00884877 0.009631887 0.0012054255 0.034969524 0.00093708286 -0.03289833
0.015532742 -0.16192184 -0.042688902 -0.030896267 0.078750245 -0.028920919 0.12879205 0.013778957
0.026321454 -0.051379323 0.0019814777 -0.13806823 -0.110475056 -0.03221114 0.002549106 0.02700193
0.026506206 -0.11442393 -0.045398142 -0.0011959419 -0.004297164 0.011193945 0.10963016 0.03774452
-0.06492989 -0.00012429203 0.018377028 -0.028870948 -0.018264428 -0.010320955 0.14710076 0.15288585
-0.023064747 -0.20476823 0.047952835 0.0057880394 -0.20186113 0.014207294 -0.0012341312 0.31025785
-0.042803653 -0.00784056 -0.11935953 0.003068731 -0.006387172 -0.0019001447 -0.020832114 -0.029390244
0.004037703 -0.032073613 -0.10054413 0.014681487 -0.07082048 -0.043912 0.017654294 0.07370841
