output/TimeGAN/stock/train/weights/netG.pth (torch, 379640 bytes, 19 tensors)

rnn.weight_ih_l0 f4 [192, 10]
000000 01 c6 6f bd c1 7e 81 3d 48 73 8f 3d e9 1a e6 3d
       -0.05853844 0.063230045 0.0700441 0.112356015
000010 c9 68 c1 bd 44 bd bb bd b9 15 a7 3d 9f e6 4b bd
       -0.09443814 -0.09166959 0.0815844 -0.049780484
000020 0c 13 e9 bc da d7 b0 bc c7 60 c0 3d 4b ab 09 be
       -0.028451465 -0.021587301 0.09393459 -0.1344425
000030 13 55 bd bd 75 54 ab 3d 24 39 a7 bd 36 33 08 3c
       -0.09244742 0.08365718 -0.081651956 0.008312991
000040 5f 5b 46 bd bc 49 a0 bd 7a e4 11 3e a8 66 32 3e
       -0.048426982 -0.07826564 0.14247313 0.17421973
000050 6c d0 6b 3d 3f a7 41 3e 9a 20 af bd 01 0d ab bd
       0.057571813 0.18911456 -0.0855114 -0.0835209
000060 c9 5a 81 bd 21 24 ce bd d6 4d d8 3d 1f 5f e0 3d
       -0.06316144 -0.10065485 0.10561721 0.10955643
000070 f3 c4 c3 bd 46 a9 11 3e 9e 47 d7 bc 44 2c 47 3e
       -0.095590495 0.14224729 -0.026279267 0.1945048
000080 f6 20 10 3e 2b 9f 1b 3e ac 1c a4 bd ff 2c b0 bd
       0.14075074 0.15197437 -0.08013281 -0.08602332
000090 2d 3d 57 3e 16 0f ed bd d7 8b 48 3e ee 98 dd 3d
       0.2101943 -0.11575143 0.19584595 0.10820185
0000a0 e5 48 ef 3d 2f 0f cc bc 88 c2 f5 3c 4c e8 56 3d
       0.116838254 -0.024909584 0.029999986 0.05246763
0000b0 a5 1d 25 3e 68 6b 3b 3d 08 52 57 3e e5 84 15 3d
       0.1612459 0.045756727 0.21027386 0.03650369
0000c0 a4 f4 cb bc 50 7a 00 3e c2 2c 0c 3e 6d be 32 3e
       -0.024896927 0.12546659 0.13688949 0.17455454
0000d0 f5 f1 d4 3d c9 a2 be 3c 6d fb aa bb ef 9e 8c 3b
       0.10397712 0.023270981 -0.0052179606 0.0042914073
0000e0 be 90 93 3d 87 ed a9 3d 04 c9 30 3e 9a 2e 27 bc
       0.07205342 0.08297258 0.17264181 -0.010203982
0000f0 ed 0d e0 3d b2 56 ff ba 27 11 2b 3e bd c5 07 3e
       0.10940156 -0.0019480793 0.16705762 0.13259025
000100 63 1c 10 3e f8 d8 f7 3d dc 89 04 bd 19 b2 a8 bd
       0.14073329 0.121019304 -0.032358035 -0.082370944
000110 7d 4d aa bd a8 5f cc 3d ef 28 4a 3d 19 81 18 3d
       -0.08315561 0.099791825 0.049355444 0.037232492
000120 e4 b2 c3 bd 6a af 1a 3e 32 5f 01 3d 41 fd 11 bd
       -0.09555605 0.15105978 0.031584926 -0.035641912
000130 3d 96 49 bd ae 76 ea 3d 04 e6 f0 bd 85 7b af bd
       -0.049215544 0.114484176 -0.11762622 -0.08568481
000140 7a 27 35 3e cc 76 e8 bd 65 40 00 be 60 4c 7b 3d
       0.1769084 -0.11350784 -0.12524565 0.061352134
000150 75 39 38 3e f0 e9 03 3c a9 9b 22 3e ad 6a d6 ba
       0.17990668 0.0080513805 0.15879692 -0.0016358696
000160 d1 2c b7 bc fc 25 ed bd e3 51 fc bd c7 3a 4f be
       -0.022360237 -0.115795106 -0.12320306 -0.20237266
000170 b6 09 87 bd b5 c1 07 be 76 b8 85 bc c0 95 63 3a
       -0.06593649 -0.13257487 -0.01632331 0.0008681677
000180 55 75 67 be 92 69 58 be a8 0c 4a be 08 fe a7 bd
       -0.22603352 -0.21134022 -0.1973139 -0.082027495
000190 15 7d df bb 4a 93 23 be f5 11 dc bc 68 4f 26 be
       -0.006820331 -0.15974155 -0.026864031 -0.16241229
0001a0 cb 76 bb bc 27 b7 61 3d a0 a8 42 3d 31 77 1d bd
       -0.022883793 0.05510631 0.047524095 -0.038443748
0001b0 a1 66 f0 bc 89 e7 9a bb 66 f0 20 3e 79 95 17 3e
       -0.029345812 -0.004727308 0.15716705 0.14803113
0001c0 a0 4f 02 3e f7 fd 24 3e b1 ad 1f bd 85 42 36 3e
       0.12725687 0.16112505 -0.038984004 0.17798813
0001d0 a8 cf 05 bd 51 df 73 bd a3 42 df 3a 89 d4 24 3c
       -0.03266874 -0.059539143 0.0017033409 0.010060438
0001e0 51 1b 9d 3c e9 12 61 3d 83 66 1a 3d 66 c2 0e bd
       0.019178065 0.054949675 0.03769542 -0.03485336
0001f0 e7 65 e3 3b 44 ca 55 3e 71 51 56 3d a4 b0 0e 3d
       0.006939638 0.2087794 0.052323762 0.034836426
000200 83 18 c9 3d 0e 56 4c bd 82 c0 b4 bb ad 95 b3 3d
       0.09819128 -0.049886756 -0.005516113 0.08768783
000210 d3 80 92 bd 5b 08 b8 3d ee 26 99 3c 70 c2 09 bd
       -0.071534775 0.08985969 0.018695321 -0.033632696
000220 d7 99 3e bd 0f 62 1c be b2 41 b9 bd e1 56 cf 3c
       -0.04653343 -0.15271781 -0.090457335 0.025309982
000230 16 ff 10 bd b4 c3 e8 bd e4 46 fe bd 9c 73 9a 3d
       -0.03539952 -0.113654524 -0.12415865 0.07541582
000240 84 58 fd 3d 79 a3 06 3e 7d 40 23 3d 83 24 01 3b
       0.12370399 0.13148297 0.039856423 0.00197056
000250 ca 86 31 3c 97 e2 4e bd 50 f4 c2 bd 53 4d 11 3e
       0.010835359 -0.05050906 -0.09519255 0.14189653
000260 59 cb 53 3e a7 85 a8 bd 53 a5 3b 3e ee ed 9c 3c
       0.2068304 -0.08228617 0.18324785 0.019156422
000270 e6 cd cf 3c 37 6f 1d bd eb 76 c3 3d cf 18 f4 bd
       0.025366735 -0.03843614 0.09544166 -0.11918794
000280 56 66 1f bd 5e 6e d5 3b 1c df 13 be d3 50 fb 3c
       -0.038915955 0.006513401 -0.14440578 0.030678188
000290 7d 2c 0b be b3 32 48 bd f2 07 8b 3d 68 f9 26 3e
       -0.1359119 -0.048876476 0.06788625 0.16306078
0002a0 09 d7 64 bc a5 b9 2b 3e b1 ca 0f bd 52 e5 1e bd
       -0.013967284 0.16770037 -0.03510541 -0.038792916
0002b0 3d 3e 00 bd dd 85 b0 bd bb 6b 00 be 34 9d 58 bc
       -0.031309355 -0.086192824 -0.12541096 -0.013221074
0002c0 d8 24 46 be 44 e3 f4 3d 51 cd 9a 3c 07 be 17 bc
       -0.19349992 0.1195741 0.01889673 -0.009261615
0002d0 72 fb ee bd ec c9 8f bd cf ce 1c bd f4 7b 3f be
       -0.11669053 -0.070209354 -0.038283166 -0.18699628
0002e0 91 ea 45 bd a8 51 9b bd e6 9d 73 bd b9 c5 3d be
       -0.048319403 -0.07583934 -0.059476756 -0.18532456
0002f0 89 8e 25 3e 0f 88 fb 3d 15 e4 be 3c 05 a1 4b 3d
       0.16167654 0.122818105 0.023302117 0.049714107
000300 92 49 83 bd 65 b5 30 3e 3c c4 f1 3d d5 b4 5c 3e
       -0.06410517 0.17256697 0.11805007 0.21553357
000310 f1 63 23 3e 5e 55 5b bd 3d 36 86 3d 51 ec 1e 3e
       0.15956093 -0.05354821 0.06553314 0.15519835
000320 9e 6d 41 3e 49 38 ad 3d 10 fb bb 3d 44 21 9b bd
       0.18889472 0.08458001 0.09178746 -0.07574704
000330 f2 5f fc 3d db 26 d6 bd 29 e3 e1 bc 0f 07 23 3e
       0.123229876 -0.1045663 -0.027574139 0.15920661
000340 f7 65 4c 3e 94 7c 97 3d 8b 94 98 bb fd e1 ae 3d
       0.19960772 0.07396808 -0.0046563796 0.085391976
000350 5c 78 80 3e fa 1d 69 3e a7 97 8f bc b6 d0 8e 3d
       0.25091827 0.22765341 -0.017528368 0.06973402
000360 9b c8 46 3e 24 54 8c 3b ae 9c d0 3d 03 b5 10 bd
       0.19412462 0.0042824913 0.10186134 -0.035328876
000370 1b 1f f7 bd 29 92 fb bd ac e2 a6 bd cc 36 87 3d
       -0.1206648 -0.12283737 -0.08148703 0.066022485
000380 40 9b 28 3d f9 07 04 3e d4 40 98 3d ae 3a e5 bc
       0.041163683 0.12893666 0.0743424 -0.027982082
000390 4f d1 88 bd 68 d5 47 3d d7 13 2c be 6d b8 21 be
       -0.066805474 0.048787504 -0.16804443 -0.15793009
0003a0 b3 b2 12 3e d8 fa 93 bc b4 75 9c bd a3 00 a1 bd
       0.14325981 -0.018063948 -0.076396376 -0.078614496
0003b0 57 15 2c be 34 09 4a bd f4 03 09 bc 6f 1c 12 3d
       -0.16805016 -0.049325183 -0.008362759 0.035671648
0003c0 99 f4 53 bd 4c 9a 2f 3e 62 94 a7 bd 2a 9e ae 3c
       -0.05174694 0.17148703 -0.08182599 0.021315653
0003d0 6d cb 91 bd 4a b1 29 bd 08 1c ea bc 49 b6 85 ba
       -0.071188785 -0.04142884 -0.02857782 -0.001020142
0003e0 44 11 0b 3d 47 0a 16 3e 25 5a 1b be 46 b4 a7 3d
       0.033952013 0.14652358 -0.15171106 0.08188681
0003f0 cc 47 e1 bd 9a 26 ac 3c 5b cc 04 3e 76 af 06 3e
       -0.11000022 0.0210145 0.1296858 0.1315287

rnn.weight_hh_l0 f4 [192, 64]
000000 e2 6e 83 be e1 1e ee bd cc 5b 74 bd a3 b8 df 3d
       -0.25670534 -0.116269834 -0.059657857 0.109238885
000010 1c bb cf bd 8b 18 1f be 8b 7d 05 3e bf 94 42 3d
       -0.1014311 -0.15536706 0.13036172 0.047505137
000020 c9 65 06 bd 73 59 8a be 85 63 ad 3d 08 b4 d9 bd
       -0.032811914 -0.2702137 0.084662475 -0.10630041
000030 9b 04 72 3d b8 cb 89 be 51 b6 37 be 25 d5 11 be
       0.059086423 -0.26913238 -0.17940642 -0.14241464
000040 41 23 03 3e 8f 3f c7 3e 28 fa 8c be 44 b1 94 3d
       0.12806417 0.3891568 -0.27534604 0.07260373
000050 1c 8e 66 3e 7a 7f bd 3c 15 b4 4f 3d f9 9f b0 bd
       0.22515148 0.023132075 0.05070885 -0.08624262
000060 0a b6 22 3d 39 5d 1c be 01 e9 0d 3e 6e 37 be 3d
       0.039724387 -0.15269937 0.13858415 0.09287916
000070 be f2 4d bd 11 34 9d 3d 38 90 58 3e b1 a1 55 3d
       -0.050280325 0.076759465 0.21148765 0.052156154
000080 cc 80 f0 3d df 61 ac bc 2a 0e 1f 3e b0 1e 80 bc
       0.11743316 -0.021042762 0.15532747 -0.015639633
000090 09 92 ee 3d 48 67 5f 3d 9b 4c 39 bd 36 e0 40 3b
       0.11648948 0.054541856 -0.045239072 0.0029430515
0000a0 8a db 9b bb 40 c1 1f 3d cd 5a 33 3e c6 1a c0 bd
       -0.0047563957 0.039002657 0.17515106 -0.09380107
0000b0 eb 38 73 3e 82 87 04 3e 43 23 21 bb 09 e8 0f be
       0.23752181 0.12942317 -0.0024587668 -0.14053358
0000c0 db ce 8d 3e 9c 19 6e be 3d c6 50 3e c1 98 a4 3d
       0.2769688 -0.23251957 0.20388122 0.08036948
0000d0 72 8c ad bd 2b e8 87 bd 2e d9 0c be c2 46 85 3d
       -0.084740534 -0.066360794 -0.13754722 0.065076366
0000e0 a0 5e 8c 3e dc e1 b1 bd 67 95 97 3c ac 58 c6 3d
       0.27415943 -0.086856574 0.018503858 0.096848816
0000f0 80 a0 fb bd 64 fb 0f 3e d9 9f 10 3d 5b 5d 22 3e
       -0.12286472 0.14060742 0.035308693 0.15855925
000100 ca 8a a5 3d 5f 85 0b 3e 33 2a 2e bc de dc 15 3e
       0.080831125 0.13625096 -0.010630178 0.14635035
000110 7a a3 a2 bd 46 e6 07 be 3c 3c 15 3e ba 7b 08 be
       -0.07941337 -0.13271436 0.14573759 -0.13328448
000120 6f eb 13 3c 2b 66 87 bd a8 75 89 3d d4 15 06 be
       0.0090283 -0.06611284 0.06711894 -0.13094264
000130 11 f8 ad 3d 4a 51 82 3c d7 6c 39 be 34 11 76 bd
       0.084945805 0.015907902 -0.18107925 -0.060075
000140 fe 3f 74 be 8f c6 e2 bd f6 59 eb 3d 6b a5 79 bd
       -0.23852536 -0.11073028 0.11491768 -0.06094877
000150 81 9d 43 3c c6 ad c9 3d ca 71 4d bd 44 4a 04 bb
       0.011939407 0.09847598 -0.050157346 -0.0020185867
000160 87 2e 8d 3d d7 83 e4 bd 85 b3 0f 3e e4 f9 2c 3e
       0.0689364 -0.11157959 0.14033325 0.168922
000170 19 25 1b 3e 1a 72 bc 3d 74 0d 00 3d d0 97 70 3d
       0.1515087 0.09201451 0.03126283 0.05873853
000180 06 0e e4 bd c2 1b 16 3d 44 a6 bb 3d b5 76 10 bc
       -0.11135487 0.036647566 0.09162572 -0.008817364
000190 7b f6 f9 3d f3 af fd bc cd f9 81 3c a0 fb cd 3d
       0.122052155 -0.030967688 0.015866185 0.10057759
0001a0 e1 84 77 3d 8d df 03 3c 5c 67 a0 3d 60 a1 75 3e
       0.060429458 0.008048904 0.07832214 0.23987341
0001b0 b3 28 c3 bd 22 76 f2 3c 95 99 53 3d b6 2c 0d be
       -0.09529247 0.029597346 0.05166014 -0.13786587
0001c0 d3 be f3 3c 48 ca 8d bc f6 5a b1 3c 1c f9 7c bc
       0.029754078 -0.01730837 0.021649819 -0.015440252
0001d0 fa 65 09 3e 57 00 5d be 3b c0 2e be b5 4c 33 3c
       0.13417807 -0.21582161 -0.17065518 0.010943581
0001e0 b2 50 55 3d 12 34 68 3c f8 32 1f bd 09 39 f8 3d
       0.05207891 0.014172571 -0.038866967 0.121202536
0001f0 03 54 0c bd 98 79 91 3e 26 5b 0e 3e 3a be bd 3b
       -0.034259807 0.2841308 0.13901958 0.005790499
000200 41 34 1b be 44 fb 24 be 93 33 42 bc 2f eb a4 3e
       -0.15156652 -0.16111475 -0.011853117 0.3221068
000210 bf 56 ec bc e8 92 13 ba 0b 29 20 3e c6 32 38 bd
       -0.028849958 -0.0005629496 0.15640657 -0.044970296
000220 e8 5f 1d be 67 55 c2 bd 4b a3 e6 3c cd 5c 03 be
       -0.15368617 -0.094889455 0.028154036 -0.1282837
000230 49 16 98 3e 2e d5 8d bc 81 c0 81 be c4 9a 06 be
       0.29704502 -0.017313566 -0.2534218 -0.13144976
000240 f1 a9 c2 bd 95 fe a7 3d 06 83 0d be a2 48 73 3d
       -0.0950507 0.082028545 -0.13819513 0.05939544
000250 a6 19 5a 3e 6e 4e 14 be 81 1a d2 bd 11 1e 6d 3e
       0.21298847 -0.14483044 -0.102589615 0.23156
000260 8a a0 cc 3d 74 70 66 bd 53 c7 d9 3d 2f ab 2f bc
       0.09991558 -0.056259587 0.10633721 -0.010721966
000270 8f 88 0e 3e 9b 35 6a 3d 20 86 97 3e 3c 23 b0 bd
       0.1391928 0.05718003 0.29594517 -0.086004704
000280 2c 40 2c 3e 33 c7 81 be fe 7f 1c 3e b8 fd 2e 3d
       0.16821355 -0.2534729 0.152832 0.042722434
000290 54 cd 23 3e 3d c1 1c 3e cb 6c 04 3d 24 cb 84 bd
       0.15996295 0.1530809 0.032330316 -0.064840585
0002a0 af fb 19 ba 5e f5 c1 bd 49 22 0d 3c 11 28 fd 3c
       -0.00058739906 -0.09470628 0.008614131 0.030902894
0002b0 de 5b ea 3d d5 57 95 3d a5 09 b3 3a b5 08 52 be
       0.114433035 0.07292143 0.001365949 -0.20511134
0002c0 84 2a 0c 3c 08 0b cd bb 2f fb 46 3e b7 73 12 3e
       0.008555058 -0.0062574185 0.19431756 0.14301954
0002d0 e1 9a f6 bc c0 b7 5a be 1b 6a 84 be d9 43 a3 3d
       -0.030103149 -0.21359158 -0.25862202 0.07971925
0002e0 ad de 54 3e d9 4c 58 bd 4c db 32 3a c3 4c ac bd
       0.20788069 -0.052807663 0.0006822839 -0.08413079
0002f0 18 46 a2 bd 7c 33 1d 3e f1 18 96 bd 87 ce 12 3e
       -0.079235256 0.15351671 -0.07328976 0.14336596
000300 84 e5 34 be 53 f7 e7 bc 85 9c 7f b9 11 7c 2b 3e
       -0.17665678 -0.028316176 -0.00024377003 0.16746546
000310 ff f6 8b 3c d2 b3 14 be b1 fc 81 3c 86 77 2d be
       0.01708555 -0.14521721 0.015867563 -0.16940126
000320 4a 86 33 3d ad 85 3f be ac ec 46 bd 41 45 1b be
       0.04382924 -0.18703337 -0.04856555 -0.15163137
000330 bd 8e 4a 3e 31 c8 49 be ff 7e 42 be c0 05 2e bd
       0.19781013 -0.19705273 -0.18993758 -0.042485952
000340 25 3d 33 3d 3c 2e 1a 3e 94 2a d4 bd 90 5f bc 3d
       0.043759484 0.150567 -0.10359684 0.091979146
000350 86 b8 89 3d 14 c4 c4 3d 84 64 d8 bd 49 93 f6 3d
       0.06724648 0.096077114 -0.10566047 0.12039811
000360 ea d0 3e 3e 73 71 de bb ec da 81 3e 0f 6c 2d 3d
       0.18634382 -0.0067884265 0.25362337 0.04233938
000370 d9 bd 05 3d a2 80 62 3d 40 13 39 3c 5b ec f5 3c
       0.032651756 0.055298455 0.011296093 0.03001993
000380 0d b8 9f 3d 7b f6 f3 bd 9d ea 1b 3e b2 03 92 3d
       0.07798777 -0.11912247 0.15226217 0.07129611
000390 ab 36 9e 3d 1f d9 ae bc a8 92 ae 3d 78 bd 8f 3d
       0.07725271 -0.021343766 0.08524066 0.0701856
0003a0 29 12 23 3d a0 fa bb 3d 1c 0a 51 3e 41 11 35 3c
       0.03981224 0.09178662 0.20414013 0.011051477
0003b0 79 9c 23 3e e1 ed b1 3d cc 68 fd 3d 31 cd c4 bd
       0.15977658 0.0868795 0.12373504 -0.0960945
0003c0 fa 47 3e 3e 21 70 83 be 17 fe 1b 3d 96 ac 83 3d
       0.18582144 -0.25671485 0.038084116 0.064294025
0003d0 5d 34 76 3c 32 a9 01 be ba 7f 87 be 68 1e 9d 3e
       0.015027133 -0.12662199 -0.26464635 0.3068726
0003e0 ac 28 9a 3e c4 f4 b4 bc 1d b0 c2 bd 8d 88 d4 3d
       0.30109155 -0.02208937 -0.09506247 0.103776075
0003f0 32 86 0d be f2 9f 7f 3e f7 a5 15 bd dd e4 9b 3e
       -0.13820723 0.24963358 -0.03653523 0.30448046

rnn.bias_ih_l0 f4 [192]
000000 a9 3d 6a 3d f5 4f 81 3c 6d 49 33 3d 99 ff 47 3d
       0.05718771 0.015785197 0.043771196 0.04882774
000010 d7 8c 83 3d 14 59 2a 3d eb ab 35 3d 90 ed 39 3b
       0.064233474 0.041588858 0.044353407 0.0028370358
000020 65 6d 04 3d 14 23 ed bd 5d 82 c3 3b 13 81 c7 3c
       0.03233089 -0.11578956 0.0059664682 0.02435354
000030 bb 8e 0b 3e 13 eb 91 bd bb 40 5d bc 96 f6 72 3d
       0.13628666 -0.07124915 -0.0135042025 0.059317194
000040 a1 7a 9f 3c 17 69 29 bd 93 f5 8e bc 62 5a 6e 3d
       0.019467654 -0.041359987 -0.017451083 0.058191665
000050 f6 14 7d 3c fd 65 ad 3d f2 1d 31 3d d2 a6 7f bc
       0.015446892 0.08466718 0.04324145 -0.015603738
000060 fe 16 c4 3d 4a 5a 11 bd 5d 08 10 bd b5 c4 bf bc
       0.09574698 -0.035486497 -0.035164226 -0.023409227
000070 6d f9 55 3d b8 fa e0 bc c3 8a 80 3d e4 ea 83 3d
       0.052239824 -0.027463302 0.06276467 0.06441286
000080 d6 3d 0f bc 11 96 d2 bd ef d3 15 bc d9 8f fc 3a
       -0.00874277 -0.10282529 -0.009144767 0.0019268944
000090 2c 69 db bc d2 4e 6a 3d 31 5b 9a 3d c8 41 fa 3b
       -0.026783548 0.057204075 0.07536925 0.0076372363
0000a0 5b 12 57 3e c7 bc f4 3c 42 be 2f bc 1e 02 78 3c
       0.21003096 0.029875172 -0.010726513 0.0151372235
0000b0 46 c4 e5 3c 32 7d 86 3d 86 f6 a3 3d 06 3b a6 bc
       0.028047692 0.06566848 0.08006005 -0.020291816
0000c0 70 81 b4 3c 77 bd 0b bd e6 69 c7 bc 32 9d 33 3d
       0.022034377 -0.034116235 -0.024342488 0.043851085
0000d0 6d 77 95 3c af ba 46 3c 4a 6f 11 bc 85 85 37 3b
       0.018245423 0.01212947 -0.008876631 0.0028003168
0000e0 e9 ec 96 3c fd 0c 1b 3d bb 98 b8 bb a2 c3 09 bd
       0.018423514 0.037854183 -0.0056334413 -0.033633836
0000f0 cf de 29 bd 2f ea df 3c 49 d1 39 3d 6c 98 1a bd
       -0.041472252 0.027333347 0.045365606 -0.037743017
000100 f5 50 55 be c5 11 e6 bd 91 eb 87 be c3 ee 10 bd
       -0.20831664 -0.11233858 -0.2654691 -0.03538395
000110 49 43 c0 bd ee 37 65 3d eb 2a 7f bd 51 4d 05 bd
       -0.093878336 0.05596154 -0.06229679 -0.032544438
000120 b0 f1 02 be ad 77 fd bd f1 06 f1 bb fd ac 1b be
       -0.12787509 -0.12376342 -0.007355564 -0.15202709
000130 f3 66 39 be a9 41 49 bc 24 a4 d9 bd f1 78 bf bd
       -0.18105678 -0.012283721 -0.106270105 -0.093492396
000140 40 14 11 3d 27 a2 b3 3d 66 2a 17 3a 77 fe 55 be
       0.035419703 0.087711625 0.0005766511 -0.20897852
000150 93 e6 a3 3d 6c e7 8f bd 0c 12 62 be d6 bc 4a be
       0.08002963 -0.07026562 -0.22077197 -0.19798598
000160 c2 83 27 bc 00 85 bc bd 00 a6 3b be ed 56 7c bd
       -0.010224285 -0.09205055 -0.18325043 -0.061606336
000170 1f d8 e0 bd 40 06 7f be 38 9d 01 be 86 99 64 be
       -0.10978722 -0.24904728 -0.1265763 -0.2232419
000180 47 66 e4 bd 4a d6 0c be d8 6e 23 be ca c7 01 bd
       -0.1115232 -0.1375362 -0.15960252 -0.031684674
000190 b0 35 ee bd c8 db 89 bd 77 d6 9a bd 16 de bb bd
       -0.11631334 -0.06731373 -0.07560437 -0.09173219
0001a0 fc 5c a2 be 51 87 66 be 5e e9 07 be ad e0 e1 bd
       -0.31711566 -0.22512557 -0.13272616 -0.11029182
0001b0 8c b4 64 be 77 40 11 3c a0 b2 79 be 18 90 1d be
       -0.22334498 0.008865467 -0.24384546 -0.15386999
0001c0 32 bd 47 bb 58 ac 0e be fc a9 75 bc d1 05 0f be
       -0.003047776 -0.13932931 -0.014994141 -0.13967063
0001d0 44 7a 84 bd 67 45 3c be 0a c0 62 be 62 47 3c be
       -0.06468633 -0.1838585 -0.2214357 -0.18386605
0001e0 ad 37 4d be 8e 24 01 3e b6 71 02 be e5 92 33 3b
       -0.2004077 0.12611601 -0.1273869 0.0027400788
0001f0 8a 72 03 3e a4 9b 06 be bf 2a 66 3d 96 02 86 be
       0.12836662 -0.1314531 0.05619311 -0.26173848
000200 fc 19 2b bd 59 27 4c bd 04 f5 70 bd 4c 7a 02 3d
       -0.041772828 -0.049842212 -0.058827415 0.031854913
000210 44 43 11 bd a8 33 86 3d 94 9e ad 3c 6a b0 bc bb
       -0.03546454 0.065528214 0.02119378 -0.005758335
000220 09 e2 7a bd 25 e7 c9 bc 29 76 57 bd 96 db 95 bd
       -0.06125072 -0.024646351 -0.05260292 -0.07317273
000230 6f 9f c2 3d fe da 85 bb c1 e6 0f bc 45 72 94 bc
       0.09503066 -0.004084944 -0.008783043 -0.018120894
000240 e2 80 3c 3c 3d 08 67 3b 79 f8 90 bc 71 34 3e 3d
       0.011505337 0.0035252713 -0.017696606 0.04643673
000250 a5 a0 f1 bc a6 c7 95 3d 63 a1 87 bd c4 6d 25 3d
       -0.029495547 0.073134705 -0.06622579 0.040387884
000260 c4 bf b4 bc ed c3 93 3d e7 eb 35 3d 7f 4b 4a bd
       -0.022064097 0.07215104 0.044414427 -0.049388405
000270 00 ef 83 bd 88 28 b9 3d 91 7b 36 3d 2f a7 9b bd
       -0.0644207 0.09040934 0.044551436 -0.07600247
000280 63 2b 12 bc f4 d4 ce b8 f4 81 bd 3d b6 b2 b1 bc
       -0.008921477 -9.862511e-05 0.09253302 -0.021691661
000290 40 73 c6 3c 33 2a 02 bd 8f aa 2e 3c 39 4e 30 bc
       0.024224877 -0.031778526 0.0106607815 -0.010760837
0002a0 5c 26 36 3e 43 1b b1 bd 47 a5 59 3d 9c a9 97 bd
       0.1778807 -0.08647778 0.053136136 -0.07405397
0002b0 f6 6e f9 3d 99 2d 1d 3c fc b4 fd 3d ab 90 4d bd
       0.12179367 0.009593391 0.12388036 -0.050186794
0002c0 b8 83 b3 3c 3a dc bb bb 60 60 0a bd ea d7 57 3d
       0.021913394 -0.00573304 -0.033783317 0.052696146
0002d0 e5 56 ad ba 22 01 3b bd 59 9f 92 bd 6d af 87 3d
       -0.0013224749 -0.045655377 -0.071592994 0.06625257
0002e0 a5 0b a8 3d 8b 51 3a 3b 4a d0 35 3d fe 22 46 3b
       0.08205346 0.002842995 0.044388093 0.003023326
0002f0 3e ee ed 3b 5d 7b 05 3d fc ec 41 bd 95 43 87 3d
       0.0072610667 0.03258835 -0.047345147 0.06604687

rnn.bias_hh_l0 f4 [192]
000000 a9 3d 6a 3d f5 4f 81 3c 6d 49 33 3d 99 ff 47 3d
       0.05718771 0.015785197 0.043771196 0.04882774
000010 d7 8c 83 3d 14 59 2a 3d eb ab 35 3d 90 ed 39 3b
       0.064233474 0.041588858 0.044353407 0.0028370358
000020 65 6d 04 3d 14 23 ed bd 5d 82 c3 3b 13 81 c7 3c
       0.03233089 -0.11578956 0.0059664682 0.02435354
000030 bb 8e 0b 3e 13 eb 91 bd bb 40 5d bc 96 f6 72 3d
       0.13628666 -0.07124915 -0.0135042025 0.059317194
000040 a1 7a 9f 3c 17 69 29 bd 93 f5 8e bc 62 5a 6e 3d
       0.019467654 -0.041359987 -0.017451083 0.058191665
000050 f6 14 7d 3c fd 65 ad 3d f2 1d 31 3d d2 a6 7f bc
       0.015446892 0.08466718 0.04324145 -0.015603738
000060 fe 16 c4 3d 4a 5a 11 bd 5d 08 10 bd b5 c4 bf bc
       0.09574698 -0.035486497 -0.035164226 -0.023409227
000070 6d f9 55 3d b8 fa e0 bc c3 8a 80 3d e4 ea 83 3d
       0.052239824 -0.027463302 0.06276467 0.06441286
000080 d6 3d 0f bc 11 96 d2 bd ef d3 15 bc d9 8f fc 3a
       -0.00874277 -0.10282529 -0.009144767 0.0019268944
000090 2c 69 db bc d2 4e 6a 3d 31 5b 9a 3d c8 41 fa 3b
       -0.026783548 0.057204075 0.07536925 0.0076372363
0000a0 5b 12 57 3e c7 bc f4 3c 42 be 2f bc 1e 02 78 3c
       0.21003096 0.029875172 -0.010726513 0.0151372235
0000b0 46 c4 e5 3c 32 7d 86 3d 86 f6 a3 3d 06 3b a6 bc
       0.028047692 0.06566848 0.08006005 -0.020291816
0000c0 70 81 b4 3c 77 bd 0b bd e6 69 c7 bc 32 9d 33 3d
       0.022034377 -0.034116235 -0.024342488 0.043851085
0000d0 6d 77 95 3c af ba 46 3c 4a 6f 11 bc 85 85 37 3b
       0.018245423 0.01212947 -0.008876631 0.0028003168
0000e0 e9 ec 96 3c fd 0c 1b 3d bb 98 b8 bb a2 c3 09 bd
       0.018423514 0.037854183 -0.0056334413 -0.033633836
0000f0 cf de 29 bd 2f ea df 3c 49 d1 39 3d 6c 98 1a bd
       -0.041472252 0.027333347 0.045365606 -0.037743017
000100 f5 50 55 be c5 11 e6 bd 91 eb 87 be c3 ee 10 bd
       -0.20831664 -0.11233858 -0.2654691 -0.03538395
000110 49 43 c0 bd ee 37 65 3d eb 2a 7f bd 51 4d 05 bd
       -0.093878336 0.05596154 -0.06229679 -0.032544438
000120 b0 f1 02 be ad 77 fd bd f1 06 f1 bb fd ac 1b be
       -0.12787509 -0.12376342 -0.007355564 -0.15202709
000130 f3 66 39 be a9 41 49 bc 24 a4 d9 bd f1 78 bf bd
       -0.18105678 -0.012283721 -0.106270105 -0.093492396
000140 40 14 11 3d 27 a2 b3 3d 66 2a 17 3a 77 fe 55 be
       0.035419703 0.087711625 0.0005766511 -0.20897852
000150 93 e6 a3 3d 6c e7 8f bd 0c 12 62 be d6 bc 4a be
       0.08002963 -0.07026562 -0.22077197 -0.19798598
000160 c2 83 27 bc 00 85 bc bd 00 a6 3b be ed 56 7c bd
       -0.010224285 -0.09205055 -0.18325043 -0.061606336
000170 1f d8 e0 bd 40 06 7f be 38 9d 01 be 86 99 64 be
       -0.10978722 -0.24904728 -0.1265763 -0.2232419
000180 47 66 e4 bd 4a d6 0c be d8 6e 23 be ca c7 01 bd
       -0.1115232 -0.1375362 -0.15960252 -0.031684674
000190 b0 35 ee bd c8 db 89 bd 77 d6 9a bd 16 de bb bd
       -0.11631334 -0.06731373 -0.07560437 -0.09173219
0001a0 fc 5c a2 be 51 87 66 be 5e e9 07 be ad e0 e1 bd
       -0.31711566 -0.22512557 -0.13272616 -0.11029182
0001b0 8c b4 64 be 77 40 11 3c a0 b2 79 be 18 90 1d be
       -0.22334498 0.008865467 -0.24384546 -0.15386999
0001c0 32 bd 47 bb 58 ac 0e be fc a9 75 bc d1 05 0f be
       -0.003047776 -0.13932931 -0.014994141 -0.13967063
0001d0 44 7a 84 bd 67 45 3c be 0a c0 62 be 62 47 3c be
       -0.06468633 -0.1838585 -0.2214357 -0.18386605
0001e0 ad 37 4d be 8e 24 01 3e b6 71 02 be e5 92 33 3b
       -0.2004077 0.12611601 -0.1273869 0.0027400788
0001f0 8a 72 03 3e a4 9b 06 be bf 2a 66 3d 96 02 86 be
       0.12836662 -0.1314531 0.05619311 -0.26173848
000200 99 a2 51 bd 00 9e 19 bd 87 44 45 bd 21 f9 01 3d
       -0.051180456 -0.037504196 -0.048161056 0.03173173
000210 79 a5 57 bd a4 cc 4c 3d a4 c0 c8 3c 52 a8 5b 3b
       -0.05264804 0.049999848 0.02450592 0.0033517075
000220 d8 2f 63 bd 7d 5d 9f bc 5c 31 51 bd 3e e8 cf bd
       -0.05546555 -0.019453758 -0.051072463 -0.101517186
000230 32 51 cd 3d 63 e2 9d bb 14 30 83 bd 2a cb 8b bc
       0.100252524 -0.004818247 -0.064056545 -0.01706465
000240 cd 3a ec 3c 32 14 ae 3c 89 85 d0 bc a4 1c bf 3d
       0.028836632 0.021249864 -0.0254543 0.09331635
000250 04 68 b1 bc 3f f4 8a 3d cf 08 80 bd 8a cc 81 3d
       -0.021656044 0.067848675 -0.0625168 0.06337841
000260 5a bb cd 39 75 25 9a 3d 93 7d 7c 3d b0 17 03 bd
       0.00039240235 0.075266756 0.061643194 -0.032005012
000270 cf 03 82 bd 5d 5f e3 3d e2 fe 51 3d f9 21 95 bd
       -0.06348383 0.111021735 0.051268466 -0.072818704
000280 dc 5d 22 bc 6c 7b 3f bd 73 0b 1a 3e c7 c2 dc bc
       -0.009910073 -0.046748564 0.1504343 -0.026948346
000290 2d fd c5 3c 4a 1c d8 bc 18 ba a1 bc fc 05 ea bb
       0.024168575 -0.026380677 -0.019742057 -0.0071418267
0002a0 30 79 43 3e ea f7 a1 bd 6f b1 80 3d 42 be 7f bd
       0.19089198 -0.07908614 0.06283843 -0.062437303
0002b0 6c 38 eb 3d 90 cb 91 3c 84 5f f9 3d 8d 5a 79 bd
       0.11485371 0.017797261 0.12176421 -0.06087737
0002c0 24 98 ab 3c 25 2b b6 bc ac 1a 14 bd 4b 2b 83 3d
       0.02094657 -0.02223737 -0.03615825 0.06404742
0002d0 10 f8 fa bb 5c c1 ac bd b9 43 b2 bd 81 01 95 3d
       -0.007658966 -0.08435318 -0.08704323 0.072756775
0002e0 2e bc cc 3d 37 b3 61 bb 70 27 65 3d e3 90 03 bc
       0.0999683 -0.0034439096 0.055945814 -0.008030149
0002f0 4e 84 9a bb 66 30 68 3d 86 3c f5 bc 9d d2 d6 3d
       -0.004715479 0.05668678 -0.029936086 0.1048939

rnn.weight_ih_l1 f4 [192, 64]
000000 a5 ea 74 bd 6e 82 5a 3d 77 89 29 3d ef 72 15 be
       -0.059794087 0.053347044 0.041390862 -0.14594625
000010 75 6f 1b 3e dc 69 49 3e 81 ff 4c be 3d 28 11 3d
       0.15179236 0.19669288 -0.20019342 0.035438765
000020 ac 5f f4 3c 45 5e 3e 3e f6 1d 33 3d ae 1f 83 3d
       0.029830776 0.18590648 0.043729745 0.06402527
000030 63 83 2a ba 68 fc c6 3d b1 c8 f4 3d 2c fd 95 3d
       -0.00065045635 0.097161114 0.11952341 0.07323679
000040 ff c7 88 3d 39 64 d2 bd 21 e2 a2 bc 6e 67 0d be
       0.06678771 -0.10273022 -0.019883217 -0.13808987
000050 00 99 b7 bd b9 1d ba bd 01 13 22 3c 65 61 94 bd
       -0.08964729 -0.090877004 0.009892226 -0.07245139
000060 b0 32 3c bc a9 4a ad 3d 74 8c f4 bd bc ab 03 be
       -0.011486694 0.08461506 -0.11940852 -0.1285848
000070 12 f6 ed bd 99 52 33 be 90 ae 0c be 5d 25 b6 3d
       -0.116192 -0.17511977 -0.13738465 0.08893845
000080 22 fe aa bd 5c c4 47 3b 4e 45 01 3e be cd d3 3d
       -0.08349253 0.003048203 0.12624094 0.103419766
000090 f1 58 56 3d 0e 1f 27 be f5 da 25 be 2e 88 bf 3d
       0.052330915 -0.1632044 -0.16196807 0.09352146
0000a0 64 2b 18 bd 63 05 1f 3e b6 16 b4 bc 08 8c c0 bc
       -0.037150756 0.15529399 -0.021983486 -0.023504272
0000b0 89 5d 95 3d df ff 82 3d 7c 29 33 bb 0f f4 11 3e
       0.07293231 0.0639646 -0.002733796 0.14253257
0000c0 64 84 fe 3d d7 81 8f bd 26 3a 79 3b ff fc cc bd
       0.12427595 -0.07007187 0.0038029044 -0.10009193
0000d0 29 ea 9d bb 46 90 d1 bc 8b 65 9b 3d 31 d1 a6 3d
       -0.004819174 -0.02558149 0.07587727 0.08145369
0000e0 e5 44 f4 3c 42 75 65 bd 38 61 49 3d 6a e6 b0 3d
       0.029818008 -0.05602003 0.04916498 0.08637698
0000f0 76 c3 3a bc 6c c1 eb bc e2 dd aa bc b5 e8 10 be
       -0.011399141 -0.028778754 -0.020857755 -0.1415127
000100 3a 2f 40 be 32 51 5f be 1e 77 01 bd e6 7e 17 be
       -0.18768016 -0.21808317 -0.03160774 -0.14794502
000110 ca 97 06 bd 57 9a 5d 3d 5b 29 f5 3d 0d 52 0b 3e
       -0.0328596 0.054102268 0.119707786 0.13605519
000120 1e 6b 86 be 42 b6 18 be 15 86 21 be 7d bf e5 bd
       -0.262536 -0.14913276 -0.15773804 -0.11218164
000130 b7 87 f2 bd c7 7e ea 3c 65 16 12 be b6 d5 19 3c
       -0.11842292 0.028624905 -0.14266355 0.009389332
000140 b8 23 39 3d 2c e4 cb 3c 7e 63 36 be 44 36 9f 3e
       0.04520008 0.024889074 -0.17811391 0.3109609
000150 dd 81 cf 3d 8e 56 be 3d f8 37 3c 3d ca 48 48 3e
       0.10132191 0.09293853 0.045951813 0.19559017
000160 2b 38 af bd 53 09 e0 bb 18 33 93 3d 94 53 74 be
       -0.08555635 -0.006837049 0.0718748 -0.23860008
000170 73 a3 0d 3d 75 89 5f 3e 70 1a 24 3d 0e d5 b3 bd
       0.034579705 0.2182978 0.040064275 -0.08780871
000180 10 59 48 bd 55 16 d1 bd 92 85 f1 bc fa 2d 1e bd
       -0.04891306 -0.102093376 -0.029482637 -0.038618065
000190 a2 72 9b bd fb a9 26 be 79 ac 88 bc 5b 21 23 bd
       -0.07590224 -0.1627578 -0.016683804 -0.039826732
0001a0 47 bc 18 be f1 68 cd 3d 4c b4 55 3e 68 8d 0e bd
       -0.14915572 0.100297816 0.20869559 -0.034802824
0001b0 b8 e5 7e 3e 04 ab 05 be 81 58 db 3d ae d1 62 bd
       0.24892318 -0.13053519 0.1071024 -0.055375747
0001c0 c9 b7 2e 3e a8 3e 32 3d 76 23 4d bd 4d 65 64 3d
       0.17062296 0.043516785 -0.050082646 0.05576067
0001d0 bf 68 18 be 79 0d 51 be d8 65 b0 3c 37 20 32 bd
       -0.14883707 -0.20415296 0.021532938 -0.043487754
0001e0 d1 5a 7c 3d e8 db 4a 3e 71 45 8e bd e3 cd 6f bd
       0.061610047 0.1981045 -0.06946839 -0.05854596
0001f0 3e 35 22 3d 96 83 0c 3e 30 e4 c6 bc 1c bf 75 3d
       0.039601557 0.13722071 -0.02427873 0.05999671
000200 c0 7e 87 be 10 79 66 3e 4d fa 8b be 21 46 da 3d
       -0.2646389 0.22507119 -0.27339402 0.10657907
000210 96 ca 9c be 87 1f 35 bd 45 20 4b 3e 88 40 ac be
       -0.3062331 -0.04421952 0.19836529 -0.33642983
000220 90 32 6a 3d eb 11 32 be 19 9c 11 3e 7f de 50 be
       0.057177126 -0.17389648 0.14219703 -0.20397376
000230 18 f3 5e 3d 57 0e c1 bd 0f db db bc 31 b7 22 bd
       0.05443105 -0.09426563 -0.026837854 -0.039725486
000240 4c 52 6c 3d eb 25 0f be 71 0e 4b 3e 19 b6 be 3d
       0.057695672 -0.13979308 0.19829728 0.09312076
000250 f6 72 5d 3e 0d 82 a3 3b a3 ab 4b be fd 03 b0 3d
       0.21625885 0.0049898685 -0.19889693 0.08594511
000260 e1 8f b7 3d 46 d3 7a be 3d 16 16 bc c1 e0 8f 3e
       0.089629896 -0.24494657 -0.009160575 0.2810116
000270 57 ca 8b 3e 4a 7e 75 3e 49 c2 00 3e 75 29 1d 3d
       0.2730281 0.23973957 0.12574114 0.038369615
000280 3a 72 b4 bd 49 45 98 be e1 07 5d 3e 73 7d 5c 3d
       -0.088108495 -0.2974036 0.21585037 0.053830575
000290 ac 6b 68 3d 90 a2 b7 3d 5d c4 9d 3e 92 dc 47 3e
       0.05674331 0.08966553 0.30813876 0.19517735
0002a0 7b c2 8c 3e ee c3 47 be 05 68 de 3d 25 be 9e 3e
       0.27492127 -0.19508335 0.10859684 0.31004444
0002b0 71 1c 8c bd ba 51 2b 3e 54 91 79 3d d2 7d 6e be
       -0.06841362 0.16730395 0.06092961 -0.23290184
0002c0 7e 0f 42 3e 7d fa dd 3d 1f 90 3c 3e 5c c0 ea 3c
       0.18951222 0.108387925 0.18414353 0.028656177
0002d0 dc 6a 77 3e 6e 20 23 3b c9 fb 2f 3b bc d3 83 3e
       0.24161857 0.0024891156 0.0026852957 0.25747478
0002e0 ba 35 61 3e 03 6a c3 be 5e ff 23 3d a3 42 eb 3d
       0.21993151 -0.38166818 0.04003846 0.11487319
0002f0 89 ff 8f bc 1c c1 4f 3e 80 09 27 3d 0a 70 1f 3e
       -0.017577903 0.20288509 0.040780544 0.15570083
000300 a4 28 c0 3d aa e8 62 3e a1 43 f4 3d ef 9c 61 3e
       0.093827516 0.22159067 0.11926962 0.22032522
000310 1a 1b cd bd da e7 6d be ca 6a db 3d 12 8b 2a be
       -0.10014935 -0.23232976 0.10713728 -0.16654614
000320 b2 05 99 bc 61 e6 c0 bd 18 fc 7b 3e 6b 4b 0b be
       -0.018679474 -0.09418941 0.24607885 -0.13602988
000330 56 9f 84 bb d8 1c c9 3d f4 19 63 bc c8 8c c5 bd
       -0.0040473146 0.09819955 -0.013861168 -0.096459925
000340 cf a0 12 be 35 87 d2 bb 21 1c 3e 3d 0a c1 65 bb
       -0.14319156 -0.0064248093 0.046413545 -0.0035057687
000350 cc 3e 27 3e c6 bc de bd bc 28 e6 3c 99 00 ac 3d
       0.16332549 -0.108758494 0.028095596 0.083985515
000360 ca 35 5d 3e 8a 28 45 be b0 bd ad bd 0a c5 9a 3d
       0.2160255 -0.19253746 -0.08483446 0.075571135
000370 5c 19 64 3b 81 75 2d bd 63 9a 15 3e 7a b1 84 bd
       0.0034805154 -0.04234839 0.14609675 -0.064791635
000380 f9 ad a0 3c ee 1e 0d 3d 4f 1d 38 3e b8 56 1c 3e
       0.019614207 0.034453325 0.1797993 0.15267456
000390 0c 60 10 bc 80 66 77 3e a5 8e 26 bb fc eb 36 3e
       -0.008811962 0.24160194 -0.0025414613 0.17863458
0003a0 e0 a6 22 bd 28 2b 40 bd c7 ea cf 3c 78 46 f1 3d
       -0.039709926 -0.046916157 0.025380505 0.11781019
0003b0 91 ae 08 be 6a 61 b7 3d d5 bc be 3d 01 34 83 bd
       -0.13347842 0.08954127 0.093133606 -0.06406403
0003c0 be e4 74 3d 24 36 43 3d ea 7c 17 3e 49 68 68 3e
       0.059788458 0.047659054 0.14793745 0.22696032
0003d0 e7 2b 36 3d aa b9 15 bd c1 48 72 be dc c7 58 3c
       0.044475462 -0.036554016 -0.23660566 0.013231244
0003e0 b9 c2 5c bb 66 89 f4 bd bf 75 26 be af 20 0a 3e
       -0.00336854 -0.11940269 -0.16255854 0.1348903
0003f0 45 1b d8 3d 6b e1 69 3e ec ee 0e 3e fe cf 08 3e
       0.10552076 0.22839896 0.13958329 0.13360593

rnn.weight_hh_l1 f4 [192, 64]
000000 be 4f f6 bc 77 10 69 bd ef 25 00 be 69 ad 60 bd
       -0.03006732 -0.056900468 -0.1251447 -0.054852877
000010 8a 0e 2e bd f9 02 1d 3e 57 4e a0 bd f8 d2 9f 3b
       -0.042494334 0.15333165 -0.07827442 0.0048774444
000020 4b 90 56 bd 71 ae 96 3b b9 d3 0b 3d 76 9e 1e 3e
       -0.052383702 0.0045984318 0.03413746 0.15490136
000030 6f b9 6a bd 74 60 d2 3c 62 f9 1c 3e 65 c3 9f bc
       -0.05730575 0.025680758 0.15329507 -0.019502351
000040 a8 9e d4 3c 47 81 7c 3d 0d d3 35 3d 71 13 84 3d
       0.02595456 0.061646726 0.044390727 0.06449021
000050 94 18 71 3d 3d 3d c3 bd e0 f3 1b bc f1 1c 57 bd
       0.05886133 -0.09533165 -0.009518594 -0.052517835
000060 fa ae 62 be 13 2e 04 bd 3b e7 30 be 6f 95 3c 3c
       -0.22137061 -0.032270502 -0.17275707 0.011510237
000070 6b 21 37 bd 71 f9 7b 3d 18 a9 da bc be 8c 0a bd
       -0.044709604 0.061517183 -0.026691958 -0.03382563
000080 b4 ac 3c bd c1 b6 a2 bc e9 53 8b 3d 01 0d e2 bd
       -0.04606314 -0.019862534 0.06803114 -0.110376365
000090 60 28 1a bd 98 98 4f 3d 8b be c6 3c 8e 60 74 3b
       -0.03763616 0.050682634 0.02426078 0.0037288996
0000a0 02 24 63 3c ef 78 69 bd 3f c2 11 3d ec ff 79 bd
       0.013863565 -0.057000097 0.035585638 -0.06103508
0000b0 05 0d 01 3e 1d ef a7 bc b6 f7 a7 bd 3e 53 0c bd
       0.12602623 -0.02049976 -0.08201544 -0.034259073
0000c0 87 64 d4 bb 07 7a b0 bd f8 ac de 3c dc dc 5b bd
       -0.0064817104 -0.08617025 0.027182087 -0.053677425
0000d0 0c bb aa 3d 7e 6b 26 3d 98 e2 dc bb 1c 0e 6a 3b
       0.083364576 0.040629856 -0.0067408793 0.0035713976
0000e0 cd 51 2a 3d 28 58 c4 3b 67 49 46 bb a2 2d 78 bd
       0.041581918 0.0059919544 -0.0030256154 -0.060590394
0000f0 7e f6 58 3b 54 84 1f 3c a6 56 8f bd e1 bd 3a bc
       0.0033105905 0.009736139 -0.06998949 -0.01139781
000100 fb 37 34 bd a9 ad 83 bd 13 e2 47 3e 15 bb 29 3e
       -0.0439987 -0.064296074 0.19519834 0.16575272
000110 bb d2 3d 3e ed 86 43 3e ba e9 a2 bb 44 64 54 3e
       0.18537419 0.19094439 -0.00497171 0.20741373
000120 2d 58 df bc 87 e9 de 3d cd c2 a4 3d 69 0a 84 3d
       -0.027263725 0.108843856 0.08044968 0.06447298
000130 48 8b 73 bd c0 82 38 3e f4 25 db bc 55 2c fa 3d
       -0.059459 0.18018627 -0.026751496 0.12215487
000140 87 4c cb 3d cc 4f a8 bd 8a b1 31 bd 22 bc 9f bd
       0.09926706 -0.08218345 -0.043382205 -0.07799555
000150 c7 b4 9e 3d 5a 21 aa bd 2d e1 ab bc 05 f1 2b 3e
       0.07749324 -0.083071426 -0.020981396 0.1679116
000160 06 8f 7d 3d 03 6b 60 3e fb f2 38 3e 73 6e 2b bd
       0.061903976 0.21915822 0.1806144 -0.04185338
000170 95 5f c0 3c 25 9f 67 be c2 2c 5d bd d9 f6 e1 3d
       0.023483077 -0.22619303 -0.053997763 0.110334106
000180 6e be af 3d 22 2b 73 3d f0 12 1e be ff 4e 81 be
       0.085812435 0.059367307 -0.15436912 -0.25255582
000190 6d 92 e5 3d f9 0d 2f bc 93 66 6d bd 76 f7 9a bd
       0.11209569 -0.010684484 -0.05795915 -0.07566731
0001a0 b7 89 8c 3e c4 16 a7 bd ea ca 2e bd 67 31 58 3d
       0.27448818 -0.08158639 -0.042673983 0.05278149
0001b0 87 d2 a2 bc f1 7c 29 be 1d cc d9 3d 9e cc cc bd
       -0.019875778 -0.16551568 0.10634635 -0.09999965
0001c0 ca 80 74 3d 1c c5 c8 bd fb fd 30 bc 78 84 88 3d
       0.059693135 -0.09803221 -0.010802741 0.066658914
0001d0 ec b0 a9 3e bb 63 f7 3d 26 93 88 3d 9d 62 56 3d
       0.33142793 0.12079569 0.06668691 0.05234014
0001e0 f3 9d 08 be 63 ca 1d 3e 21 1e b2 bc e8 d5 d6 3d
       -0.13341503 0.15409236 -0.021742882 0.10490018
0001f0 fd ec 5f 3e 05 11 04 3e e3 08 3a bd d5 3a f3 3d
       0.21867748 0.12897117 -0.04541863 0.11876456
000200 eb 87 dc 3c 91 71 ce b9 33 19 90 3d a6 5d a9 be
       0.02692028 -0.00039375995 0.07036056 -0.3307926
000210 33 da 4a bd 97 58 96 be c5 fe 36 3e 01 d6 35 bd
       -0.049524497 -0.29364464 0.17870624 -0.044393543
000220 91 fc 9c 3d 8b d6 41 be 54 13 cc bd 92 38 0c be
       0.07665361 -0.18929498 -0.09964624 -0.13693455
000230 d8 02 4f bd 8f 3d 6f be 76 d0 99 bd bc 22 a9 bd
       -0.05053982 -0.23363326 -0.07510464 -0.08258578
000240 d0 60 3b 3d fa 1c 70 bd 83 2a ab 3d a6 f0 4e 3c
       0.045746624 -0.058621384 0.08357718 0.012630617
000250 66 ba 0a bd d7 17 e1 3d 73 00 e8 3d 74 f8 94 3d
       -0.03386917 0.10990875 0.11328211 0.07273951
000260 e3 65 c8 bb e6 e7 51 3d e4 07 e9 3d 90 d5 ef bd
       -0.0061156615 0.051246546 0.11378458 -0.11710656
000270 56 90 36 bd 8a 05 41 3d a2 d3 a5 3d 81 b2 39 3e
       -0.044571243 0.047124423 0.080970064 0.181345
000280 f1 cb c6 bd 29 d8 19 bd 68 ad f2 3d ea 86 63 bd
       -0.097068675 -0.037559662 0.11849481 -0.055548586
000290 b2 61 c7 3d d6 f5 89 3c f1 76 bb bd cc 38 e0 bd
       0.09735431 0.016840857 -0.09153546 -0.10948333
0002a0 e1 b2 23 be e2 ad 93 3e bf 8d ef bd f1 3d 8b 3d
       -0.15986206 0.288436 -0.11696958 0.06798924
0002b0 a5 e4 52 bc 59 27 34 bc a9 ad 82 bb 85 5a 19 3e
       -0.012871896 -0.010995709 -0.003987987 0.14975937
0002c0 13 4a bd 3d 67 48 63 be a8 0d 87 bd 6c 51 50 3d
       0.09242644 -0.22195588 -0.065944016 0.0508589
0002d0 af ef ba bd b4 8e c9 bd a1 f9 14 be 68 ba df bd
       -0.09127747 -0.098416716 -0.14548351 -0.10924226
0002e0 3f 42 1a bd 74 98 11 be de d0 8e 3d a6 8f b1 bd
       -0.037660833 -0.14218313 0.06973432 -0.08669977
0002f0 08 7a a2 3d db 33 27 3d 18 44 30 bc 41 92 86 be
       0.07933432 0.040820938 -0.010758422 -0.26283458
000300 a4 83 99 bd 3a f6 97 bd 2e af c4 bd a3 6f 13 bd
       -0.074958116 -0.07420011 -0.096037254 -0.035995137
000310 84 4d 1a 3d cd bb 77 bd 76 a1 3c 3d 04 b0 99 bc
       0.03767158 -0.060481835 0.04605242 -0.018760689
000320 ab ac bb 3d 98 81 09 3a 8b 65 99 bc a8 24 3a be
       0.09163793 0.0005245446 -0.018725177 -0.18178046
000330 a6 2b d8 bd d0 2a 9d bd aa ba e9 bb 3e 8f 18 3e
       -0.105552 -0.076741815 -0.007132848 0.14898393
000340 e5 4a 62 3e 17 1d b7 bc a3 29 2d 3d 19 b3 83 be
       0.22098882 -0.022352738 0.042276036 -0.25722578
000350 d7 21 d7 3d 5a 1c 2b 3e 67 f1 e3 3d ad fe 86 bd
       0.10504501 0.16710034 0.11130028 -0.06591544
000360 3e 60 8c 3e 9f c0 8f 3d e1 a3 46 3e 3d d4 f4 bd
       0.27417177 0.070191614 0.19398452 -0.11954544
000370 c4 a5 c9 bd 55 83 c7 3d f3 82 02 3e fd 99 ec 3d
       -0.098460704 0.097418465 0.12745266 0.115528084
000380 4f 20 df bd 4e 49 89 bd 21 67 c3 3d f2 ac 30 be
       -0.10894834 -0.06703435 0.09541155 -0.17253473
000390 1b 91 ca 3d 78 52 44 3e 70 39 1f be 02 7f 2d be
       0.09890958 0.19172084 -0.15549254 -0.16942981
0003a0 20 17 db 3d 2c 1a b4 3d e1 3a 1c 3d 44 4c 32 3d
       0.1069777 0.087940544 0.03814209 0.043529764
0003b0 74 8d b0 bd ac e0 bf 3d 05 e1 33 3d c8 91 35 bd
       -0.0862073 0.09369025 0.043915767 -0.04432848
0003c0 21 6a 8b bd 24 30 34 3e 06 78 36 bd 1f bc bc 3c
       -0.06807352 0.17596489 -0.044548057 0.023038922
0003d0 91 ff 9c 3d 76 0a 80 3d 4b d9 d5 bd 42 2f d2 bd
       0.07665933 0.06251995 -0.10441836 -0.1026292
0003e0 51 df 3d 3d 72 12 a6 bd 16 07 4b 3d c6 66 1a bd
       0.04635555 -0.08108987 0.049567305 -0.03769567
0003f0 a0 54 0a 3d 82 d1 83 bd 6a 27 85 3d 5b 4f 17 be
       0.03377211 -0.06436445 0.06501658 -0.14776365

rnn.bias_ih_l1 f4 [192]
000000 6f 87 38 bd dc f4 81 3d 23 7e 08 3e 08 0b bb 3d
       -0.045051035 0.06345531 0.13329367 0.091329634
000010 3c c6 81 bb 91 00 2f bc d7 ac a4 bc 70 51 ca 3d
       -0.003960399 -0.010681287 -0.020101948 0.09878814
000020 f7 3d 15 3e fb 75 a5 3a 9c d6 90 3c 66 df e6 bb
       0.14574419 0.0012623662 0.017680459 -0.007045674
000030 cd 08 8e 3d ba 28 d0 bd 65 36 2b 3d fe 11 e5 bc
       0.06935272 -0.10164018 0.04179992 -0.02796268
000040 ad db 0c 3e 79 a2 e7 bd ca 95 a9 3c dd 07 31 bd
       0.13755675 -0.11310286 0.020701308 -0.04322039
000050 6f e7 7f 3c 7a 24 97 ba 71 00 fc bb 61 9c 96 3c
       0.015619143 -0.0011531257 -0.0076904823 0.018385114
000060 4b e5 24 3d 25 d1 c3 3c 47 f8 ba 3d 40 50 f1 3d
       0.040257733 0.023903439 0.091293864 0.117828846
000070 f5 da 7e 3d 46 06 c7 3d 92 ab 29 3d e4 b2 1f bd
       0.062220532 0.097179934 0.041423388 -0.038988963
000080 74 43 64 3c 10 07 38 3c 63 e5 b9 3d 5d cb 9f 3d
       0.013932098 0.011232153 0.09076955 0.0780246
000090 c2 07 44 bd 52 3e 9f 3c 90 40 4a 3d 80 a6 83 3d
       -0.04785896 0.019438896 0.049377978 0.06428242
0000a0 b4 a2 13 be 98 ed 21 3a 92 6d 3a bd 32 61 eb 3d
       -0.14417535 0.0006177067 -0.04551465 0.11493148
0000b0 4c 52 f2 3a c1 c3 a1 3d 13 7a 93 3d ce be 25 bd
       0.0018487661 0.07898665 0.07201018 -0.04046517
0000c0 15 7e 93 3d 00 c9 56 3d 0e 07 1a 3e 4d 0f d5 bc
       0.072017826 0.052437782 0.15041754 -0.026008273
0000d0 f2 74 16 3c ec 36 f9 3c d5 fa dc 3d cd 47 73 bc
       0.009183155 0.030421697 0.1079003 -0.014848662
0000e0 da 8c de 3d 82 ce 20 3e 4f 4b 86 3c e3 ec b2 bd
       0.10866709 0.15703776 0.016393332 -0.08736589
0000f0 69 1d 25 3d e9 85 1f 39 fa 3c 4e 3d b3 45 da 3c
       0.04031125 0.00015213307 0.05035112 0.026644563
000100 4e 8d 57 3c 18 6a f6 bd 18 e0 d0 bd 87 74 3c 3d
       0.013156248 -0.120319545 -0.101989925 0.046009567
000110 1b 12 82 be 54 c3 33 3e 26 51 44 3d f6 0e 42 be
       -0.25404438 0.1755498 0.04792895 -0.1895102
000120 26 c0 2f be ee 8b 96 bb b6 c7 61 be 12 08 bf be
       -0.17163143 -0.0045943176 -0.2204884 -0.37310845
000130 83 69 61 be 4c de 6c bd 0d 73 8e be 36 a1 fd bc
       -0.22012906 -0.057829186 -0.27822152 -0.03096066
000140 0c f6 8c be 09 74 1f 3d eb df a1 be 6b ca 06 be
       -0.2753147 0.03892902 -0.31616148 -0.13163154
000150 f4 78 65 be af d1 8f be 7b 98 27 be f3 85 22 be
       -0.22409421 -0.28089663 -0.1636676 -0.1587141
000160 b7 69 6d be 6c c9 dd bd 14 99 93 be 86 36 12 be
       -0.23184858 -0.10829434 -0.28827727 -0.14278612
000170 5e fd b5 bd d8 52 8c be 43 5a 96 be 3c 0e 22 bd
       -0.088862166 -0.27406955 -0.2936574 -0.039564356
000180 ba c7 11 bd d4 00 c3 bd b6 ee 3a bd 4c 2b 1a be
       -0.035590865 -0.09521642 -0.04563781 -0.15055579
000190 06 ad 98 3d 06 60 95 be 91 ae 81 be 5a a2 f7 bd
       0.074548766 -0.29174823 -0.25328496 -0.12091513
0001a0 24 c9 84 bd 85 b7 f7 bd 23 a9 60 be c3 2f 90 be
       -0.06483677 -0.120955504 -0.2193952 -0.2816144
0001b0 f3 ff c1 be de 4d 0f be ff 4d 00 be 8c 1b 45 be
       -0.37890586 -0.13994548 -0.12529753 -0.1924879
0001c0 e0 a8 67 be 59 0a 9e bd 49 4c 12 be 1f e8 97 be
       -0.22623014 -0.077168174 -0.14286913 -0.29669282
0001d0 4f 4d 29 3e 13 5f 5e bd b3 ef ad bd f8 ba fa bd
       0.16533397 -0.05428989 -0.084929846 -0.12242693
0001e0 dd 5d 05 be 8b 55 3b bd 09 a7 28 be 5f 92 20 be
       -0.13024087 -0.045735877 -0.16469969 -0.15680836
0001f0 ae 4a b9 3a 67 37 40 be 59 99 33 be 06 13 9a 3d
       0.0014136636 -0.18771134 -0.17538966 0.0752316
000200 c5 71 4c bd fb d1 ff 3d 1f d3 dc 3d 51 b4 90 3d
       -0.049913187 0.124912225 0.10782456 0.070656426
000210 2a 69 16 be 54 5b fd 3c 9e db 3c bd 3c 46 2d 3e
       -0.14688554 0.030927338 -0.04610788 0.16921324
000220 62 b5 dd bd 2c 62 8b bb f4 cc fe bd 2c 02 a9 bd
       -0.10825612 -0.0042536464 -0.124414355 -0.082523674
000230 f6 8e 0a 3e 03 bc 6c 3d a2 91 cd bd 5a a8 3e 3d
       0.13531098 0.05779649 -0.10037543 0.04654727
000240 bc 20 f5 3d f0 c7 65 bd 02 35 9e 3d af 3d ef bc
       0.11969134 -0.05609888 0.07724954 -0.029204218
000250 8a a7 0a bd 9b 8d c5 3d 4c 63 7f 3d d0 dc 02 3e
       -0.033851184 0.0964615 0.062350556 0.12779546
000260 14 51 25 3d 03 05 76 3d 2c 6b 86 3d d6 43 c1 bd
       0.040360525 0.060063373 0.0656341 -0.09436767
000270 19 b0 fb bd 66 7c 13 be 98 d3 09 3e 68 f9 e7 bb
       -0.12289447 -0.14402923 0.13459623 -0.007079292
000280 ba b9 b0 3c 23 06 8c 3d 09 06 7b bd 35 86 f1 3d
       0.021572936 0.06837108 -0.061285052 0.11793176
000290 e0 e9 ec 3d 5f 82 b8 3d 67 73 01 be b2 54 c9 3c
       0.115680456 0.09009241 -0.12641679 0.024576519
0002a0 19 09 4b 3d 4c 28 9b 3d de 1d c7 bd 28 88 11 3e
       0.049569223 0.075760454 -0.097224936 0.14212096
0002b0 9e 4e d5 bd 02 80 d2 bd 05 be bd 3d c7 d8 ae 3d
       -0.10415386 -0.10278322 0.09264759 0.08537441
0002c0 68 89 f8 3c b8 56 e8 bd 64 a7 f9 3d b8 ee 99 3d
       0.030338958 -0.11344665 0.1219013 0.07516235
0002d0 3e 4f d9 3c 93 c6 c6 bd bd 63 80 bd 3f c7 78 bd
       0.026527043 -0.09705844 -0.062690236 -0.06073689
0002e0 2f e3 eb bd b0 81 b5 3d e4 2e da bd cd de 4a bd
       -0.11517941 0.088626266 -0.10653475 -0.049528886
0002f0 92 a0 29 3d b5 b3 2d 3e fe f4 da bd ed 8e 21 3c
       0.041412897 0.16963084 -0.1069126 0.009860736

rnn.bias_hh_l1 f4 [192]
000000 6f 87 38 bd dc f4 81 3d 23 7e 08 3e 08 0b bb 3d
       -0.045051035 0.06345531 0.13329367 0.091329634
000010 3c c6 81 bb 91 00 2f bc d7 ac a4 bc 70 51 ca 3d
       -0.003960399 -0.010681287 -0.020101948 0.09878814
000020 f7 3d 15 3e fb 75 a5 3a 9c d6 90 3c 66 df e6 bb
       0.14574419 0.0012623662 0.017680459 -0.007045674
000030 cd 08 8e 3d ba 28 d0 bd 65 36 2b 3d fe 11 e5 bc
       0.06935272 -0.10164018 0.04179992 -0.02796268
000040 ad db 0c 3e 79 a2 e7 bd ca 95 a9 3c dd 07 31 bd
       0.13755675 -0.11310286 0.020701308 -0.04322039
000050 6f e7 7f 3c 7a 24 97 ba 71 00 fc bb 61 9c 96 3c
       0.015619143 -0.0011531257 -0.0076904823 0.018385114
000060 4b e5 24 3d 25 d1 c3 3c 47 f8 ba 3d 40 50 f1 3d
       0.040257733 0.023903439 0.091293864 0.117828846
000070 f5 da 7e 3d 46 06 c7 3d 92 ab 29 3d e4 b2 1f bd
       0.062220532 0.097179934 0.041423388 -0.038988963
000080 74 43 64 3c 10 07 38 3c 63 e5 b9 3d 5d cb 9f 3d
       0.013932098 0.011232153 0.09076955 0.0780246
000090 c2 07 44 bd 52 3e 9f 3c 90 40 4a 3d 80 a6 83 3d
       -0.04785896 0.019438896 0.049377978 0.06428242
0000a0 b4 a2 13 be 98 ed 21 3a 92 6d 3a bd 32 61 eb 3d
       -0.14417535 0.0006177067 -0.04551465 0.11493148
0000b0 4c 52 f2 3a c1 c3 a1 3d 13 7a 93 3d ce be 25 bd
       0.0018487661 0.07898665 0.07201018 -0.04046517
0000c0 15 7e 93 3d 00 c9 56 3d 0e 07 1a 3e 4d 0f d5 bc
       0.072017826 0.052437782 0.15041754 -0.026008273
0000d0 f2 74 16 3c ec 36 f9 3c d5 fa dc 3d cd 47 73 bc
       0.009183155 0.030421697 0.1079003 -0.014848662
0000e0 da 8c de 3d 82 ce 20 3e 4f 4b 86 3c e3 ec b2 bd
       0.10866709 0.15703776 0.016393332 -0.08736589
0000f0 69 1d 25 3d e9 85 1f 39 fa 3c 4e 3d b3 45 da 3c
       0.04031125 0.00015213307 0.05035112 0.026644563
000100 4e 8d 57 3c 18 6a f6 bd 18 e0 d0 bd 87 74 3c 3d
       0.013156248 -0.120319545 -0.101989925 0.046009567
000110 1b 12 82 be 54 c3 33 3e 26 51 44 3d f6 0e 42 be
       -0.25404438 0.1755498 0.04792895 -0.1895102
000120 26 c0 2f be ee 8b 96 bb b6 c7 61 be 12 08 bf be
       -0.17163143 -0.0045943176 -0.2204884 -0.37310845
000130 83 69 61 be 4c de 6c bd 0d 73 8e be 36 a1 fd bc
       -0.22012906 -0.057829186 -0.27822152 -0.03096066
000140 0c f6 8c be 09 74 1f 3d eb df a1 be 6b ca 06 be
       -0.2753147 0.03892902 -0.31616148 -0.13163154
000150 f4 78 65 be af d1 8f be 7b 98 27 be f3 85 22 be
       -0.22409421 -0.28089663 -0.1636676 -0.1587141
000160 b7 69 6d be 6c c9 dd bd 14 99 93 be 86 36 12 be
       -0.23184858 -0.10829434 -0.28827727 -0.14278612
000170 5e fd b5 bd d8 52 8c be 43 5a 96 be 3c 0e 22 bd
       -0.088862166 -0.27406955 -0.2936574 -0.039564356
000180 ba c7 11 bd d4 00 c3 bd b6 ee 3a bd 4c 2b 1a be
       -0.035590865 -0.09521642 -0.04563781 -0.15055579
000190 06 ad 98 3d 06 60 95 be 91 ae 81 be 5a a2 f7 bd
       0.074548766 -0.29174823 -0.25328496 -0.12091513
0001a0 24 c9 84 bd 85 b7 f7 bd 23 a9 60 be c3 2f 90 be
       -0.06483677 -0.120955504 -0.2193952 -0.2816144
0001b0 f3 ff c1 be de 4d 0f be ff 4d 00 be 8c 1b 45 be
       -0.37890586 -0.13994548 -0.12529753 -0.1924879
0001c0 e0 a8 67 be 59 0a 9e bd 49 4c 12 be 1f e8 97 be
       -0.22623014 -0.077168174 -0.14286913 -0.29669282
0001d0 4f 4d 29 3e 13 5f 5e bd b3 ef ad bd f8 ba fa bd
       0.16533397 -0.05428989 -0.084929846 -0.12242693
0001e0 dd 5d 05 be 8b 55 3b bd 09 a7 28 be 5f 92 20 be
       -0.13024087 -0.045735877 -0.16469969 -0.15680836
0001f0 ae 4a b9 3a 67 37 40 be 59 99 33 be 06 13 9a 3d
       0.0014136636 -0.18771134 -0.17538966 0.0752316
000200 ea 72 ae bc f5 a2 00 3e 09 0a 00 3e ba 72 9e 3d
       -0.02129503 0.12562163 0.12503828 0.07736726
000210 78 0a 3a be 95 8d 17 3d 2f 5c 9c bc 69 27 33 3e
       -0.18168056 0.037000258 -0.019086925 0.17495503
000220 3b 57 bc bd d5 53 77 bc c0 5f fb bd 46 bd 99 bd
       -0.091963254 -0.015095671 -0.12274122 -0.07506804
000230 ad 2b 10 3e c1 44 09 3b b9 eb e2 bd af da 63 3d
       0.14079161 0.0020945522 -0.11080117 0.055628475
000240 63 ef f9 3d 51 7a 16 bd 20 db 92 3d b0 2b 50 bc
       0.122038625 -0.036737744 0.07170701 -0.012705728
000250 c0 eb fa bc 7e 9f af 3d 67 e9 f5 3c 59 9a 30 3e
       -0.030629992 0.085753426 0.030018521 0.17246379
000260 e9 de 4b 3d 47 2a ba 3d 67 b4 8e 3d 54 24 ec bd
       0.04977313 0.09090095 0.06968003 -0.115303665
000270 3e e8 ef bd 6a b8 16 be 56 bd 00 3e c7 78 3c 3d
       -0.117142186 -0.14718786 0.12572226 0.04601362
000280 48 b3 7f 3c 4f 7e 12 3d fa 48 8d bd 20 1e 16 3e
       0.015606709 0.03576499 -0.06898685 0.1465993
000290 79 f2 da 3d 6d 72 a0 3d 5b 7f e5 bd 98 4b 19 3c
       0.10690779 0.07834325 -0.11205932 0.009356402
0002a0 6d 64 0b 3d c0 57 81 3d 99 4f 87 bd 25 8b 05 3e
       0.03403132 0.06315565 -0.06606979 0.1304136
0002b0 a9 13 be bd 96 95 cc bd bb 7e c1 3d 41 0e 9d 3d
       -0.092810936 -0.09989469 0.09448 0.07668734
0002c0 10 24 02 3d db cc 16 be 1c 2d 08 3e 9f 2f 95 3d
       0.031772673 -0.14726584 0.13298458 0.07284474
0002d0 05 89 24 3d 98 52 c1 bd 3c 7c 57 bd 3e 5c 41 bd
       0.040169735 -0.09439582 -0.052608714 -0.04720711
0002e0 d1 67 f7 bd a5 f3 9c 3d a5 ec 04 be 35 88 4c bd
       -0.12080348 0.07663659 -0.12980898 -0.049934585
0002f0 4a d0 75 3d 00 6c 55 3e f1 3c da bd 0f e2 47 3c
       0.060013093 0.2084198 -0.10656155 0.012199893
