output/TimeGAN/stock/train/weights/netR.pth (torch, 27839 bytes, 14 tensors)

rnn.weight_ih_l0 f4 [30, 150]
-0.052813698 0.14578415 -0.12323715 -0.050076418 -0.09810945 0.013943966 -0.091040164 0.14814948
-0.052701592 -0.05662039 0.104692936 0.1544885 -0.12512596 0.114518255 -0.09255702 -0.086538136
0.1364232 0.21338713 0.08826981 0.12859523 -0.029053021 0.055579796 0.1029831 0.16524325
0.0035022718 0.085940935 -0.14856319 0.054719847 -0.13318168 -0.2053342 0.047243517 0.029605435
-0.07316781 0.08524324 -0.10617471 0.16284388 0.1947113 -0.10855721 -0.059457276 -0.20045844
-0.1967708 0.24189395 0.09792177 0.020507926 -0.03289143 -0.2180181 0.076891646 -0.121882215
0.04978374 -0.15928903 -0.025419878 -0.16409357 -0.11489114 -0.08302945 -0.1804839 0.12841001
-0.17155312 0.049446695 -0.1551934 -0.101824164 0.0689307 -0.025584234 -0.11512436 -0.034567304
-0.04261281 -0.13218585 0.09069809 -0.021919768 -0.017729355 0.14142898 0.021328999 -0.015197701
0.016593728 0.12747985 0.1152199 -0.045330204 0.05282146 -0.019372769 -0.20833775 0.08504339
0.15827514 0.10939142 0.21462676 0.074480064 -0.12715706 -0.21381702 -0.113106124 0.14464456
0.13448767 0.03154952 -0.03990771 -0.069492266 0.045662668 -0.21926934 -0.21395676 0.03454427
0.12531383 0.06608425 -0.23643751 -0.04769695 -0.13292632 -0.15948457 -0.07501511 0.06959699
0.07356977 -0.17994197 0.08689273 -0.061672967 0.04007441 -0.07056446 -0.02772329 -0.081963405
0.06031744 0.044753578 -0.115230516 -0.081588596 0.1472099 -0.053353157 -0.138605 -0.025894584
0.061784364 -0.041757073 0.09503072 0.06761587 0.105688095 0.18565828 -0.034813017 0.14586703
0.08938166 0.05395814 -0.2119677 -0.076076485 -0.09298519 0.17558903 0.17408542 0.11844937
-0.15094815 -0.07393258 -0.09403019 -0.053846296 0.17457025 -0.04809267 0.044488054 0.0923915
-0.067241326 0.061289683 -0.004456621 -0.05534425 0.008310157 0.0825813 -0.16462527 0.03474516
0.11567129 -0.13032244 -0.056161795 -0.13235001 0.013404198 -0.11644588 0.11598039 0.023170864
0.26473725 0.20156038 -0.061734747 0.19814196 -0.041530035 -0.15260449 -0.04488636 -0.13592899
-0.12132327 0.12440123 -0.0026465147 0.08194079 0.06227722 0.17451572 0.07823828 -0.13398723
-0.16893095 -0.20699883 -0.05743478 0.020527741 -0.0350595 -0.029732073 -0.06014372 -0.21648441
-0.057710547 -0.1804424 -0.21513882 -0.094683945 -0.009831548 0.1785411 0.03118505 0.022546599
0.0064019114 -0.06563377 -0.19123319 0.011304374 0.17227855 0.09015814 -0.0715145 -0.18553369
-0.079059355 -0.22073545 0.1950813 -0.06296619 0.029892288 0.003517024 -0.0059895627 0.2031189
0.108710766 0.12583345 0.040123098 -0.051404692 -0.022912877 -0.096642956 -0.02648294 0.08324568
-0.13560078 -0.069469534 0.044581022 -0.1768209 -0.2175747 -0.029241785 0.09777275 0.023345662
0.16173258 0.045742318 0.2537915 0.08181345 0.14473388 -0.09302848 0.11705521 -0.0874078
-0.074583225 0.08756318 0.066058755 0.059447955 0.08201729 0.14408791 0.058293443 0.08538168
0.1491672 -0.1839318 -0.06739158 0.038321257 0.24898374 0.08414359 -0.15463008 0.014962488
-0.14911926 -0.084435135 -0.07032919 -0.15296537 -0.024288869 -0.110160485 0.1578048 -0.16190775
00000000: 2d53 58bd 7148 153e c263 fcbd ee1c 4dbd
00000010: 9bed c8bd 3b75 643c 4473 babd 7fb4 173e
00000020: a0dd 57bd c8ea 67bd 4069 d63d 3c32 1e3e
00000030: 0521 00be 8c88 ea3d 898e bdbd e83a b1bd
00000040: 86b2 0b3e 2882 5a3e cdc6 b43d 78ae 033e
00000050: 9a00 eebc a4a7 633d cee8 d23d 8735 293e
00000060: 5f86 653b cd01 b03d f320 18be eb21 603d
00000070: c760 08be 2143 52be 6b82 413d 1987 f23c
00000080: 01d9 95bd 0294 ae3d 2072 d9bd 8cc0 263e
00000090: 6662 473e 3e53 debd 7989 73bd fa44 4dbe
000000a0: 497e 49be 0cb3 773e 358b c83d 3d00 a83c
000000b0: 2ab9 06bd 2340 5fbe 5e79 9d3d 629d f9bd
000000c0: 09ea 4b3d aa1c 23be 593d d0bc 2508 28be
000000d0: 0c4c ebbd 580b aabd c5d0 38be ea7d 033e
000000e0: 9fab 2fbe 9e88 4a3d 05eb 1ebe 3089 d0bd
000000f0: 8a2b 8d3d 0796 d1bc 52c6 ebbd 7296 0dbd
00000100: c58a 2ebd ba5b 07be ecbf b93d 1691 b3bc
00000110: 273d 91bc c2d2 103e 27ba ae3c c7ff 78bc
00000120: 92ef 873c 148a 023e 69f8 eb3d 2aac 39bd
00000130: 515b 583d a4b3 9ebc 7e56 55be 3b2b ae3d
00000140: e112 223e 9c08 e03d 1ec7 5b3e 0189 983d
00000150: 7635 02be d9f2 5abe 2fa4 e7bd b41d 143e
00000160: 23b7 093e 123a 013d 4476 23bd f651 8ebd
00000170: c708 3b3d 2488 60be 7b17 5bbe 4b7e 0d3d
00000180: 4552 003e 2e57 873d ad1c 72be e15d 43bd
00000190: d61d 08be ec4f 23be 86a1 99bd de88 8e3d
000001a0: bfab 963d b542 38be d1f4 b13d cb9c 7cbd
000001b0: 1125 243d 1984 90bd f41b e3bc 6edc a7bd
000001c0: 6c0f 773d 874f 373d fafd ebbd ec17 a7bd
000001d0: 31be 163e d788 5abd 78ee 0dbe e120 d4bc
000001e0: 9a11 7d3d 7709 2bbd 779f c23d 307a 8a3d
000001f0: 0073 d83d 341d 3e3e 1898 0ebd 2b5e 153e
00000200: bb0d b73d 3603 5d3d 100e 59be fdcd 9bbd
00000210: 056f bebd 9ccd 333e 7343 323e 9595 f23d
00000220: 2792 1abe f769 97bd e692 c0bd ef8d 5cbd
00000230: 8bc2 323e d2fc 44bd 1b39 363d c137 bd3d
00000240: d2b5 89bd e40a 7b3d d908 92bb a7b0 62bd
00000250: 5327 083c 6220 a93d 8793 28be f150 0e3d
00000260: 12e5 ec3d 3f73 05be e909 66bd c386 07be
00000270: 489d 5b3c 2d7b eebd 2087 ed3d d3d0 bd3c
00000280: a48b 873e d865 4e3e 93dd 7cbd bae5 4a3e
00000290: 661b 2abd 5a44 1cbe c3da 37bd f830 0bbe
000002a0: 5678 f8bd 12c6 fe3d 2671 2dbb 93d0 a73d
000002b0: 6616 7f3d 40b4 323e 643b a03d f333 09be
000002c0: 3cfc 2cbe 80f7 53be bb40 6bbd cb29 a83c
000002d0: 8d9a 0fbd ad90 f3bc 4359 76bd 17ae 5dbe
000002e0: e561 6cbd e4c5 38be 5a4d 5cbe a8e9 c1bd
000002f0: 8014 21bc 7ad3 363e ca77 ff3c a5b3 b83c
00000300: 20c7 d13b ff6a 86bd a2d2 43be fb35 393c
00000310: ca69 303e d5a4 b83d 3276 92bd 8bfc 3dbe
00000320: dfe9 a1bd 7908 62be 64c3 473e 6bf4 80bd
00000330: ace0 f43c df7d 663b 1844 c4bb 67fe 4f3e
00000340: c0a3 de3d 7cda 003e 1e58 243d ba8d 52bd
00000350: c9b3 bbbc beec c5bd c0f2 d8bc b67c aa3d
00000360: eeda 0abe 0b46 8ebd 979a 363d 8a10 35be
00000370: e7cb 5ebe 788c efbc 143d c83d 673f bf3c
00000380: 3a9d 253e 4c5c 3b3d f6f0 813e cf8d a73d
00000390: 1e35 143e b785 bebd a4ba ef3d dc02 b3bd
000003a0: 17bf 98bd 5354 b33d d049 873d b37f 733d
000003b0: aef8 a73d c88b 133e 1bc5 6e3d 97dc ae3d
000003c0: 49bf 183e 9e58 3cbe 9904 8abd c0f6 1c3d
000003d0: 98f5 7e3e 7953 ac3d 5957 1ebe 3925 753c
000003e0: b8b2 18be 54ec acbd c008 90bd f4a2 1cbe
000003f0: 73f9 c6bc d29b e1bd 9597 213e 25cb 25be

rnn.weight_hh_l0 f4 [30, 10]
0.17046201 -0.32711416 0.16493678 -0.032701295 -0.23532484 -0.16335444 -0.2524119 0.21918231
-0.5566571 0.23394872 0.10572099 0.0500087 -0.044333078 0.2925792 0.22079977 -0.058988437
0.0035438994 0.079374656 0.096985295 -0.4981524 0.32166043 0.1428177 0.077559546 -0.08978736
0.061780043 -0.17255867 0.26707375 0.06604524 0.045284517 0.08665378 -0.16561617 -0.064035915
0.29673192 -0.20490694 0.29438502 -0.0575346 0.18215856 0.0012248906 -0.16030091 -0.23885041
0.14128834 0.078964785 -0.16709676 -0.34423447 0.068302095 -0.18381803 0.31932753 0.13444674
-0.32014725 0.014591701 -0.16190822 -0.31003076 -0.06906317 0.26450646 0.012247175 -0.18103102
-0.02236471 0.092450544 -0.116620414 -0.11166734 -0.061212506 0.041412022 -0.2292998 0.24648753
-0.091927774 0.5078713 0.029824758 0.31204116 0.002159342 -0.105579324 0.1608129 -0.014881795
-0.49740884 0.041662715 0.21409532 0.03777146 -0.06323159 -0.060527533 -0.06465335 0.1766722
-0.035160027 0.18271007 -0.026656283 -0.02932655 -0.002627607 0.10657417 0.17753899 0.06382661
0.0396186 -0.2176345 0.01030712 -0.048197724 0.14033096 -0.3135947 -0.20475453 0.017704306
0.1336388 0.093658 -0.13767527 -0.30644098 -0.098836586 0.08305766 0.00800973 0.1726545
0.16036263 -0.09451931 0.084705226 -0.103898786 -0.18963869 0.14644714 0.3030914 0.013596717
0.10239055 -0.058663107 0.14441957 0.23400785 -0.18065147 -0.16574925 -0.46920106 -0.040885054
0.22109528 -0.06554197 -0.007946104 0.010597549 0.24897929 0.19392513 -0.033674855 0.02805759
-0.093130566 -0.19426797 0.09500483 -0.1484056 -0.047737215 0.0992329 -0.02393226 0.068519495
-0.05272752 0.04624231 0.17586437 -0.06924705 0.08868847 0.14594352 -0.009529465 -0.03149826
0.22424713 -0.5301697 -0.25184888 0.3012455 0.19096078 -0.059342097 0.38105884 -0.27388498
0.057062287 -0.14161348 0.22619413 0.06886198 0.0685072 0.06142627 0.20850618 0.17139226
0.19199261 0.17632356 0.10567496 0.14445996 -0.0013668049 -0.062407084 0.365473 0.11550924
-0.08458336 -0.05518153 -0.22216158 0.3503365 0.14521918 -0.0077300835 0.0723258 0.055420913
0.06410598 0.23722754 -0.11674721 0.2932133 0.3230728 0.11787275 0.06440634 0.45892838
-0.27061856 -0.042986576 0.12061586 0.21266043 -0.07527816 0.09061162 0.15146025 -0.114357375
-0.33795178 -0.14632316 -0.34029648 0.021542795 0.13294348 -0.17675582 -0.15889114 -0.25436136
0.3240228 -0.16666332 0.1059409 -0.092911154 -0.18921465 -0.108164415 0.13195243 -0.064685956
0.040832873 -0.18214548 0.11369209 0.20595706 0.00600892 0.057749372 0.019158922 0.12974274
-0.24718408 -0.17247687 0.09480959 -0.28456044 -0.09675437 0.008648478 -0.15774307 -0.39858323
-0.11536391 -0.09383227 -0.30597556 0.23584412 -0.1960475 -0.11916975 -0.014855008 -0.40864143
0.20103239 -0.03434268 -0.0449929 0.07243452 -0.008563429 0.39680058 0.22125438 -0.057783395
-0.30107155 -0.25336108 -0.18443307 0.36298954 0.21106718 0.011083367 0.41884398 -0.13516143
-0.0029762445 -0.019916743 -0.0030973759 0.02010591 -0.34889463 0.16259018 -0.106699824 -0.38323325
00000000: 988d 2e3e 827b a7be 30e5 283e cbf1 05bd
00000010: fff8 70be 6346 27be 223c 81be 5471 603e
00000020: 1481 0ebf 4190 6f3e 3f84 d83d ecd5 4c3d
00000030: 9a96 35bd f1cc 953e 5619 623e dc9d 71bd
00000040: c440 683b 2e8f a23d 3aa0 c63d d50d ffbe
00000050: adb0 a43e ce3e 123e 8ad7 9e3d 6fe2 b7bd
00000060: 120d 7d3d 38b3 30be e4bd 883e ba42 873d
00000070: 427c 393d 8977 b13d 4997 29be 4325 83bd
00000080: 3fed 973e 20d3 51be a2b9 963e 67a9 6bbd
00000090: c687 3a3e 828c a03a ec25 24be 3495 74be
000000a0: e4ad 103e 4ab8 a13d 6a1b 2bbe 803f b0be
000000b0: f8e1 8b3d cb3a 3cbe e67e a33e 68ac 093e
000000c0: 57ea a3be 0812 6f3c 45cb 25be 5abc 9ebe
000000d0: fe70 8dbd 646d 873e 60a8 483c 3260 39be
000000e0: 3236 b7bc b656 bd3d afd6 eebd d9b1 e4bd
000000f0: f7b9 7abd a79f 293d 91cd 6abe 3a67 7c3e
00000100: a144 bcbd db03 023f 0d53 f43c dcc3 9f3e
00000110: bf83 0d3b f939 d8bd 23ac 243e c6d2 73bc
00000120: 5fac febe 86a6 2a3d ce3b 5b3e 3fb6 1a3d
00000130: 907f 81bd b8eb 77bd fa68 84bd 8fe9 343e
00000140: f603 10bd 5918 3b3e 475e dabc 3c3e f0bc
00000150: ee33 2cbb 8f43 da3d c8cc 353e 87b7 823d
00000160: 1d47 223d 94db 5ebe 32df 283c fa6a 45bd
00000170: ebb2 0f3e 7c8f a0be 2cab 51be 9f08 913c
00000180: 9cd8 083e c4cf bf3d bffa 0cbe d5e5 9cbe
00000190: d66a cabd 221a aa3d 3e3b 033c 57cc 303e
000001a0: 1a36 243e 5793 c1bd ef79 ad3d e3c8 d4bd
000001b0: a530 42be 3df6 153e cc2e 9b3e c4c4 5e3c
000001c0: 23b2 d13d ba48 70bd b9e2 133e c19f 6f3e
000001d0: b3fc 38be 2cba 29be 1f3b f0be 1677 27bd
000001e0: cd66 623e de3a 86bd 6030 02bc 58a1 2d3c
000001f0: 6df4 7e3e 4f94 463e a5ee 09bd 08d9 e53c
00000200: 3dbb bebd 2fee 46be e491 c23d a3f7 17be
00000210: 1988 43bd 9e3a cb3d 960d c4bc f353 8c3d
00000220: d0f8 57bd 9468 3d3d ca15 343e 66d1 8dbd
00000230: 4da2 b53d 3872 153e 7921 1cbc 5204 01bd
00000240: 0aa1 653e 34b9 07bf 56f2 80be da3c 9a3e
00000250: 398b 433e b310 73bd 251a c33e a73a 8cbe
00000260: 25ba 693d 2003 11be 6f9f 673e 8307 8d3d
00000270: 814d 8c3d 1d9a 7b3d a582 553e 7481 2f3e
00000280: b699 443e 2a8e 343e 1d6c d83d 50ed 133e
00000290: 5d26 b3ba 929e 7fbd 471f bb3e 1c90 ec3d
000002a0: 0a3a adbd 0706 62bd 537e 63be 4e5f b33e
000002b0: 56b4 143e a44c fdbb 8d1f 943d 0a01 633d
000002c0: ff49 833d c7eb 723e 2919 efbd 0e20 963e
000002d0: cc69 a53e 4567 f13d 79e7 833d a9f8 ea3e
000002e0: 848e 8abe b112 30bd 7305 f73d a8c3 593e
000002f0: 702b 9abd 9692 b93d 6518 1b3e 3334 eabd
00000300: 0408 adbe bdd5 15be 573b aebe 847a b03c
00000310: 5622 083e 7aff 34be 5cb4 22be a73b 82be
00000320: 51e6 a53e caa9 2abe 8bf7 d83d 3448 bebd
00000330: 7cc1 41be 4e85 ddbd 8a1e 073e 127a 84bd
00000340: 5f40 273d 5884 3abe 66d7 e83d 68e6 523e
00000350: 79e6 c43b 9b8a 6c3d 2cf3 9c3c 48db 043e
00000360: d31d 7dbe c79d 30be 882b c23d e8b1 91be
00000370: 2827 c6bd 59b2 0d3c 6687 21be 1a13 ccbe
00000380: ea43 ecbd 222b c0bd d4a8 9cbe 1f81 713e
00000390: adc0 48be 450f f4bd 6b62 73bc 7339 d1be
000003a0: 6fdb 4d3e e9aa 0cbd 7a4a 38bd 8d58 943d
000003b0: a04d 0cbc 7229 cb3e 8290 623e 48ae 6cbd
000003c0: 0d26 9abe 8bb8 81be 06dc 3cbe c4d9 b93e
000003d0: ff21 583e 0397 353c b872 d63e c267 0abe
000003e0: 190d 43bb 7028 a3bc 58fd 4abb 26b5 a43c
000003f0: 51a2 b2be 0a7e 263e 7085 dabd 2637 c4be

rnn.bias_ih_l0 f4 [30]
0.03358379 -0.044346042 0.045330442 -0.011210595 0.035742953 -0.02990294 -0.020458208 -0.0379321
-0.031619564 0.038528003 -0.064336754 -0.060989413 -0.11578495 -0.05693393 -0.105122164 0.028637627
-0.09144805 -0.060689513 -0.10300627 0.026160052 0.034760434 -0.047150493 0.058176614 0.033810757
0.0026364706 0.005483002 -0.023571774 -0.04620358 -0.020855 0.05021127
00000000: 288f 093d 32a4 35bd 6aac 393d a5ac 37bc
00000010: 3467 123d 03f7 f4bc f997 a7bc b15e 1bbd
00000020: 8483 01bd 8acf 1d3d fdc2 83bd 09d0 79bd
00000030: a920 edbd 8d33 69bd 4a4a d7bd 7599 ea3c
00000040: 1e49 bbbd 9195 78bd f4f4 d2bd 9b4d d63c
00000050: f560 0e3d e020 41bd 9a4a 6e3d 267d 0a3d
00000060: a3c8 2c3b c1aa b33b 9819 c1bc f73f 3dbd
00000070: 1bd8 aabc 55aa 4d3d

rnn.bias_hh_l0 f4 [30]
0.03358379 -0.044346042 0.045330442 -0.011210595 0.035742953 -0.02990294 -0.020458208 -0.0379321
-0.031619564 0.038528003 -0.064336754 -0.060989413 -0.11578495 -0.05693393 -0.105122164 0.028637627
-0.09144805 -0.060689513 -0.10300627 0.026160052 0.039058093 -0.030731117 0.05788019 0.03506526
0.0011439117 0.0027946641 -0.019880813 -0.04477036 -0.0190217 0.053477105
00000000: 288f 093d 32a4 35bd 6aac 393d a5ac 37bc
00000010: 3467 123d 03f7 f4bc f997 a7bc b15e 1bbd
00000020: 8483 01bd 8acf 1d3d fdc2 83bd 09d0 79bd
00000030: a920 edbd 8d33 69bd 4a4a d7bd 7599 ea3c
00000040: 1e49 bbbd 9195 78bd f4f4 d2bd 9b4d d63c
00000050: 61fb 1f3d d3bf fbbc c713 6d3d 97a0 0f3d
00000060: 4fef 953a af26 373b 16dd a2bc 2061 37bd
00000070: 65d3 9bbc cf0a 5b3d

rnn.weight_ih_l1 f4 [30, 10]
0.05108943 -0.038263798 0.26101285 -0.3686701 -0.06747984 0.11284448 -0.40424064 -0.15414031
-0.23444018 0.39539328 0.104543574 -0.15098433 0.3498685 -0.043268047 -0.024178663 -0.44950512
-0.15813838 -0.25302356 -0.2444624 -0.17332412 0.34736547 -0.07002312 -0.069656365 -0.33772781
0.059393 -0.28825602 -0.116385885 -0.25472587 -0.024815835 -0.20290516 0.12267313 -0.14592059
0.180021 0.19212528 -0.06590633 0.30014014 -0.10147259 -0.23130655 0.1266686 0.29440668
0.38175327 0.13051967 0.2653535 0.28827128 0.22839399 0.04646118 -0.4055959 0.112432145
0.22948635 0.29112336 0.47571397 -0.4152328 -0.22223602 -0.45150006 -0.25113043 0.066465616
-0.28880063 -0.43280798 -0.35779843 0.26745847 0.15316927 0.1573397 0.070560455 -0.048793133
-0.34349805 0.05480227 -0.33808053 -0.29137763 -0.15562917 0.030730112 -0.23606448 0.25428465
-0.03034523 -0.38493124 -0.028581653 -0.49362794 -0.11700885 -0.30586123 0.008219387 0.25221747
0.33877116 -0.2658042 0.37301877 0.07638405 -0.22961144 0.18727592 0.26722887 -0.38289654
0.294329 -0.06338138 -0.41825336 0.31219304 -0.33814797 -0.027355349 -0.11859436 0.09512327
-0.07515896 0.16867054 -0.15874425 -0.22020265 -0.22450033 0.61271006 -0.6681941 0.30100763
0.2552143 0.33537215 0.28627503 0.4614428 0.31327367 -0.5358701 -0.597169 0.6223139
-0.48460832 0.3642138 0.7832339 0.1705347 0.4358414 0.4413284 -0.053968053 -0.15485857
-0.3924072 0.54825425 -0.51014984 0.34151542 0.34060946 0.1320238 0.15963483 0.67536575
0.11451195 -0.14974324 -0.63530195 0.3696635 -0.6774153 0.7153875 0.280918 0.5279277
0.62637717 0.05698146 0.6013167 -0.25167823 -0.22583514 0.09988649 -0.24033374 0.6743678
0.68032 0.7650643 0.25004408 0.45207736 0.43386698 -0.39823812 -0.7709437 0.57838374
-0.33284014 0.02847357 0.1476258 0.6027678 0.65916425 0.35075048 0.28873637 -0.40226015
-0.15663338 0.22797213 -0.14128812 0.68087727 0.23791327 0.2006172 0.12991694 0.58540773
0.3883604 -0.13239768 -0.042765442 0.7275424 -0.03519291 0.43416137 0.66761315 0.09852567
-0.07577803 0.6606075 0.40631405 -0.734691 -0.3892656 0.25935087 -0.25553167 0.110751234
0.30242166 0.34516302 0.16746062 0.55844307 0.5155603 -0.29936928 -0.63495064 0.14866519
-0.6398826 0.4870025 0.2952718 0.1934864 0.37268358 0.20658539 -0.02610949 -0.284177
0.40575203 -0.074161634 0.18046924 0.19840106 -0.2700822 0.17270811 -0.35683984 0.13052315
0.030739523 0.2309571 0.06952675 -0.29887632 0.28851175 0.32017606 -0.36320344 -0.03534015
-0.39362198 -0.34323624 -0.17890139 0.18046777 -0.26089075 0.28349698 -0.46734577 0.041617475
0.016006676 0.29966754 0.12679355 -0.061103247 0.49360865 0.28576952 0.38810953 -0.25182062
0.21460372 0.2588146 0.09775292 0.17793426 -0.260775 0.27103108 -0.25416517 -0.23699664
-0.022131015 0.09138348 -0.052061222 0.2962109 0.15192093 -0.08010975 -0.13245016 0.31314626
0.12665753 0.012034005 0.20507428 0.250898 -0.45733678 -0.053414084 0.27006087 0.10104921
00000000: 2643 513d 80ba 1cbd 7aa3 853e 54c2 bcbe
00000010: df32 8abd 021b e73d a1f8 cebe f5d6 1dbe
00000020: 1611 70be fd70 ca3e f11a d63d a39b 1abe
00000030: f721 b33e d639 31bd 5512 c6bc 8925 e6be
00000040: 07ef 21be 4e8c 81be 5a54 7abe e17b 31be
00000050: e3d9 b13e 4868 8fbd ffa7 8ebd a9ea acbe
00000060: 1346 733d 4b96 93be b95b eebd 6e6b 82be
00000070: 944a cbbc 5fc6 4fbe 0d3c fb3d 356c 15be
00000080: 6d57 383e 7dbc 443e e6f9 86bd f8ab 993e
00000090: dcd0 cfbd a0db 6cbe 6ab5 013e 79bc 963e
000000a0: 2a75 c33e f3a6 053e 6adc 873e 4b98 933e
000000b0: 1de0 693e 144e 3e3d 44aa cfbe d342 e63d
000000c0: 78fe 6a3e 1f0e 953e c890 f33e 6599 d4be
000000d0: d791 63be 042b e7be 2b94 80be 201f 883d
000000e0: addd 93be 0299 ddbe 5b31 b7be 51f0 883e
000000f0: 68d8 1c3e a91d 213e 0082 903d 4fdb 47bd
00000100: fade afbe 5878 603d e418 adbe 732f 95be
00000110: 415d 1fbe b7bd fb3c e3ba 71be 9931 823e
00000120: 8f96 f8bc b515 c5be 1224 eabc cdbc fcbe
00000130: 56a2 efbd d899 9cbe 9caa 063c a622 813e
00000140: 6a73 ad3e 7d17 88be 51fc be3e 3e6f 9c3d
00000150: 431f 6bbe 42c5 3f3e 39d2 883e 040b c4be
00000160: 4ab2 963e 19ce 81bd 4e25 d6be c4d7 9f3e
00000170: bb21 adbe 5318 e0bc 9ae1 f2bd fdcf c23d
00000180: f1ec 99bd f8b7 2c3e da8d 22be ce7c 61be
00000190: 6ae3 65be 91da 1c3f c50e 2bbf ac1d 9a3e
000001a0: 73ab 823e e6b5 ab3e a492 923e 3b42 ec3e
000001b0: 6865 a03e c82e 09bf 11e0 18bf f74f 1f3f
000001c0: 951e f8be 3b7a ba3e 0482 483f a6a0 2e3e
000001d0: 9b26 df3e ccf5 e13e 9b0d 5dbd 3f93 1ebe
000001e0: 99e9 c8be 645a 0c3f 2e99 02bf 1cdb ae3e
000001f0: 5d64 ae3e 3f31 073e 5077 233e c5e4 2c3f
00000200: 3e85 ea3d 4b56 19be 26a3 22bf 8944 bd3e
00000210: 176b 2dbf a323 373f 7cd4 8f3e 4526 073f
00000220: 415a 203f 6465 693d e4ef 193f f8db 80be
00000230: 5441 67be 4a91 cc3d 0c1a 76be 5ea3 2c3f
00000240: 7429 2e3f 41db 433f c705 803e af76 e73e
00000250: d023 de3e dee5 cbbe 915c 45bf f510 143f
00000260: 066a aabe 6741 e93c 382b 173e fe4e 1a3f
00000270: fdbe 283f 9195 b33e 41d5 933e 0bf5 cdbe
00000280: 8064 20be 8771 693e d5ad 10be f94d 2e3f
00000290: 899f 733e 986e 4d3e f208 053e 48dd 153f
000002a0: 2dd7 c63e 4293 07be d12a 2fbd 3840 3a3f
000002b0: 7126 10bd 664a de3e b2e8 2a3f d4c7 c93d
000002c0: 8331 9bbd 931d 293f 6508 d03e b614 3cbf
000002d0: d24d c7be a3c9 843e 0cd5 82be 8bd1 e23d
000002e0: 03d7 9a3e 35b9 b03e cc7a 2b3e 20f6 0e3f
000002f0: c3fb 033f ee46 99be 208c 22bf b03b 183e
00000300: 59cf 23bf 6458 f93e de2d 973e 4d21 463e
00000310: 62d0 be3e 1f8b 533e 92e3 d5bc a67f 91be
00000320: bbbe cf3e 0ee2 97bd eecc 383e a629 4b3e
00000330: 3748 8abe 65da 303e b6b3 b6be dca7 053e
00000340: 74d1 fb3c 0580 6c3e 0a64 8e3d 5106 99be
00000350: d0b7 933e 1eee a33e cdf5 b9be d5c0 10bd
00000360: d288 c9be a9bc afbe ed31 37be 8bcc 383e
00000370: 7993 85be 8426 913e f247 efbe 1677 2a3d
00000380: 6f20 833c 066e 993e 2bd6 013e 6647 7abd
00000390: 46ba fc3e 6250 923e 4bb6 c63e a2ee 80be
000003a0: 14c1 5b3e 5983 843e af32 c83d 6634 363e
000003b0: 4d84 85be 96c4 8a3e f021 82be 3faf 72be
000003c0: 1a4c b5bc 4327 bb3d 263e 55bd f5a8 973e
000003d0: 2991 1b3e 9510 a4bd 04a1 07be b554 a03e
000003e0: 83b2 013e 462a 453c fefe 513e b475 803e
000003f0: 0c28 eabe bac8 5abd 6b45 8a3e e3f2 ce3d

rnn.weight_hh_l1 f4 [30, 10]
0.20585379 0.0507275 0.26636043 -0.027694372 -0.013142106 0.12340155 0.06535275 -0.02302109
-0.023159856 0.011800268 -0.01034021 0.11073087 0.11290783 -0.06105632 -0.42438117 -0.2538915
-0.47309235 0.14240687 0.018174086 0.27283776 -0.14642021 0.15376288 -0.21683659 0.07393058
-0.21710506 -0.31651855 -0.06051839 0.25177583 0.27986592 0.22133054 -0.0008312201 0.32838905
-0.44811252 0.2662074 -0.11478514 -0.02990047 -0.057352975 0.03392427 0.021792239 0.014760091
0.2844547 -0.08184472 -0.2054236 0.3556928 -0.096088864 -0.18422502 -0.03355022 0.35301024
-0.123999536 -0.020236373 0.0188851 -0.009711614 -0.36758777 -0.021893673 -0.20742533 -0.21990538
-0.1002174 0.15923977 0.24020144 0.052323315 0.08735005 0.3790628 0.1195961 0.07534166
-0.27904105 -0.013729275 -0.3066763 0.22642922 -0.076163664 -0.0036539214 0.16956791 0.03749307
-0.02469878 0.13891879 -0.20373325 0.03357697 -0.42968705 0.26450834 0.31486347 -0.221423
0.22972804 -0.069392465 -0.39939177 -0.045568638 -0.050508723 -0.38995978 -0.12090682 -0.13992815
0.067263454 0.08776518 -0.017183948 -0.33816522 0.059979536 -0.22743158 0.2502165 -0.27923352
0.12730333 0.117178425 -0.012486275 -0.21605544 0.037781257 -0.20083185 0.21357073 0.06025501
0.3557531 0.15964296 -0.112612724 -0.14760672 0.2704093 0.18615997 -0.4431186 0.3197748
0.052085936 -0.111274526 0.26446784 0.09882325 0.15927814 -0.0032649555 -0.10185047 -0.14979091
0.29014888 0.20299546 0.06691899 -0.13203959 0.37999123 0.27034444 0.02727247 0.112847924
0.12345085 -0.29219246 0.039311863 0.19291046 0.0332197 -0.036053184 0.23549877 -0.05026181
-0.32076937 0.14058673 -0.12139663 0.12694135 -0.041679207 0.07915227 0.010096667 0.18725957
0.42034453 -0.124376886 0.0060122046 0.09747241 -0.0014579785 0.25589508 -0.12682235 -0.017380185
0.35604638 -0.23176251 0.22544146 -0.2707678 -0.10698087 -0.16956156 -0.014418121 -0.56857765
-0.26450083 0.28739682 0.18129167 -0.03228824 0.15576348 -0.23097172 0.21502592 -0.21301511
0.10018095 -0.044223696 -0.28211498 -0.2557937 0.088491924 -0.4278232 0.34433705 0.082362995
0.07683227 0.18300654 -0.12702256 0.0069035194 -0.11534571 -0.11150009 0.20500442 0.17997733
-0.091638215 0.16245016 -0.045670364 -0.116655186 0.29507408 -0.23962186 -0.006034411 -0.010700915
-0.034652557 -0.06757303 0.05076832 0.2849021 0.35389456 0.22586687 -0.14644057 -0.15908657
0.1966398 -0.038212646 -0.0038400702 -0.012750501 -0.0048198076 -0.40785098 0.19646996 0.5625214
0.28771424 0.20841369 -0.15211949 0.07067036 -0.22624114 -0.25650084 -0.38018343 -0.009162985
-0.0849056 0.31032902 0.22810273 0.05167795 -0.14951088 -0.17991084 -0.02472278 -0.08881347
0.25205168 0.0037044443 -0.3471523 -0.24066135 -0.49871284 -0.1746418 0.3873875 0.20254233
-0.13583638 -0.46034056 -0.094179645 -0.14066091 0.004193491 -0.19080117 0.0054266457 0.31436995
-0.37515435 -0.13398081 -0.14033332 -0.29426423 0.4746416 0.4580043 -0.16250071 -0.13925563
0.1794713 -0.025252584 -0.095547654 0.14069495 0.083799064 -0.08745675 0.12897989 0.11157204
00000000: 56cb 523e a4c7 4f3d 6560 883e 4fdf e2bc
00000010: fd51 57bc f4b9 fc3d aad7 853d ba96 bcbc
00000020: bdb9 bdbc e955 413c fc69 29bc dec6 e23d
00000030: 383c e73d 3116 7abd 7d48 d9be 11fe 81be
00000040: 2939 f2be 1bd3 113e d2e1 943c 64b1 8b3e
00000050: 2eef 15be 0474 1d3e 690a 5ebe ea68 973d
00000060: ca50 5ebe b80e a2be 22e2 77bd c3e8 803e
00000070: 964a 8f3e 79a4 623e 3de6 59ba 9c22 a83e
00000080: 016f e5be 564c 883e 7914 ebbd d5f1 f4bc
00000090: f4ea 6abd 2df4 0a3d a385 b23c 4fd4 713c
000000a0: 0ca4 913e 349e a7bd 905a 52be 5e1d b63e
000000b0: 3dca c4bd 7ca5 3cbe f56b 09bd c2bd b43e
000000c0: 78f3 fdbd c0c6 a5bc edb4 9a3c 761d 1fbc
000000d0: 7734 bcbe 5c5a b3bc 4e67 54be e02e 61be
000000e0: c83e cdbd c00f 233e 5ef7 753e f950 563d
000000f0: 95e4 b23d 8514 c23e cdee f43d ba4c 9a3d
00000100: 78de 8ebe c1f0 60bc ad04 9dbe 10dd 673e
00000110: b2fb 9bbd a176 6fbb 36a3 2d3e 5592 193d
00000120: 1955 cabc ba40 0e3e 739f 50be 0188 093d
00000130: f1ff dbbe a36d 873e c935 a13e b6bc 62be
00000140: d43d 6b3e a31d 8ebd 147d ccbe 2ea6 3abd
00000150: 3ce2 4ebd cfa8 c7be ff9d f7bd 5349 0fbe
00000160: 6cc1 893d 3bbe b33d 5ac5 8cbc fe23 adbe
00000170: 1aad 753d d3e3 68be 611c 803e b2f7 8ebe
00000180: ce5b 023e 3efb ef3d 3c93 4cbc a33d 5dbe
00000190: 85c0 1a3d dda6 4dbe 49b2 5a3e f5cd 763d
000001a0: 4525 b63e 7279 233e 80a1 e6bd 3726 17be
000001b0: 1673 8a3e b8a0 3e3e 71e0 e2be 86b9 a33e
000001c0: 1058 553d e6e3 e3bd 5468 873e d863 ca3d
000001d0: cf19 233e ddf8 55bb fb96 d0bd ca62 19be
000001e0: 658e 943e 0bde 4f3e d30c 893d 6335 07be
000001f0: 368e c23e 966a 8a3e 846a df3c d01c e73d
00000200: cdd3 fc3d 409a 95be 7a05 213d 528a 453e
00000210: 6111 083d 81ac 13bd 9726 713e 54df 4dbd
00000220: e23b a4be f8f5 0f3e cc9e f8bd eafc 013e
00000230: d1b7 2abd 961a a23d 7e6c 253c f9c0 3f3e
00000240: 6637 d73e 4fb9 febd 0702 c53b 9d9f c73d
00000250: a419 bfba ae04 833e b8dd 01be e460 8ebc
00000260: b64b b63e 2753 6dbe 20da 663e 14a2 8abe
00000270: c918 dbbd 8ca1 2dbe fc39 6cbc 4e8e 11bf
00000280: a76c 87be ad25 933e 86a4 393e ac40 04bd
00000290: 7680 1f3e da83 6cbe c12f 5c3e a220 5abe
000002a0: ab2b cd3d e823 35bd 6071 90be 64f7 82be
000002b0: 413b b53d a40b dbbe f24c b03e eead a83d
000002c0: 3d5a 9d3d 1166 3b3e 3412 02be eb36 e23b
000002d0: 5f3a ecbd 295a e4bd aeec 513e fa4b 383e
000002e0: d1ac bbbd 5659 263e d910 3bbd eae8 eebd
000002f0: f313 973e 6f5f 75be 4fbc c5bb e452 2fbc
00000300: d7ef 0dbd bb63 8abd 71f2 4f3d b0de 913e
00000310: ab31 b53e a549 673e 84f4 15be 97e7 22be
00000320: f25b 493e dd84 1cbd b0a9 7bbb 7ae7 50bc
00000330: 7aef 9dbb d8d1 d0be 6c2f 493e 6701 103f
00000340: 484f 933e 666a 553e 36c5 1bbe 9fbb 903d
00000350: c2ab 67be 1454 83be 67a7 c2be 5820 16bc
00000360: fde2 adbd 72e3 9e3e c393 693e 42ac 533d
00000370: 6119 19be 8c3a 38be 6d87 cabc d6e3 b5bd
00000380: eb0c 813e 43c6 723b f2bd b1be ee6f 76be
00000390: 4a57 ffbe 4dd5 32be a857 c63e 4267 4f3e
000003a0: b118 0bbe c2b1 ebbe 42e1 c0bd 6a09 10be
000003b0: 8d69 893b 6261 43be 01d2 b13b 19f5 a03e
000003c0: 3b14 c0be 4432 09be 8ab3 0fbe cda9 96be
000003d0: 3904 f33e 8a7f ea3e 9666 26be 0799 0ebe
000003e0: 53c7 373e 82de cebc 7dae c3bd 5612 103e
000003f0: d89e ab3d 861c b3bd 4e13 043e e27f e43d

rnn.bias_ih_l1 f4 [30]
0.10227662 0.0038429557 0.14101188 0.01586401 0.02559235 0.1549521 -0.013997749 0.11066339
0.046958737 -0.022617502 -0.24146509 -0.22482723 -0.28297976 -0.32299477 -0.28231317 -0.3726008
-0.34530205 -0.26261792 -0.2439707 -0.298318 0.08621353 0.062372006 -0.108769156 0.09794711
-0.117255725 -0.13936436 -0.03495658 0.111662224 0.055487223 0.09877848
00000000: 6876 d13d 19da 7b3b 6b65 103e 3ef5 813c
00000010: 0ca7 d13c c3ab 1e3e d156 65bc 7da3 e23d
00000020: ce57 403d 5748 b9bc a042 77be 1c39 66be
00000030: b9e2 90be 925f a5be 5a8b 90be 88c5 bebe
00000040: 6ecb b0be db75 86be 75d3 79be 23bd 98be
00000050: b890 b03d ca79 7f3d 5dc2 debd 7f98 c83d
00000060: c523 f0bd 88b5 0ebe a12e 0fbd 2aaf e43d
00000070: 9246 633d 5f4c ca3d

rnn.bias_hh_l1 f4 [30]
0.10227662 0.0038429557 0.14101188 0.01586401 0.02559235 0.1549521 -0.013997749 0.11066339
0.046958737 -0.022617502 -0.24146509 -0.22482723 -0.28297976 -0.32299477 -0.28231317 -0.3726008
-0.34530205 -0.26261792 -0.2439707 -0.298318 0.09757277 0.07074166 -0.12260542 0.09744804
-0.121462956 -0.15380102 -0.04188596 0.12744047 0.060349748 0.07372064
00000000: 6876 d13d 19da 7b3b 6b65 103e 3ef5 813c
00000010: 0ca7 d13c c3ab 1e3e d156 65bc 7da3 e23d
00000020: ce57 403d 5748 b9bc a042 77be 1c39 66be
00000030: b9e2 90be 925f a5be 5a8b 90be 88c5 bebe
00000040: 6ecb b0be db75 86be 75d3 79be 23bd 98be
00000050: 3cd4 c73d 01e1 903d 8d18 fbbd d792 c73d
00000060: 92c1 f8bd 047e 1dbe 9d90 2bbd c17f 023e
00000070: 4c31 773d d9fa 963d

rnn.weight_ih_l2 f4 [30, 10]
-0.19612572 0.00710628 -0.5020994 0.009869521 -0.51937383 -0.1701975 -0.13878949 -0.057406064
-0.22821893 0.3324985 0.46214503 0.3073666 0.054779906 0.054225296 -0.23230724 -0.2689863
0.15902948 -0.076800264 0.32873467 0.39875844 -0.17933589 -0.23667918 0.026093697 -0.020853799
0.13650353 -0.39089683 -0.18543142 0.31492868 0.46568516 -0.14228062 -0.17917413 -0.03175361
0.045184396 -0.18236664 0.2027658 -0.46812645 -0.035522226 0.21878126 0.0023806859 0.53266114
-0.044215254 -0.16803035 0.079055026 0.3335877 -0.16915867 0.19723916 -0.2174612 0.5282602
-0.21020406 0.5190829 0.28302047 -0.30881733 -0.38351732 0.031541508 -0.2733068 -0.19091597
-0.15942831 -0.26929295 0.06294523 0.40714672 -0.063951775 0.34213763 -0.12853272 0.38369584
-0.12920068 0.11047685 -0.1938561 0.3212234 0.3049001 -0.16500105 0.09456167 0.115474455
-0.15433802 -0.044709176 0.15021 -0.14693134 -0.074103296 0.39854375 0.27397245 0.06906703
-0.4439598 -0.3330047 0.12789421 -0.3431036 0.2392301 0.1854529 -0.09943393 -0.08741994
0.049020518 -0.0061838836 0.116646685 -0.057337694 0.2534561 -0.25142458 -0.113604635 -0.27230817
-0.08044757 -0.088021405 -0.16557202 0.48146278 -0.7985826 -0.71586734 0.16780467 -0.6807039
0.7320607 0.5222244 0.3569624 -0.38154677 -0.49019912 -0.7280513 -0.773991 -0.6932496
0.42071483 -0.2713546 0.3878804 0.504451 0.39666796 -0.38370192 -0.4069708 -0.233938
-0.6581411 -0.4127975 0.35673735 0.04598192 0.33973268 0.21211785 0.3142668 -0.555478
-0.74613774 -0.108506046 -0.33100522 -0.4416178 0.35679412 -0.835651 0.84654397 0.6663431
0.7278593 -0.1949761 -0.43111777 -0.49526757 -0.21850295 -0.8209112 0.5649821 -0.5751089
0.9529178 0.25687385 0.85015327 -0.62866604 -0.71339434 -0.3237608 -0.39022547 -0.06838977
0.18878305 -0.29040858 0.28313947 0.7098132 0.28647643 -0.6448817 -0.44758537 -0.32719213
-0.34634212 -0.73284656 0.43975353 -0.48724583 0.60340077 0.4424386 0.5160155 -0.6264259
-0.14902456 -0.54364014 -0.3612433 -0.8461912 0.3973806 -0.480447 0.5186852 0.7688356
0.66982603 -0.22064732 -0.4525598 -0.69289196 -0.3116785 -0.2087304 0.5959582 -0.2788642
0.17770295 0.45098543 0.6568405 -0.67180663 -0.18994676 -0.08465437 -0.6936134 -0.4058888
0.65905976 -0.47322324 0.76983637 0.23318838 0.08932567 -0.2734908 -0.08674752 -0.2163593
-0.17997074 -0.13556853 0.26070982 0.01051653 0.28376707 0.40698916 -0.24204752 -0.32367137
-0.02003915 -0.30013984 -0.42077932 -0.02543195 0.1559901 0.17450938 0.23495002 0.32409537
-0.04823852 -0.22502452 -0.41799152 -0.23690732 0.3186985 -0.023870438 -0.4164367 0.34264037
-0.37845418 -0.37946698 0.19398522 0.45964977 0.12012957 0.035363533 0.4575499 -0.08293164
-0.5360664 -0.112888426 0.25425857 -0.5163272 -0.49719515 0.004798895 0.024921024 -0.07924341
-0.12555341 -0.31956735 -0.037729405 -0.3194589 0.4076073 -0.109205164 0.2352522 -0.20523408
0.044118654 -0.030440109 0.32785442 0.4617916 -0.25789455 -0.11099585 0.11103809 -0.17204921
00000000: 2ed5 48be ccdb e83b 9689 00bf c5b3 213c
00000010: aff5 04bf 4148 2ebe d51e 0ebe 9f22 6bbd
00000020: 39b2 69be 3e3d aa3e 469e ec3e 285f 9d3e
00000030: e560 603d 581b 5e3d f3e1 6dbe 93b8 89be
00000040: a0d8 223e 7549 9dbd e94f a83e 112a cc3e
00000050: d4a3 37be 075c 72be 73c2 d53c 96d5 aabc
00000060: 95c7 0b3e a123 c8be bce1 3dbe 553e a13e
00000070: 496e ee3e 03b2 11be 6c79 37be 1310 02bd
00000080: 4613 393d 52be 3abe d6a1 4f3e 45ae efbe
00000090: c17f 11bd 3208 603e 4805 1c3b 7b5c 083f
000000a0: 0e1b 35bd 2610 2cbe 9ae7 a13d 02cc aa3e
000000b0: ee37 2dbe 10f9 493e 26ae 5ebe 0f3c 073f
000000c0: bc3f 57be 9ee2 043f 0fe8 903e 4e1d 9ebe
000000d0: 625c c4be ab31 013d deee 8bbe 7a7f 43be
000000e0: 2d41 23be c4e0 89be 6ee9 803d 8975 d03e
000000f0: 26f9 82bd aa2c af3e 159e 03be c873 c43e
00000100: 2f4d 04be b041 e23d 3782 46be 6577 a43e
00000110: de1b 9c3e 09f6 28be 8da9 c13d df7d ec3d
00000120: c90a 1ebe f820 37bd a6d0 193e 2b75 16be
00000130: 78c3 97bd ed0d cc3e 1e46 8c3e 0473 8d3d
00000140: b34e e3be 987f aabe b3f6 023e 46ab afbe
00000150: bcf8 743e 5de7 3d3e 04a4 cbbd 3a09 b3bd
00000160: bdc9 483d 2da2 cabb 75e4 ee3d eeda 6abd
00000170: ffc4 813e b9ba 80be 8ca9 e8bd fa6b 8bbe
00000180: b2c1 a4bd 9144 b4bd b68b 29be 4a82 f63e
00000190: e96f 4cbf 1543 37bf fdd4 2b3e 9c42 2ebf
000001a0: 5468 3b3f 80b0 053f c7c3 b63e 195a c3be
000001b0: 61fb fabe 9261 3abf 4624 46bf ce78 31bf
000001c0: ef67 d73e fdee 8abe 4398 c63e b323 013f
000001d0: 1018 cb3e 9474 c4be 7a5e d0be 718d 6fbe
000001e0: ef7b 28bf 325a d3be 47a6 b63e 8a57 3c3d
000001f0: 71f1 ad3e 6c35 593e 94e7 a03e ce33 0ebf
00000200: e202 3fbf 6b38 debd 8479 a9be ba1b e2be
00000210: b8ad b63e 39ed 55bf 1bb7 583f 7695 2a3f
00000220: fd54 3a3f d1a7 47be 78bb dcbe b693 fdbe
00000230: 3dbf 5fbe 3d27 52bf aba2 103f 563a 13bf
00000240: 6cf2 733f f884 833e a5a3 593f 42f0 20bf
00000250: 03a1 36bf fac3 a5be a2cb c7be f00f 8cbd
00000260: 5850 413e 6fb0 94be a8f7 903e 51b6 353f
00000270: 0aad 923e f816 25bf e929 e5be ba85 a7be
00000280: c153 b1be d59b 3bbf 6027 e13e 4978 f9be
00000290: 7978 1a3f 5087 e23e 9819 043f 735d 20bf
000002a0: e599 18be 002c 0bbf e2f4 b8be fd9f 58bf
000002b0: 7875 cb3e 26fd f5be 8ec8 043f 69d2 443f
000002c0: b879 2b3f 5ff1 61be ebb5 e7be 5e61 31bf
000002d0: 5394 9fbe 6cbd 55be b790 183f 4ac7 8ebe
000002e0: c3f7 353e 90e7 e63e b326 283f 85fb 2bbf
000002f0: 6781 42be 455f adbd a690 31bf a8d0 cfbe
00000300: 24b8 283f 514a f2be ff13 453f efc8 6e3e
00000310: 60f0 b63d fc06 8cbe afa8 b1bd 4b8d 5dbe
00000320: 404a 38be 7ad2 0abe c27b 853e 864d 2c3c
00000330: eb49 913e e260 d03e 4edb 77be 41b8 a5be
00000340: 2529 a4bc eeab 99be 6370 d7be aa56 d0bc
00000350: debb 1f3e 96b2 323e bd96 703e d4ef a53e
00000360: c195 45bd d46c 66be fc02 d6be d597 72be
00000370: 732c a33e f08b c3bc 3137 d5be 8f6e af3e
00000380: bfc4 c1be 7f49 c2be 10a4 463e 3757 eb3e
00000390: 7e06 f63d 5ad9 103d fb43 ea3e 10d8 a9bd
000003a0: a63b 09bf 0c32 e7bd 2e2e 823e 052e 04bf
000003b0: 5d90 febe 0d40 9d3b 2d27 cc3c 5e4a a2bd
000003c0: 1391 00be 559e a3be 268a 1abd 1e90 a3be
000003d0: e7b1 d03e f5a6 dfbd f4e5 703e e228 52be
000003e0: c3b5 343d 895d f9bc 89dc a73e f36f ec3e
000003f0: c10a 84be cb51 e3bd f067 e33d ab2d 30be

rnn.weight_hh_l2 f4 [30, 10]
0.0014523475 0.08046976 -0.00044825085 0.14762059 0.09978877 0.077241644 0.065862365 -0.39329734
0.3810565 0.0034271197 -0.15330848 -0.037636776 0.32298115 0.33002782 -0.063679576 0.18686855
-0.06411632 -0.09139342 -0.017407794 -0.046655405 -0.12233486 -0.064134985 0.24712084 0.14329787
-0.36770195 0.27487922 0.011910625 -0.16770901 0.28229183 -0.5657343 -0.15161228 -0.13885744
0.12426849 0.13247861 -0.12840302 -0.014705905 0.2020828 -0.06559575 0.42050797 0.0019254105
-0.25875416 -0.33507878 -0.056040764 0.2582866 -0.075526945 -0.05711174 -0.1789955 -0.18901147
0.06832354 0.07340757 -0.05915587 0.011433578 -0.33458325 -0.017312204 -0.14616506 0.31348193
0.09875522 -0.26714993 0.034327164 0.05873303 -0.14821957 -0.034675766 -0.20267096 -0.07028176
-0.00020575308 -0.053033922 0.2095512 -0.3260316 0.19774641 -0.49303454 0.06700272 -0.27395883
0.04091941 0.45839882 -0.1721853 0.45556098 -0.0546919 -0.15474978 0.3302819 -0.20931543
0.45799875 0.09864665 -0.0029377064 0.096049905 -0.09748297 -0.2371683 -0.06793821 -0.38319516
-0.18204813 0.15133479 -0.122346945 -0.45537615 0.17484659 0.20150176 0.15812506 0.22152361
0.004930173 0.09451665 0.18618083 0.09208452 0.38774624 -0.23591611 0.0035728926 -0.24036631
0.21000226 -0.35614017 -0.06102865 0.2577779 -0.28535822 0.1631542 0.03665929 -0.13754098
-0.018710624 -0.11272742 0.0701294 -0.46305633 -0.22950174 0.11789792 -0.27654675 0.08219816
0.40418592 0.29167292 -0.17910396 -0.12493275 0.13701162 -0.16850832 -0.09696884 0.47825116
-0.12465293 0.1926971 -0.06732729 0.071453586 -0.2963086 0.109756276 0.09890131 -0.3354149
0.14073372 -0.17542036 -0.22653632 0.3358448 -0.13795069 0.16848618 -0.07982931 -0.3197612
0.08860949 -0.33416083 -0.2901281 0.08556611 0.2244971 0.13302055 0.23983192 -0.14223194
-0.16255288 -0.35974044 0.14228123 -0.13549772 -0.17242156 0.03731049 -0.2756401 -0.15167892
0.2565251 0.07653828 -0.16653931 -0.27328575 -0.27637047 -0.05024336 -0.34445563 0.12643613
0.032452192 0.3131397 0.009774321 -0.059155714 -0.29762647 -0.22254728 -0.009772765 -0.18993273
0.126004 0.30625504 0.04247891 0.22646132 0.11126773 -0.19347423 -0.13619791 0.02523561
0.056378588 -0.10986633 -0.35092756 0.2584059 -0.016240403 0.038373575 0.26577508 0.29360548
0.16964914 -0.27612847 0.5046649 0.16309762 0.02939599 -0.006952117 -0.19547735 0.2013811
0.41982844 0.2866438 0.116747506 -0.39492357 -0.053950425 -0.32133096 -0.17857221 0.15375285
-0.050629307 0.090320624 0.46398142 0.27879038 -0.28240255 0.09364581 0.07871298 -0.19581053
-0.25047296 0.26578513 -0.33191767 0.2454426 -0.107091956 -0.1569039 0.34802535 0.07348823
0.06625058 0.1583486 0.26845142 -0.05237516 0.3356119 -0.025434779 -0.16138949 -0.35558406
0.18362047 0.1276468 -0.32681346 0.5231822 0.46089867 -0.2194341 -0.10389857 -0.07361741
0.07794618 0.06899692 -0.36481053 -0.49549657 0.31052703 -0.023809925 -0.31637788 0.21447408
-0.552596 0.020265711 -0.09314838 -0.065292425 0.3026687 -0.083013475 -0.06387941 -0.05466643
00000000: b25c be3a 54cd a43d 3603 ebb9 da29 173e
00000010: 0e5e cc3d de30 9e3d d9e2 863d 455e c9be
00000020: d619 c33e 8799 603b e6fc 1cbe 0529 1abd
00000030: c95d a53e 68f9 a83e 706a 82bd 785a 3f3e
00000040: 6b4f 83bd 792c bbbd ca9a 8ebc bd19 3fbd
00000050: b38a fabd 3459 83bd 3f0d 7d3e adbc 123e
00000060: 6e43 bcbe f8bc 8c3e c824 433c e9bb 2bbe
00000070: 8e88 903e f7d3 10bf 4040 1bbe a530 0ebe
00000080: 7a80 fe3d 79a8 073e 157c 03be 09f1 70bc
00000090: cbee 4e3e 1157 86bd d24c d73e 0e5e fc3a
000000a0: 6d7b 84be 728f abbe 008b 65bd 243e 843e
000000b0: dfad 9abd 00ee 69bd 994a 37be 398c 41be
000000c0: 36ed 8b3d b556 963d 6d4d 72bd e753 3b3c
000000d0: 7f4e abbe 53d2 8dbc 4bac 15be b480 a03e
000000e0: 2d40 ca3d e0c7 88be a49a 0c3d 0c92 703d
000000f0: dfc6 17be 2d08 0ebd fa88 4fbe e2ef 8fbd
00000100: 6cbf 57b9 193a 59bd 9794 563e 9ded a6be
00000110: 097e 4a3e 066f fcbe b938 893d 5544 8cbe
00000120: 1c9b 273d 40b3 ea3e 5851 30be 4a3f e93e
00000130: 9d04 60bd ba76 1ebe b61a a93e c956 56be
00000140: d07e ea3e 4107 ca3d 8986 40bb d0b5 c43d
00000150: 27a5 c7bd 3fdc 72be 3023 8bbd 2832 c4be
00000160: d36a 3abe 82f7 1a3e 0991 fabd 1027 e9be
00000170: fc0a 333e 7a56 4e3e 89eb 213e 16d7 623e
00000180: 4a8d a13b f291 c13d 30a6 3e3e cf96 bc3d
00000190: ad86 c63e fe93 71be 3127 6a3b 9622 76be
000001a0: d50a 573e 0158 b6be 2df9 79bd 77fb 833e
000001b0: 791a 92be e511 273e 0d28 163d 8bd7 0cbe
000001c0: 0647 99bc a2dd e6bd 01a0 8f3d b815 edbe
000001d0: 8102 6bbe 7774 f13d 8997 8dbe 8257 a83d
000001e0: 75f1 ce3e 2756 953e 0767 37be bedc ffbd
000001f0: c64c 0c3e 728d 2cbe 9997 c6bd 56dd f43e
00000200: 094a ffbd 6352 453e e4e2 89bd 4256 923d
00000210: c3b5 97be e6c7 e03d c58c ca3d 80bb abbe
00000220: 801c 103e 65a1 33be 23f9 67be daf3 ab3e
00000230: f242 0dbe a487 2c3e 8d7d a3bd bdb7 a3be
00000240: e478 b53d 2117 abbe ac8b 94be 493d af3d
00000250: 91e2 653e 8a36 083e 8096 753e 40a5 11be
00000260: 4374 26be e62f b8be 2cb2 113e eabf 0abe
00000270: 478f 30be e2d2 183d b320 8dbe b851 1bbe
00000280: 4257 833e 1ac0 9c3d 4889 2abe 1cec 8bbe
00000290: 6e80 8dbe fbcb 4dbd 7d5c b0be 7978 013e
000002a0: 97ec 043d d953 a03e 7924 203c 434d 72bd
000002b0: 7f62 98be 6fe3 63be f31d 20bc ba7d 42be
000002c0: 3107 013e 76cd 9c3e 5efe 2d3d 7ae5 673e
000002d0: 56e0 e33d 1c1e 46be 7777 0bbe e9ba ce3c
000002e0: 3ced 663d 9901 e1bd c7ac b3be c74d 843e
000002f0: 980a 85bc 9c2d 1d3d ac13 883e 7553 963e
00000300: 81b8 2d3e b660 8dbe b831 013f 1003 273e
00000310: dccf f03c 96ce e3bb 372b 48be d936 4e3e
00000320: c1f3 d63e fac2 923e 5119 ef3d 6c33 cabe
00000330: 1ffb 5cbd 7e85 a4be a2db 36be 6371 1d3e
00000340: ad60 4fbd 05fa b83d f98e ed3e 9dbd 8e3e
00000350: 1197 90be 60c9 bf3d 4534 a13d 8e82 48be
00000360: fe3d 80be fd14 883e 1df1 a9be 4e55 7b3e
00000370: 0753 dbbd 6aab 20be 6130 b23e ff80 963d
00000380: 62ae 873d 2326 223e 7772 893e 5687 56bd
00000390: 53d5 ab3e 995c d0bc 4943 25be 1d0f b6be
000003a0: 0107 3c3e d8b5 023e 1854 a7be 45ef 053f
000003b0: e9fa eb3e 55b3 60be c6c8 d4bd bac4 96bd
000003c0: 3fa2 9f3d 424e 8d3d 72c8 babe bab1 fdbe
000003d0: 66fd 9e3e 080d c3bc 48fc a1be 189f 5b3e
000003e0: ee76 0dbf 4704 a63c 94c4 bebd 09b8 85bd
000003f0: 64f7 9a3e f802 aabd 35d3 82bd e8e9 5fbd

rnn.bias_ih_l2 f4 [30]
0.1256371 0.15609209 0.12556514 0.1655167 0.168582 0.02283221 0.13670596 0.16797008
-0.008152194 0.102794416 -0.31753102 -0.3824069 -0.37037686 -0.39320236 -0.35702318 -0.28728303
-0.3911353 -0.4131773 -0.3641824 -0.31666002 -0.09078054 -0.10913675 0.081251316 0.1593755
-0.13012978 0.11625031 0.15730262 -0.09800467 0.17033939 -0.07633138
00000000: 03a7 003e 9bd6 1f3e 2694 003e 367d 293e
00000010: c3a0 2c3e 9d0a bb3c a6fc 0b3e 5900 2c3e
00000020: c890 05bc e185 d23d 6d93 a2be d6ca c3be
00000030: 09a2 bdbe d251 c9be becb b6be c316 93be
00000040: e342 c8be fa8b d3be 1e76 babe 4321 a2be
00000050: 26eb b9bd 1783 dfbd 1767 a63d 5533 233e
00000060: be40 05be a414 ee3d f013 213e acb6 c8bd
00000070: 736d 2e3e a053 9cbd

rnn.bias_hh_l2 f4 [30]
0.1256371 0.15609209 0.12556514 0.1655167 0.168582 0.02283221 0.13670596 0.16797008
-0.008152194 0.102794416 -0.31753102 -0.3824069 -0.37037686 -0.39320236 -0.35702318 -0.28728303
-0.3911353 -0.4131773 -0.3641824 -0.31666002 -0.10876327 -0.13802806 0.07985184 0.20907642
-0.1651072 0.11658112 0.14955068 -0.115881264 0.08887468 -0.09300073
00000000: 03a7 003e 9bd6 1f3e 2694 003e 367d 293e
00000010: c3a0 2c3e 9d0a bb3c a6fc 0b3e 5900 2c3e
00000020: c890 05bc e185 d23d 6d93 a2be d6ca c3be
00000030: 09a2 bdbe d251 c9be becb b6be c316 93be
00000040: e342 c8be fa8b d3be 1e76 babe 4321 a2be
00000050: 47bf debd 3a57 0dbe 5d89 a33d 2118 563e
00000060: dd11 29be 15c2 ee3d d023 193e 2853 edbd
00000070: ee03 b63d 2b77 bebd

fc.weight f4 [10, 10]
0.0058640866 -0.16890886 0.5902089 -0.45008594 0.2736979 0.27919444 0.6050647 0.085261464
-0.403445 -0.011083109 0.3644726 -0.14524929 0.20517997 -0.6376705 0.55446947 -0.29549244
-0.48692888 0.07353807 0.19360885 0.0126186535 0.7535097 -0.14841233 -0.34449014 -0.66036564
0.7127894 -0.6089505 0.10982077 -0.12457518 -0.6191356 0.7209842 -0.13085417 -0.12954967
-0.7973263 0.0809773 -0.077784196 -0.25431177 -0.20290585 0.47201025 -0.72614396 0.40402204
-0.09576216 0.7262603 -0.5389629 0.043082792 0.7297934 0.34527886 -0.025940772 0.50197595
-0.1581956 0.72602135 0.5086038 0.059293777 0.17619924 -0.50207686 0.21523245 -0.5865171
-0.75582993 0.037554424 -0.04388642 0.13649905 0.6756025 0.6454707 0.09122296 -0.013926327
0.09508678 -0.6470573 -0.21299341 0.6094698 -0.59904677 0.63263893 -0.117098086 0.9244264
-0.0624262 -0.5231189 0.84875757 -0.8207079 -0.59154934 0.08959344 -0.22217438 0.08415221
0.7917945 -0.22036012 -0.5557984 0.13928856 0.35847512 -0.5970731 -0.21276134 0.8062211
-0.3326669 0.81560224 0.82775825 0.30587485 -0.3634265 -0.7105619 0.13529833 -0.39822853
-0.21393447 -0.028051613 -0.054944735 0.81923825
00000000: 8627 c03b 72f6 2cbe ee17 173f aa71 e6be
00000010: 2222 8c3e 93f2 8e3e 85e5 1a3f 909d ae3d
00000020: 5890 cebe ee95 35bc 279c ba3e 3bbc 14be
00000030: b31a 523e 603e 23bf b6f1 0d3f c94a 97be
00000040: be4e f9be 219b 963d 6641 463e 78be 4e3c
00000050: 03e6 403f 67f9 17be 0361 b0be b90d 29bf
00000060: 5e79 363f 2ee4 1bbf b6e9 e03d 4621 ffbd
00000070: ac7f 1ebf 6c92 383f a3fe 05be aba8 04be
00000080: 941d 4cbf 6dd7 a53d 524d 9fbd 2735 82be
00000090: 8dc6 4fbe 54ab f13e 92e4 39bf fadb ce3e
000000a0: f41e c4bd 32ec 393f 79f9 09bf 9577 303d
000000b0: bed3 3a3f 64c8 b03e be81 d4bc 7f81 003f
000000c0: 07fe 21be 89dc 393f dc33 023f 08de 723d
000000d0: 936d 343e 1c88 00bf e565 5c3e fc25 16bf
000000e0: 127e 41bf abd2 193d 3fc2 33bd 68c6 0b3e
000000f0: 49f4 2c3f 913d 253f 1ad3 ba3d 402b 64bc
00000100: dcbc c23d 8ca5 25bf f21a 5abe 3606 1c3f
00000110: 215b 19bf a0f4 213f 1fd1 efbd 35a7 6c3f
00000120: 9db2 7fbd 1feb 05bf 2d48 593f ea19 52bf
00000130: c76f 17bf c47c b73d ae81 63be fe57 ac3d
00000140: 0bb3 4a3f 15a6 61be ce48 0ebf a9a1 0e3e
00000150: 0d8a b73e c8d9 18bf 1cde 59be 8264 4e3f
00000160: 5153 aabe 4fcb 503f f7e7 533f a19b 9c3e
00000170: 0a13 babe 62e7 35bf a58b 0a3e 9ce4 cbbe
00000180: a311 5bbe 7fcc e5bc bb0d 61bd 99b9 513f

fc.bias f4 [10]
0.060939524 -0.12543017 -0.19514553 -0.20670155 -0.13370205 -0.18614213 -0.17006163 -0.32574248
-0.21247119 -0.19514224
00000000: b99b 793d c470 00be 3bd4 47be 92a9 53be
00000010: 31e9 08be 0b9c 3ebe a324 2ebe b8c7 a6be
00000020: 0c92 59be 5ed3 47be
