output/TimeGAN/stock/train/weights/netR.pth (torch, 15487 bytes, 18 tensors)

rnn.weight_ih_l0 f4 [24, 64]
0	0x3e852a01	0.2600861
1	0xbd8d9c91	-0.06914628
2	0x3e332971	0.17496277
3	0xbd977da0	-0.07397008
4	0xbd864f61	-0.06558109
5	0xbe74b0c0	-0.2389555
6	0x3e11c5d4	0.14235622
7	0xbe4746a7	-0.19460545
8	0xbe0a9748	-0.13534272
9	0xbd6633e7	-0.05620184
10	0xbd81081d	-0.063003756
11	0x3e29656d	0.16542597
12	0xbe19b7e1	-0.1501155
13	0x3e52e20b	0.20594041
14	0xbe0c7b7b	-0.13718979
15	0x3d1fb68a	0.038992442
16	0xbdd4647d	-0.10370729
17	0xbe03d1f6	-0.12873062
18	0xbd956817	-0.07295244
19	0x3e0ca830	0.13736033
20	0xbe12c5a8	-0.14333212
21	0xbdf2901a	-0.118438914
22	0x3e7ef776	0.24899086
23	0x3d838c23	0.06423213
24	0x3e1fa095	0.15588601
25	0xbe888a11	-0.26667836
26	0xbde55880	-0.11198521
27	0xbdcd1933	-0.10014572
28	0x3e53ec00	0.20695496
29	0x3e880d9a	0.26572877
30	0x3e000686	0.12502488
31	0x3c6caf8d	0.014446151
32	0x3dc39fd0	0.09551966
33	0x3e2a5d02	0.16637042
34	0x3d51549b	0.051106077
35	0xbdb00f93	-0.085967205
36	0x3e39cd64	0.18144757
37	0x3dbcaa8a	0.09212215
38	0xbe8381b7	-0.25684902
39	0x3d7bb716	0.0614539
40	0xbe8bb558	-0.27286792
41	0xbdb6f567	-0.089335255
42	0xbe4c43df	-0.19947766
43	0xbc603bcb	-0.013686131
44	0x3cc0e7b6	0.023547988
45	0x3e2a2f14	0.16619521
46	0x3e2f34e6	0.17110023
47	0xbe4e928e	-0.20173094
48	0x3e51ff53	0.20507555
49	0xbe36eb30	-0.17863154
50	0xbd9f3c30	-0.07775152
51	0xbd89b190	-0.067233205
52	0x3cbec2c7	0.023286236
53	0xbde67077	-0.1125192
54	0x3e264d78	0.1624049
55	0xbe6581bc	-0.22412771
56	0xbe781747	-0.2422763
57	0x3decdd33	0.11565628
58	0xbe389f78	-0.18029583
59	0xbd53ea12	-0.0517369
60	0x3d35ef95	0.044417936
61	0x3dbee5a0	0.09321141
62	0x3d047a1e	0.032343023
63	0xbde3f104	-0.111299545
64	0xbdf198e2	-0.11796738
65	0xbe13fb14	-0.14451247
66	0x3d3b91cb	0.045793336
67	0x3b91a938	0.0044452213
68	0x3dce6485	0.10077766
69	0xbe24b73e	-0.16085526
70	0xbda73661	-0.08164669
71	0x3dbf2811	0.09333814
72	0xbd39d5da	-0.04536996
73	0x3da4298c	0.08015737
74	0xbe7f3878	-0.24923885
75	0x3e5ffd25	0.2187391
76	0xbe22c263	-0.15894465
77	0x3e4cff6c	0.2001931
78	0xbe84431e	-0.25832456
79	0xbe350794	-0.17678672
80	0xbd81330c	-0.063085645
81	0xbe863594	-0.26212752
82	0xbe9524ed	-0.29129735
83	0xbdb7f998	-0.08983153
84	0xbdea3241	-0.114353664
85	0x3d06d083	0.032913696
86	0x3e6e7196	0.23285517
87	0xbe3d83a2	-0.18507245
88	0xbe548cca	-0.20756832
89	0xbc9305e1	-0.01794714
90	0x3d34d493	0.04414804
91	0xbd5c956f	-0.05385345
92	0xbe062ab5	-0.13102229
93	0xbe0e8b4e	-0.13920328
94	0xbe09449b	-0.13405077
95	0xbe4429b2	-0.1915653
96	0xbdc4ed0b	-0.09615525
97	0xbd3c531a	-0.04597769
98	0xbd1e86b2	-0.038702674
99	0xbd226a07	-0.039651897
100	0xbe87bb7b	-0.26510224
101	0xbd0ffb7e	-0.03515195
102	0x3dd687d2	0.104751244
103	0xbcf784d4	-0.030214705
104	0x3dd43b3e	0.10362862
105	0x3e6ff336	0.23432621
106	0xbe22a69f	-0.15883873
107	0xbea4e9c3	-0.32209596
108	0xbd0cb13f	-0.034348723
109	0xbe2ec37f	-0.17066763
110	0xbe5c2743	-0.21499352
111	0xbe7b2958	-0.2452749
112	0x3d9cc234	0.07654229
113	0x3e0ff6e5	0.14059027
114	0xbe9096c5	-0.28240028
115	0x3d250ddb	0.040296417
116	0xbe54b8ff	-0.20773695
117	0xbd782cf0	-0.06058973
118	0x3d731969	0.059350405
119	0xbde85225	-0.11343793
120	0xbe4991cc	-0.19684523
121	0xbcf59472	-0.02997801
122	0xbe76af69	-0.24090351
123	0x3e23fbd8	0.1601404
124	0x3e4fe9c4	0.20304018
125	0x3c6eeabe	0.014582334
126	0x3db29888	0.08720499
127	0xbe0a13c2	-0.134841
128	0xbe619665	-0.22030027
129	0xbe408478	-0.18800533
130	0xbe5e6fff	-0.2172241
131	0xbb40348d	-0.0029328198
132	0x3e59d6cd	0.21273346
133	0x3e7104c4	0.23536974
134	0xbe77eaee	-0.24210712
135	0x3e65e3d2	0.22450188
136	0xbe0ddda9	-0.13854088
137	0xbe01026b	-0.12598579
138	0x3d7aae7d	0.06120156
139	0x3e5f9a37	0.21836172
140	0xbe4eb31d	-0.20185514
141	0x3e031d70	0.12804198
142	0xbe57fa81	-0.21091653
143	0x3b5e361e	0.0033906768
144	0x3e196bda	0.14982548
145	0x3e66c256	0.22535071
146	0xbe5d4bce	-0.21610948
147	0xbd65ca2e	-0.056101017
148	0xbe1d6636	-0.15371022
149	0xbe9e24ec	-0.30887544
150	0xbd6bd1a4	-0.057572976
151	0xbea8f27e	-0.32997507
152	0xbe1af6e7	-0.15133248
153	0xbd8cc90b	-0.068742834
154	0x3db1c42a	0.086799935
155	0xbc856ac0	-0.016286254
156	0x3ddf0ffb	0.1089172
157	0x3d90be59	0.07067556
158	0xbe096d53	-0.1342061
159	0x3dbd9509	0.09256942
160	0x3dc85d35	0.09783403
161	0x3da9fa36	0.08299677
162	0x3dbd4f35	0.09243623
163	0xbd5c268e	-0.053747706
164	0xbdc2f06a	-0.095185116
165	0xbe1416e7	-0.14461862
166	0x3da913fd	0.082557656
167	0xbe2b09ca	-0.16702953
168	0x3d5e49ab	0.054269474
169	0x3d3e0e17	0.046400156
170	0x3e9c1c7a	0.30490476
171	0xbe181123	-0.14850287
172	0x3c314283	0.01081908
173	0xbd2df864	-0.042473212
174	0x3c6d872f	0.014497562
175	0xbdd44934	-0.10365525
176	0x3da2a90a	0.07942398
177	0xbe119276	-0.14216027
178	0xbda79ba3	-0.08183982
179	0xbdee04a5	-0.116219796
180	0xbe83d430	-0.25747824
181	0x3df59c6b	0.11992725
182	0x3e87fb21	0.26558784
183	0xbcb2ce9d	-0.021827037
184	0xbdf9b1ba	-0.12192102
185	0xbd898295	-0.0671436
186	0x3e1307eb	0.14358489
187	0xbd9d0055	-0.07666079
188	0x3e2bb1aa	0.16766992
189	0xbe6720b0	-0.22571063
190	0x3d0db29c	0.034594163
191	0xbe9b9f1c	-0.30394828
192	0x3e5c60d4	0.21521312
193	0x3e9296ee	0.28630775
194	0x3e8d93f2	0.27651936
195	0xbd1c303a	-0.03813193
196	0xbb3ff207	-0.0029288547
197	0x3e5f2bc4	0.21794039
198	0xbdcdb801	-0.100448616
199	0x3d4c487a	0.049873807
200	0x3e86da6e	0.26338524
201	0x3e97cc88	0.29648232
202	0x3eadec24	0.33969223
203	0xbdc8040e	-0.09766398
204	0xbd375b52	-0.044764824
205	0x3dd93275	0.10605327
206	0x3d8cd63d	0.068768
207	0xbd077dc6	-0.03307893
208	0xbe25da43	-0.16196541
209	0x3e64cbd3	0.22343378
210	0x3d35bab7	0.04436752
211	0x3dd97c04	0.10619357
212	0x3e47aba4	0.1949907
213	0x3e04e738	0.12978828
214	0x3e948749	0.29009464
215	0x3da5f136	0.08102648
216	0x3e444862	0.19168237
217	0x3ea094b3	0.31363449
218	0x3e9b63c2	0.30349547
219	0xbdea6a84	-0.114460975
220	0xbd9b3ab9	-0.0757956
221	0xbe443297	-0.19159923
222	0x3e9407bb	0.28912148
223	0x3e21d0ce	0.15802309
224	0xbd1e5f79	-0.03866527
225	0xbe87c625	-0.2651836
226	0xbe5055ed	-0.20345278
227	0xbe098ea1	-0.13433315
228	0x3e80a581	0.2512627
229	0xbca3e0b0	-0.0200046
230	0x3e38eedf	0.18059872
231	0x3dcd65ed	0.100292064
232	0x3e1d30d4	0.15350658
233	0x3d666c64	0.056255713
234	0x3e368043	0.17822365
235	0xbe82624a	-0.25465614
236	0xbd2213a5	-0.039569516
237	0xbe077ad9	-0.13230456
238	0x3e8be05b	0.27319607
239	0x3e3812e9	0.17975964
240	0x3d444b1e	0.0479232
241	0x3e0aa121	0.13538028
242	0x3e44260e	0.19155142
243	0xbe0eddb5	-0.13951762
244	0x3e043808	0.12911999
245	0xbd7d7d86	-0.061887287
246	0xbe808278	-0.2509954
247	0x3c7968ad	0.015222711
248	0x3e110243	0.14161019
249	0xbd590611	-0.0529843
250	0xbc94205f	-0.018081842
251	0x3e85a8a0	0.26105213
252	0x3e29ae63	0.1657043
253	0x3cc2a607	0.023760809
254	0xbca9ed9b	-0.020743182
255	0x3e9b8bd1	0.3038011

rnn.weight_hh_l0 f4 [24, 8]
0	0xbb1da7d2	-0.0024056328
1	0x3e2c7a6d	0.16843577
2	0x3dff1407	0.12454992
3	0xbe102c46	-0.14079389
4	0xbe57c0e3	-0.21069674
5	0xbdf08559	-0.11744184
6	0xbdc7ffed	-0.09765611
7	0xbe8d08af	-0.27545688
8	0xbd90fbaf	-0.07079255
9	0x3e638fff	0.22222899
10	0xbe78254f	-0.24232982
11	0x3d1c95c0	0.03822875
12	0x3dbf561b	0.09342595
13	0x3d95a99a	0.073077396
14	0xba29ec0c	-0.0006482012
15	0xbef264d8	-0.47342563
16	0xbd83f4ee	-0.06443201
17	0xbd1c9dc4	-0.038236395
18	0xbe1670b0	-0.14691424
19	0xbda5c6d1	-0.08094562
20	0xbdceaaec	-0.100911945
21	0x3e31ec4c	0.17375296
22	0xbd83a9ba	-0.06428857
23	0xbe78e257	-0.24305092
24	0xbde6262c	-0.112377495
25	0xbdff3387	-0.12461
26	0x3e9c723d	0.30555907
27	0xbe6b50d1	-0.22980048
28	0xbdf9eb4c	-0.122030824
29	0xbeb10a6b	-0.3457826
30	0x3e961ec7	0.29320356
31	0x3df84b78	0.121237695
32	0xbe78fc10	-0.24314904
33	0x3da55f0a	0.08074768
34	0x3e62b32d	0.22138663
35	0x3ee7296f	0.451488
36	0xbdf544df	-0.11976027
37	0x3e2336a0	0.15938807
38	0xbd24c50b	-0.040226977
39	0xbbade85d	-0.005307241
40	0x3e2e0a08	0.16996014
41	0x3e178a4b	0.14798848
42	0x3e056b63	0.13029246
43	0x3e1a457f	0.15065573
44	0xbd85c53f	-0.06531762
45	0xbdd14731	-0.10218657
46	0x3ebc5677	0.36784717
47	0xbd4535e0	-0.048147082
48	0x3ecd235e	0.40066046
49	0xbe3b2148	-0.18274415
50	0xbd8a2848	-0.06745964
51	0x3e2fc6b6	0.17165646
52	0x3dd8b1db	0.10580798
53	0x3c8bf8bc	0.01708638
54	0xbe6faf24	-0.23406655
55	0x3e46a58d	0.1939909
56	0x3e32dd55	0.17467244
57	0x3d99992d	0.07499919
58	0x3e5e6491	0.2171805
59	0xbd670af8	-0.056406945
60	0x3e08e756	0.13369498
61	0x3e7157be	0.23568627
62	0xbd8e7ade	-0.06957029
63	0xbe9e5237	-0.309221
64	0x3e8d8c34	0.2764603
65	0x3e04b6cc	0.12960356
66	0x3f10490b	0.56361455
67	0xbe3efac7	-0.18650351
68	0xbe854d82	-0.26035696
69	0xbe2c10fc	-0.16803354
70	0xbf06ff0a	-0.5273291
71	0x3e10b639	0.14132012
72	0x3f463781	0.7742844
73	0x3e2560c3	0.16150193
74	0xbe378bcf	-0.17924426
75	0xbee30e7d	-0.4434699
76	0xbeabf20d	-0.33583108
77	0xbe3f811f	-0.187016
78	0x3dd882a9	0.105717964
79	0x3d52719e	0.051377885
80	0x3e4f60ea	0.20251814
81	0xbe867d55	-0.26267496
82	0xbe0dee42	-0.1386042
83	0x3e60ec22	0.21965078
84	0xbde46289	-0.111516066
85	0xbefab1d1	-0.48963788
86	0xbe38ee22	-0.1805959
87	0x3ddb5270	0.10709083
88	0x3e48d4f7	0.1961249
89	0xbd9de6f6	-0.07710068
90	0xbe150360	-0.14552069
91	0xbe2663ed	-0.16249056
92	0xbf48bd86	-0.7841419
93	0xbf066940	-0.5250435
94	0x3d3fcf24	0.046828404
95	0x3e8c1ca5	0.27365604
96	0x3ec55fef	0.38549754
97	0xbc9205ef	-0.017825095
98	0xbe8ee5b6	-0.2790963
99	0x3db7f891	0.08982957
100	0xbedbdaee	-0.42940468
101	0xbf2edf8a	-0.68309844
102	0xbf0b6aca	-0.5445982
103	0xbd87956f	-0.06620299
104	0xbe6e96e3	-0.23299746
105	0xbea52600	-0.32255554
106	0x3e08a91a	0.13345757
107	0xbed176ca	-0.4091094
108	0xbf24bc4b	-0.6434981
109	0x3d19fa00	0.037591934
110	0xbe22fd27	-0.15916882
111	0xbe2c8551	-0.16847731
112	0xbe5cdf51	-0.21569563
113	0xbec732c0	-0.38905907
114	0x3ed8a366	0.42312163
115	0x3f55192a	0.8324152
116	0x3e37ea92	0.17960575
117	0x3fa08cb9	1.2542945
118	0x3eed722f	0.46376178
119	0xbeabd487	-0.33560583
120	0x3ec51ced	0.3849863
121	0xbe6622f5	-0.22474273
122	0x3eb00188	0.34376168
123	0xbedcd7fd	-0.43133536
124	0xbbe89735	-0.0070981034
125	0x3caf6c27	0.021413876
126	0xbe873bdd	-0.2641286
127	0x3e1fbae7	0.15598641
128	0x3e6d252d	0.23158713
129	0xbe98a979	-0.29816797
130	0x3e3cb208	0.18427289
131	0x3e6adee6	0.22936592
132	0xbd1e1da0	-0.03860247
133	0x3dac1c8b	0.08403882
134	0x3ed96d86	0.42466372
135	0xbe900449	-0.2812827
136	0x3e1e0245	0.15430553
137	0xbebb91b9	-0.36634615
138	0x3d850158	0.06494397
139	0x3db4f0df	0.08835005
140	0xbc64c925	-0.013963972
141	0xbe854280	-0.26027298
142	0xbcb73bd1	-0.02236739
143	0x3dc5622c	0.096378654
144	0x3b1b3624	0.0023683393
145	0xbe8c42f3	-0.27394828
146	0x3de6d066	0.112702176
147	0xbe16659e	-0.14687201
148	0x3d897afc	0.067129105
149	0x3d21ad0f	0.039471682
150	0x3e1ecaf5	0.1550711
151	0x3d3804ac	0.04492633
152	0xbe0f6869	-0.14004673
153	0xbdb6a9ba	-0.089190915
154	0x3e99689b	0.2996262
155	0x3ead8ee9	0.33898094
156	0xbcf0c938	-0.029392824
157	0xbd95352d	-0.07285533
158	0x3e1c2f40	0.152524
159	0x3be06893	0.0068484037
160	0xbdf41e25	-0.11919812
161	0xbeabff97	-0.33593437
162	0xbd3a84ad	-0.045536686
163	0xbba7c977	-0.005120452
164	0xbe1f6783	-0.1556683
165	0x3e33241d	0.17494245
166	0xbc920db6	-0.017828804
167	0x3e58d66a	0.21175542
168	0xbf0e4c20	-0.5558491
169	0xbec8bf48	-0.39208436
170	0x3e3d2a1e	0.18473098
171	0xbd032eba	-0.032026984
172	0x3cc715f5	0.024302462
173	0x3e1d8900	0.15384293
174	0x3dab299d	0.083575465
175	0xbc3cb910	-0.011518732
176	0xbde3907d	-0.11111543
177	0x3e96a45f	0.2942228
178	0x3c2fe875	0.010736574
179	0xbdaf6397	-0.08563917
180	0xbdf2cac1	-0.118550785
181	0xbc3480d0	-0.011017039
182	0x3e060bcb	0.13090436
183	0x3e7186a4	0.23586518
184	0x3e5c841a	0.21534768
185	0xbe2dfe82	-0.16991618
186	0x3eb4c831	0.35308984
187	0xbe34864e	-0.17629358
188	0x3d8049ea	0.06264098
189	0xbe98c2b5	-0.2983605
190	0xbe18cfc1	-0.14923002
191	0xbea33067	-0.31872866

rnn.bias_ih_l0 f4 [24]
0	0xbcbb2534	-0.022844888
1	0xbd2b8dd9	-0.041883323
2	0x3d0dfc6c	0.034664556
3	0xbd57c262	-0.052675612
4	0x3d099953	0.033593487
5	0x3d9c74f7	0.07639497
6	0x3c9c77fa	0.019100178
7	0x3cceda6a	0.025250632
8	0xbe32e86f	-0.17471479
9	0xbec15b42	-0.37764937
10	0xbe5c7473	-0.21528797
11	0xbeab54f5	-0.33463255
12	0xbe7fc288	-0.24976552
13	0xbe810f5d	-0.25207034
14	0x3e8eb433	0.27871856
15	0xbe513d73	-0.20433597
16	0xbdde5e45	-0.10857824
17	0x3c3bde0f	0.011466517
18	0x3d7e64a3	0.062107693
19	0x3cebed71	0.028799744
20	0x3cf7b70f	0.030238656
21	0x3dc8587f	0.09782504
22	0x3d8782c5	0.06616739
23	0x3c5a562d	0.01332621

rnn.bias_hh_l0 f4 [24]
0	0xbcbb2534	-0.022844888
1	0xbd2b8dd9	-0.041883323
2	0x3d0dfc6c	0.034664556
3	0xbd57c262	-0.052675612
4	0x3d099953	0.033593487
5	0x3d9c74f7	0.07639497
6	0x3c9c77fa	0.019100178
7	0x3cceda6a	0.025250632
8	0xbe32e86f	-0.17471479
9	0xbec15b42	-0.37764937
10	0xbe5c7473	-0.21528797
11	0xbeab54f5	-0.33463255
12	0xbe7fc288	-0.24976552
13	0xbe810f5d	-0.25207034
14	0x3e8eb433	0.27871856
15	0xbe513d73	-0.20433597
16	0xbddf0320	-0.10889268
17	0xbd26c36c	-0.040713713
18	0x3d929aa7	0.07158404
19	0x3d33d3a6	0.043903016
20	0x3d100da6	0.035169266
21	0x3e03480c	0.12820452
22	0x3d9d1cdd	0.07671521
23	0x3c8868e2	0.016651575

rnn.weight_ih_l1 f4 [24, 8]
0	0x3e9045f5	0.28178373
1	0x3eeb1ebf	0.45921895
2	0x3e964e11	0.29356435
3	0x3a0c1f78	0.00053452654
4	0xbe0b999f	-0.1363282
5	0xbef7a9ff	-0.48371884
6	0x3e082a30	0.13297343
7	0x3f159f4c	0.5844619
8	0x3eb1dc35	0.34738317
9	0x3eb00a15	0.34382692
10	0xbeb07599	-0.3446472
11	0xbd850072	-0.064942256
12	0x3ec0aa78	0.37630057
13	0x3edb98fc	0.42890155
14	0x3db924ea	0.09040244
15	0x3edbde00	0.4294281
16	0xbf0c4d3c	-0.5480535
17	0x3e8d803b	0.27636895
18	0xbefa95ba	-0.48942357
19	0x3e1b1f0e	0.15148565
20	0xbe1e3b1d	-0.15452237
21	0x3d9a2920	0.07527375
22	0x3e2b91ba	0.16754809
23	0x3e9d0ac8	0.30672288
24	0xbf01c540	-0.50691605
25	0x3dd5edc0	0.10445738
26	0xbef96f8f	-0.48717925
27	0x3e326c44	0.17424113
28	0x3f018b81	0.5060349
29	0x3edeebb1	0.43539193
30	0x3e4648f9	0.19363774
31	0x3d76c5c7	0.06024721
32	0x3e9b27d8	0.30303836
33	0x3ecf5002	0.4049073
34	0xbee8fce8	-0.45505452
35	0xbd54b4f3	-0.05193038
36	0x3ed62738	0.41826797
37	0xbe89b721	-0.2689753
38	0x3e95a79b	0.29229435
39	0xbd5c7ba6	-0.053828858
40	0x3ecbed3e	0.3982944
41	0xbe878e6d	-0.2647585
42	0x3ed94546	0.42435664
43	0x3efeb0e1	0.49744323
44	0x3e4869e8	0.1957165
45	0xbe9ed8b6	-0.31024712
46	0xbea25396	-0.31704396
47	0xbca24288	-0.019807115
48	0x3e56ff70	0.20995879
49	0x3eaa1083	0.33215722
50	0xbe1d0210	-0.15332818
51	0x3f1812e2	0.5940381
52	0x3e431433	0.19050674
53	0xbe82be97	-0.25536034
54	0x3edd72ab	0.43251547
55	0x3ed3d28d	0.41371575
56	0x3d4e03e2	0.05029667
57	0xbd5b0707	-0.0534735
58	0xbe38719d	-0.1801209
59	0x3e29b037	0.16571127
60	0xbceb06f9	-0.028689848
61	0xbe79b489	-0.24385275
62	0x3eece8f5	0.46271482
63	0x3ee756de	0.45183462
64	0x3f112ffe	0.56713855
65	0xbeb27923	-0.34858045
66	0xbd24879d	-0.040168393
67	0xbee3aa24	-0.44465744
68	0xbe8d6122	-0.2761317
69	0xbf859c63	-1.043835
70	0xbf429b07	-0.760178
71	0xbe499aa5	-0.19687898
72	0x3d14a2c8	0.036288053
73	0xbf942364	-1.15733
74	0x3e438d36	0.19096836
75	0xbfa2540e	-1.2681901
76	0xbebed0d8	-0.3726871
77	0xbe6328fb	-0.22183602
78	0xbe1a1a5c	-0.15049118
79	0xbeb77907	-0.35834524
80	0xbe218930	-0.15774989
81	0xbf3ec18b	-0.74514073
82	0x3d6dcbb9	0.058055613
83	0xbef77a17	-0.48335335
84	0xbe655a91	-0.2239783
85	0xbe354077	-0.17700373
86	0x3c2b0891	0.010439054
87	0x3e53c33e	0.20679948
88	0x3ef19689	0.47185162
89	0xbf182f00	-0.59446716
90	0x3f2f5c01	0.6849976
91	0xbf2cf062	-0.67554295
92	0xbefea0b6	-0.49731988
93	0xbebca6a2	-0.3684588
94	0xbeb09884	-0.3449136
95	0xbf319fbf	-0.6938438
96	0x3f990696	1.1955135
97	0xbe564c3e	-0.20927522
98	0x3f64db3f	0.89397043
99	0xbf47e633	-0.7808563
100	0xbf140fc5	-0.5783656
101	0xbf6256ba	-0.88413584
102	0xbf2638fa	-0.6493069
103	0xbdd4b2e1	-0.10385681
104	0x3cc3a21f	0.023881016
105	0xbebd5dd5	-0.3698565
106	0x3d1a33b8	0.03764698
107	0xbd83287a	-0.06404205
108	0xbdb362c1	-0.0875907
109	0xbec851fa	-0.39125043
110	0xbebdfed6	-0.37108487
111	0x3d80254e	0.06257115
112	0x3f5aac15	0.85418826
113	0xbdbea555	-0.09308878
114	0x3ea1b972	0.31586796
115	0xbf528eba	-0.82249033
116	0xbf170514	-0.58992124
117	0xbf8ad193	-1.0845207
118	0xbe245fd8	-0.16052186
119	0xbcbd31d4	-0.023095049
120	0x3f838118	1.0273771
121	0xbf11bdb3	-0.56930083
122	0x3f0e3afc	0.55558753
123	0xbf77bceb	-0.9677264
124	0xbea9aa65	-0.33137813
125	0xbf3d377c	-0.7391279
126	0xbf22beda	-0.63572466
127	0xbc2b2244	-0.010445181
128	0x3ed64717	0.41851112
129	0x3f3d1f51	0.7387591
130	0x3db0878f	0.08619606
131	0x3eb692ad	0.3565878
132	0x3ed0da9b	0.40791783
133	0x3d12958d	0.035787154
134	0x3da63aee	0.08116709
135	0x3e06b28c	0.13154048
136	0xbeae692d	-0.34064618
137	0xbde74f2f	-0.112944
138	0xbe685582	-0.22688869
139	0xbd0a83c2	-0.03381706
140	0x3e93a59c	0.28837287
141	0x3c5ede66	0.013602829
142	0x3e1f0667	0.15529786
143	0x3e912466	0.28348082
144	0xbe8637cc	-0.26214445
145	0x3e05ade2	0.13054612
146	0x3dbe3a60	0.09288478
147	0x3ef6ccd7	0.48203155
148	0x3e3a1b53	0.18174486
149	0xbe502356	-0.2032598
150	0x3cebf8e5	0.028805206
151	0xbeb3d910	-0.35126543
152	0xbe80ea2a	-0.25178653
153	0xbe45a650	-0.19301724
154	0x3eb05173	0.3443714
155	0x3edb4d1b	0.42832264
156	0x3f1520fb	0.5825345
157	0x3f120030	0.57031536
158	0x3e903745	0.28167167
159	0x3ea538c8	0.32269883
160	0x3e7475cf	0.23873065
161	0x3f4c1241	0.79715353
162	0xbec2426d	-0.37941304
163	0x3e965ad7	0.2936618
164	0x3e584bf8	0.2112273
165	0xbd97f009	-0.0741883
166	0xbe092cf5	-0.13396056
167	0x3efc9d13	0.49338588
168	0x3d6c5a77	0.05770346
169	0x3e48e2b6	0.19617733
170	0xbd8f1f35	-0.06988374
171	0xbeddd501	-0.43326572
172	0xbed79b78	-0.421108
173	0xbe2a83ba	-0.16651812
174	0xbea37ad5	-0.3192965
175	0xbe568bb0	-0.20951724
176	0x3ea625ab	0.32450613
177	0x3f0bd567	0.546225
178	0x3db2c58d	0.08729086
179	0x3f084268	0.5322633
180	0xbd1e8e1b	-0.03870974
181	0x3eee73f2	0.46572834
182	0x3e9858b2	0.2975517
183	0x3c8acdfd	0.016943926
184	0x3e9fecfe	0.31235498
185	0xbf2a940f	-0.6663217
186	0x3e951396	0.29116505
187	0xbe2a8e21	-0.1665578
188	0xbea91c44	-0.33029377
189	0xbe525bdb	-0.20542853
190	0xbf05a563	-0.52205485
191	0x3dbc6e75	0.092007555

rnn.weight_hh_l1 f4 [24, 8]
0	0xbcad6906	-0.021168243
1	0xbe07d81a	-0.1326603
2	0xbed7418b	-0.42042193
3	0xbe4772ab	-0.19477336
4	0x3edd7ef4	0.4326092
5	0xbcd7e334	-0.026353456
6	0xbca6e726	-0.020373892
7	0xbe3a2ef1	-0.18181969
8	0x3e679d98	0.22618711
9	0x3f0b7994	0.5448239
10	0x3e106681	0.14101602
11	0x3e018f3e	0.12652299
12	0x3eb59abd	0.35469618
13	0x3eb3b052	0.3509546
14	0xbec64340	-0.38723183
15	0xbec56232	-0.3855148
16	0x3e59e23f	0.21277712
17	0x3f0c8657	0.54892486
18	0x3ea06fa9	0.3133519
19	0x3c8db021	0.017295899
20	0x3ec1c7a5	0.3784763
21	0xbebacbe6	-0.36483687
22	0x3df326a8	0.118726075
23	0xbe3da425	-0.18519647
24	0x3dafdfe4	0.085876256
25	0xbe19ae29	-0.15007843
26	0x3e5e6412	0.21717861
27	0x3dcf3faa	0.10119565
28	0x3cdc9473	0.026926255
29	0xbdef3dc1	-0.116817005
30	0xbdfe97db	-0.12431308
31	0xbde53a00	-0.11192703
32	0x3ebb67c0	0.36602592
33	0xbe58b545	-0.21162899
34	0xbf4a7169	-0.790793
35	0xbcb2f404	-0.021844871
36	0x3eb9f7a4	0.36321747
37	0x3ea8f9c9	0.3300307
38	0x3e8c2e9f	0.2737932
39	0x3b16032b	0.0022890072
40	0xbe5dc33d	-0.21656509
41	0xbe700528	-0.23439467
42	0xbe7509ee	-0.23929569
43	0xbe7c5e1f	-0.2464528
44	0x3dc3c5c8	0.09559208
45	0xbbda1ef6	-0.006656523
46	0xbebd7a6b	-0.3700746
47	0x3ed89264	0.42299187
48	0x3e823b82	0.25436026
49	0x3eab34e5	0.33438793
50	0x3a5ea624	0.0008493385
51	0x3ed22357	0.41042587
52	0x3e9ef140	0.31043434
53	0xbd102938	-0.03519556
54	0x3e840fa3	0.2579318
55	0x3ed2dfc1	0.41186336
56	0x3d93c646	0.07215552
57	0x3ddaf39a	0.106909946
58	0x3e3d01b0	0.18457675
59	0xbbfc1f20	-0.00769414
60	0x3e3efd64	0.18651348
61	0xbefe5e2e	-0.49681228
62	0xbd15d1d8	-0.036577076
63	0xbdb95e8a	-0.09051235
64	0xbed25155	-0.41077676
65	0xbef60330	-0.48049307
66	0xbdba6289	-0.09100825
67	0xbf3c8f8c	-0.73656535
68	0xbeef58c7	-0.4674742
69	0x3f2b5746	0.66930044
70	0xbee0a06d	-0.43872395
71	0x3f0207e5	0.50793296
72	0xbe906280	-0.2820015
73	0x3f0f7ea9	0.56052643
74	0x3f22fe36	0.63669145
75	0x3e882b22	0.26595408
76	0x3ea05fc1	0.31323054
77	0xbe2d2f23	-0.16912512
78	0x3e06261f	0.1310048
79	0xbe1cbc9e	-0.15306327
80	0x3da86e08	0.08224112
81	0xbe22d0fa	-0.1590003
82	0x3f2ef6d3	0.68345374
83	0x3db9dd3e	0.09075402
84	0xbdbfc074	-0.093628794
85	0xbd15e06d	-0.036590982
86	0xbee18d72	-0.44053227
87	0xbcf1dd40	-0.029524446
88	0xbd2357d1	-0.03987867
89	0xbe6cfe98	-0.23143995
90	0xbb5f9147	-0.0034113692
91	0xbe1cc3d7	-0.15309082
92	0x3db5976a	0.088667706
93	0x3e865423	0.26236066
94	0xbd3f5d9f	-0.046720143
95	0x3e59e833	0.21279983
96	0xbe8034a2	-0.25040156
97	0xbf3b4b0e	-0.731614
98	0xbf03b600	-0.51449585
99	0xbf8b7200	-1.0894165
100	0xbe8544c2	-0.2602902
101	0x3f2e845b	0.6817071
102	0xbeec29ce	-0.46125644
103	0x3eba044f	0.36331412
104	0xbf184691	-0.59482676
105	0xbe16cd81	-0.14726831
106	0xbc14acf0	-0.009074435
107	0x3d84a209	0.06476218
108	0xbe5a467d	-0.21315952
109	0x3e0be634	0.13662034
110	0xbe3fb8d7	-0.18722855
111	0x3d86ca5a	0.06581564
112	0xbe9cf6ae	-0.30656952
113	0xbf112bc4	-0.56707406
114	0xbe81af38	-0.25328994
115	0xbf27de86	-0.6557392
116	0xbdc36f60	-0.095427275
117	0x3f7151da	0.9426552
118	0x3591bd02	1.085835e-06
119	0x3ee3038e	0.4433865
120	0x3ddfffad	0.10937438
121	0xbe9d9f08	-0.30785394
122	0xbf2a70f4	-0.665786
123	0xbe7700b3	-0.2412136
124	0x3d758041	0.059936766
125	0x3edf72b8	0.4364221
126	0xbec97143	-0.39344224
127	0x3f289bae	0.6586255
128	0xbe7d3d03	-0.24730305
129	0x3d3ace79	0.045607064
130	0xbe863460	-0.26211834
131	0xbd975a82	-0.0739031
132	0x3ef440b1	0.47705606
133	0xbe4a355f	-0.19746922
134	0x3d647f83	0.055785667
135	0xbd913138	-0.07089466
136	0x3e6aaa2b	0.22916476
137	0x3e3c8d90	0.18413377
138	0x3e27040a	0.16310135
139	0xbe074bde	-0.13212535
140	0xbe2b5969	-0.16733326
141	0xbe4780e2	-0.19482759
142	0x3dd18fbd	0.10232494
143	0xbe043d76	-0.1291407
144	0xbc14267e	-0.00904238
145	0x3e88324c	0.26600873
146	0x3e85719f	0.2606325
147	0x3eaed449	0.34146336
148	0x3e932d9c	0.28745735
149	0xbe7ec87a	-0.24881163
150	0x3df405f0	0.11915195
151	0xbf0ada78	-0.54239607
152	0x3e80e40c	0.25173986
153	0x3e80c31e	0.25148863
154	0xbebd87ad	-0.37017575
155	0xbe178609	-0.14797224
156	0x3d8d6dcd	0.069057085
157	0xbe57b351	-0.21064498
158	0xbc35703d	-0.011074123
159	0xbe5616be	-0.20907113
160	0x3efbc41f	0.49173066
161	0x3ea4ed01	0.3221207
162	0x3c82ed98	0.015982434
163	0xbe760acd	-0.24027558
164	0x3debb847	0.115097575
165	0xbe409f81	-0.18810846
166	0x3cc7c9a9	0.024388151
167	0x3c66b04e	0.01408012
168	0x3d8db202	0.06918718
169	0xbe94987c	-0.29022586
170	0xbe57af9b	-0.21063082
171	0x3e811f9e	0.25219434
172	0xbea1f413	-0.31631526
173	0xbdc81887	-0.09770303
174	0x3e4fbefc	0.20287699
175	0x3e0cbf31	0.13744809
176	0xbc8dfde5	-0.01733298
177	0xbd82134e	-0.06351338
178	0xbda2c219	-0.079471774
179	0xbe4a465b	-0.19753401
180	0x3f0030f7	0.50074714
181	0xbe60130f	-0.2188227
182	0x3e1065e5	0.1410137
183	0x3e2e102c	0.16998357
184	0xbde11781	-0.10990811
185	0x3e308edb	0.17241995
186	0x3e5c1149	0.21490969
187	0x3e43a044	0.19104105
188	0xbe67b162	-0.2262626
189	0xbea96dbb	-0.3309153
190	0xbe8ca3c9	-0.27468708
191	0x3d025cc1	0.03182674

rnn.bias_ih_l1 f4 [24]
0	0xbdfe5a4d	-0.12419567
1	0x3d730f47	0.05934074
2	0x3ea1f807	0.31634542
3	0x3e277cdb	0.16356222
4	0xbe3263b8	-0.17420852
5	0xbd0347da	-0.032050945
6	0x3d156632	0.036474414
7	0x3cbdebf7	0.023183806
8	0xbf5c6659	-0.8609367
9	0xbe7d0f34	-0.24712831
10	0x3ddc9c9c	0.10772058
11	0xbf3f08c1	-0.7462273
12	0xbf648ac6	-0.8927425
13	0xbec474f9	-0.38370493
14	0xbf334efe	-0.7004241
15	0xbf2e0237	-0.6797213
16	0xbd0ef215	-0.034898836
17	0x3e1b93a0	0.15193033
18	0x3d3ed608	0.046590835
19	0x3e71bd10	0.23607278
20	0xbc91db3e	-0.017804738
21	0xbd96e7b0	-0.0736841
22	0xbb9b9322	-0.004747764
23	0xbdc0de4a	-0.09417398

rnn.bias_hh_l1 f4 [24]
0	0xbdfe5a4d	-0.12419567
1	0x3d730f47	0.05934074
2	0x3ea1f807	0.31634542
3	0x3e277cdb	0.16356222
4	0xbe3263b8	-0.17420852
5	0xbd0347da	-0.032050945
6	0x3d156632	0.036474414
7	0x3cbdebf7	0.023183806
8	0xbf5c6659	-0.8609367
9	0xbe7d0f34	-0.24712831
10	0x3ddc9c9c	0.10772058
11	0xbf3f08c1	-0.7462273
12	0xbf648ac6	-0.8927425
13	0xbec474f9	-0.38370493
14	0xbf334efe	-0.7004241
15	0xbf2e0237	-0.6797213
16	0x3bf495a9	0.00746413
17	0x3e2385cf	0.15969013
18	0x3d8e0e70	0.069363475
19	0x3e828a8a	0.25496322
20	0x3c863002	0.016380314
21	0xbd92c477	-0.07166379
22	0x3cc23ef9	0.023711668
23	0xbdbd766b	-0.09251102

rnn.weight_ih_l2 f4 [24, 8]
0	0x3eccad4a	0.3997596
1	0x3d7fcc90	0.062450945
2	0x3cb9e29d	0.022691065
3	0x3eda32dd	0.4261693
4	0x3e8d8010	0.27636766
5	0xbec0604e	-0.37573475
6	0x3d61a8a2	0.05509246
7	0xbee2f431	-0.44326928
8	0x3ee8b631	0.454515
9	0xbe8a802f	-0.2705092
10	0xbe65ef72	-0.22454622
11	0xbeca311c	-0.39490592
12	0x3f014533	0.50496215
13	0xbd568fe7	-0.05238333
14	0x3e0147f1	0.126251
15	0xbdc7b67c	-0.09751603
16	0x3ee5f11e	0.4491052
17	0x3d81c9dc	0.0633733
18	0xbd381869	-0.044945154
19	0x3f029c43	0.51019686
20	0x3ef52887	0.47882482
21	0xbebaf8bc	-0.36517894
22	0x3c8fb73b	0.017543426
23	0x3e17bce0	0.14818144
24	0x3f11f54f	0.57014936
25	0x3e8fb342	0.2806645
26	0xbe9f1c88	-0.31076455
27	0xbe625bdc	-0.22105354
28	0x3f540fba	0.82836497
29	0x3e0ab58a	0.13545814
30	0x3f1b972d	0.6077755
31	0x3de1e912	0.11030783
32	0x3f2b9a89	0.67032677
33	0xbe123deb	-0.14281432
34	0xbed5f309	-0.41786984
35	0xbe9c0086	-0.3046915
36	0x3e3b4eee	0.18291828
37	0x3ef65a90	0.4811597
38	0x3df80811	0.121109135
39	0xbe3e6cea	-0.18596235
40	0x3cb535ca	0.022120375
41	0xbe42757f	-0.18990134
42	0xbe6df24f	-0.23236965
43	0x3e683914	0.22678024
44	0xbe8280b8	-0.2548883
45	0xbe43a1bd	-0.19104667
46	0xbdef0497	-0.11670797
47	0xbe958688	-0.29204202
48	0x3f08f20e	0.53494346
49	0x3ee9279c	0.45538032
50	0x3f31d2d3	0.6946232
51	0xbeb49e1f	-0.35276887
52	0xbc0f4473	-0.008744347
53	0x3eab9a93	0.33516368
54	0x3ebbc774	0.36675608
55	0x3e2cf00a	0.16888443
56	0x3da57a65	0.080799855
57	0x3f245772	0.6419593
58	0x3d7f6233	0.06234951
59	0x3ee8ad50	0.45444727
60	0x3e913b79	0.28365687
61	0xbf32b58d	-0.69808275
62	0x3f0fc46e	0.561591
63	0xbdc076fa	-0.09397693
64	0xbeafb8bf	-0.34320638
65	0xbf8d6679	-1.1046897
66	0x3e889479	0.26675776
67	0xbf7a72cc	-0.97831416
68	0x3cb8752e	0.022516813
69	0x3ea19238	0.3155687
70	0xbf370698	-0.71494436
71	0x3f63471c	0.8878038
72	0xbe7f1baa	-0.24912897
73	0xbf7dc528	-0.9912896
74	0xbe81fd87	-0.2538874
75	0xbf5b358c	-0.8562858
76	0xbf441ffb	-0.766113
77	0x3f417701	0.7557221
78	0xbf3c86e1	-0.7364331
79	0x3f6fd506	0.9368442
80	0xbe4fe122	-0.20300725
81	0xbf8ab07e	-1.0835111
82	0xbe8e02dc	-0.27736557
83	0xbf957a46	-1.167794
84	0xbf0f09ba	-0.55874217
85	0x3f89a2b6	1.075278
86	0xbdb101f9	-0.086429544
87	0x3f628217	0.8847975
88	0xbf0db8a8	-0.5535989
89	0xbfc998e0	-1.5749779
90	0x3e22ebec	0.1591031
91	0xbf728183	-0.9472887
92	0xbe0da601	-0.13832857
93	0x3f84185a	1.0319932
94	0xbe7642fc	-0.2404899
95	0x3f66db77	0.90178627
96	0xbe600208	-0.21875775
97	0xbf8c150a	-1.0943921
98	0xbeb076c9	-0.34465626
99	0xbf83a66a	-1.028516
100	0xbeeba9cb	-0.4602798
101	0x3f4b8f50	0.7951555
102	0xbee2b09e	-0.44275373
103	0x3e6bff25	0.23046549
104	0xbf36363f	-0.7117652
105	0xbfb41722	-1.406956
106	0xbd793f6e	-0.060851507
107	0xbf704063	-0.93848246
108	0xbedbf9bb	-0.42963967
109	0x3f8e4b83	1.1116794
110	0xbf033118	-0.51246786
111	0x3f78e3d6	0.9722265
112	0xbf1ee0dc	-0.6206186
113	0xbf052942	-0.5201608
114	0xbd196812	-0.037452765
115	0xbf80e2ac	-1.0069175
116	0xbf9941ce	-1.1973207
117	0x3f5e5a35	0.86856395
118	0xbe3f9016	-0.18707308
119	0x3f0791a3	0.529566
120	0xbe80b331	-0.25136712
121	0xbff173b2	-1.8863432
122	0xbecde4a7	-0.4021351
123	0xbfd03d0a	-1.6268628
124	0xbf335af4	-0.7006066
125	0x3f351fd9	0.7075172
126	0xbf4589a6	-0.7716316
127	0x3f3a197c	0.72695136
128	0xbe599e09	-0.21251692
129	0x3eac7701	0.33684543
130	0x3d69c668	0.05707398
131	0x3f09f4db	0.53889245
132	0xbd631f19	-0.05544958
133	0xbef70ac2	-0.48250395
134	0x3cc5359f	0.02407342
135	0xbf1dcdc4	-0.616421
136	0x3ebe82a2	0.3720904
137	0xbe1cdb3b	-0.15318005
138	0xbe253eac	-0.16137189
139	0x3e77e608	0.24208844
140	0x3f459c59	0.7719169
141	0xbe57c88a	-0.21072593
142	0x3f00786b	0.50183743
143	0xbd433fde	-0.04766833
144	0x3eb0e8d5	0.34552637
145	0xbe709f28	-0.23498213
146	0x3d5f3774	0.054496244
147	0x3c234236	0.009964516
148	0x3f259bd8	0.64690924
149	0x3d8e989d	0.069627024
150	0x3f0217a5	0.5081733
151	0xbede3938	-0.4340303
152	0x3f0134ca	0.50471175
153	0xbe18d40d	-0.14924641
154	0xbec8510b	-0.3912433
155	0x3ddea865	0.108719625
156	0x3f4d5418	0.8020644
157	0xbef6bc69	-0.4819062
158	0x3e5e7b68	0.21726763
159	0xbe77f5ab	-0.24214809
160	0xbed51358	-0.4161632
161	0xbddd37e7	-0.10801678
162	0x3f093e8a	0.5361105
163	0xbe3a355a	-0.18184415
164	0xbf21959e	-0.6311892
165	0x3edce766	0.43145293
166	0xbef10872	-0.47076756
167	0x3d814ad7	0.06313103
168	0x3f675838	0.90368986
169	0x3ee2941b	0.4425362
170	0x3e400978	0.18753612
171	0xbec0d533	-0.37662658
172	0x3ee74615	0.45170656
173	0x3e80ef1f	0.25182435
174	0x3eb2e167	0.34937593
175	0xbec3db29	-0.38253143
176	0xbf2b33f1	-0.6687613
177	0x3da3aaff	0.07991599
178	0xbe92a648	-0.28642488
179	0x3de0364f	0.109478585
180	0xbf10abb8	-0.5651202
181	0xbe4024aa	-0.18763986
182	0xbe29baa2	-0.16575101
183	0x3e45387f	0.19259833
184	0xbe398895	-0.18118508
185	0xbcedd590	-0.029032499
186	0x3e933bb5	0.2875649
187	0x3f5a4138	0.85255766
188	0x3eaaac12	0.33334404
189	0xbb8c334c	-0.004278576
190	0x3e8b35c3	0.27189454
191	0xbf43d89d	-0.765024

rnn.weight_hh_l2 f4 [24, 8]
0	0x3d191270	0.0373711
1	0xbdced955	-0.101000465
2	0xbd431b79	-0.04763362
3	0x3eed3110	0.46326494
4	0xbe73029d	-0.23731466
5	0xbc582b1a	-0.01319387
6	0xbcf520be	-0.02992284
7	0x3e926f3f	0.286005
8	0xbe285724	-0.16439492
9	0xbf3186f2	-0.69346535
10	0xbdea8c77	-0.11452573
11	0x3cb3d148	0.021950379
12	0x3ebd6656	0.3699214
13	0x3df90b43	0.12160351
14	0xbeb348bd	-0.35016432
15	0xbe89a8b5	-0.26886526
16	0x3e5de47c	0.21669191
17	0x3dd1deef	0.10247599
18	0x3e0ebb5b	0.13938658
19	0x3e153e97	0.14574657
20	0xbdbd02c7	-0.09229045
21	0x3ea49cf7	0.32151005
22	0xbe4ff610	-0.20308709
23	0x3e89b0df	0.26892754
24	0xbe6defe7	-0.23236047
25	0xbd731734	-0.0593483
26	0x3ee0f075	0.43933454
27	0x3e7667e2	0.24063066
28	0x3d8e4cda	0.06948252
29	0xbe6a3a5a	-0.22873822
30	0xbdda4814	-0.10658279
31	0x3defe6ca	0.117139414
32	0x3dc08df1	0.09402073
33	0x3e1d4457	0.15358101
34	0x3dec6b2d	0.1154388
35	0xbe1139e5	-0.14182241
36	0x3e0bbc48	0.13646042
37	0xbd63fc40	-0.055660486
38	0x3c0024e6	0.007821297
39	0x3e77634d	0.24158974
40	0x3d1f355d	0.03886925
41	0x3c664f8e	0.014057053
42	0x3e8f9408	0.28042626
43	0xbe3a6dab	-0.18205898
44	0xbe3723c8	-0.17884743
45	0x3e882cc6	0.2659666
46	0xbea6c815	-0.32574525
47	0x3ef1a8f3	0.4719921
48	0x3e80c0d1	0.25147107
49	0xbe03ef81	-0.12884332
50	0xbdc12470	-0.09430778
51	0xbe60c14e	-0.2194874
52	0xbe9f26a7	-0.31084177
53	0xbd03a9d2	-0.032144375
54	0xbe35ffb9	-0.17773332
55	0xbd2a7d19	-0.04162321
56	0x3c70ac24	0.014689479
57	0x3ddc5716	0.10758798
58	0x3da04b05	0.07826809
59	0x3d05dd01	0.03268147
60	0x3ed11a7d	0.4084052
61	0x3db81fff	0.08990478
62	0x3e979af0	0.29610395
63	0x3e711109	0.23541655
64	0xbd9f8ad2	-0.0779015
65	0x3de50aee	0.11183725
66	0xbe1f3535	-0.1554764
67	0xbe6c859a	-0.2309784
68	0x3e817467	0.2528412
69	0xbdf113a6	-0.11771326
70	0x3d2f9ddf	0.042875167
71	0xbeffab8b	-0.49935564
72	0xbeaa5fb8	-0.33276153
73	0xbf0435f0	-0.516448
74	0x3cee7cac	0.029112183
75	0xbeffb927	-0.49945948
76	0x3eeb3a1b	0.45942768
77	0xbe3d237d	-0.18470569
78	0xbdfc410c	-0.12317094
79	0xbe97e75c	-0.296687
80	0xbe5dbaa1	-0.21653225
81	0xbeaae0a2	-0.33374506
82	0xbe4c07bc	-0.19924825
83	0x3dfbf5d2	0.12302746
84	0x3f1d9843	0.6156046
85	0xbea066b2	-0.3132835
86	0xbdad207d	-0.08453462
87	0xbf607446	-0.8767742
88	0xbf017f46	-0.5058483
89	0xbe75e4e1	-0.24013092
90	0xbec5dc5a	-0.38644677
91	0xbe2d654c	-0.16933173
92	0x3f043bc8	0.5165372
93	0xbe9d3601	-0.30705264
94	0xbe16db8b	-0.14732186
95	0xbededfcd	-0.4353012
96	0xbf1d4bf6	-0.6144403
97	0xbcf470ea	-0.029838998
98	0xbee42d9a	-0.4456604
99	0xbdd5da58	-0.104420364
100	0x3e391a3f	0.18076418
101	0xbe24a681	-0.16079141
102	0x3e84a9e8	0.25910878
103	0xbe29adbb	-0.16570179
104	0xbf528f0c	-0.8224952
105	0xbee5ead6	-0.44905728
106	0xbf0a7189	-0.5407949
107	0x3e2db90f	0.16965126
108	0x3db15bf9	0.086601205
109	0xbcd8ec17	-0.026479764
110	0xbeaf9f1a	-0.34301072
111	0xbf188117	-0.59571975
112	0xbf0c96e9	-0.5491777
113	0xbed12afc	-0.40853107
114	0xbebeb53f	-0.37247655
115	0xbe590250	-0.21192288
116	0x3ba7c9b8	0.0051204823
117	0xbec81693	-0.39079723
118	0x3e995426	0.29947013
119	0xbf6ac03b	-0.9169957
120	0xbf0c508c	-0.54810405
121	0xbe2b2bd7	-0.16715942
122	0xbecae85c	-0.396304
123	0xbd9da526	-0.07697515
124	0x3e4b8516	0.19874987
125	0xbec1920c	-0.37806737
126	0xbebf521b	-0.3736733
127	0xbeaf5515	-0.342446
128	0x3d33c476	0.04388853
129	0x3ead8399	0.33889464
130	0x3e9e5de5	0.3093101
131	0xbd0175dd	-0.031606544
132	0xbedb2b77	-0.428066
133	0xbd43d311	-0.04780871
134	0x3eb74b0b	0.3579944
135	0x3d421e7e	0.04739236
136	0x3e9e2679	0.30888727
137	0x3c9e710e	0.019341018
138	0xbd841a95	-0.064503826
139	0x3edfffa1	0.43749717
140	0xbd9aecab	-0.07564672
141	0xbd58bb14	-0.052912787
142	0x3e9d0e38	0.3067491
143	0xbe0dd9ff	-0.1385269
144	0x3dedcb16	0.11611001
145	0xbd9155ea	-0.07096465
146	0xbe07d6d3	-0.13265543
147	0x3dbdbb94	0.09264293
148	0x3e8403f5	0.2578427
149	0xbe652186	-0.2237607
150	0xbee0d08c	-0.4390911
151	0xbe32941e	-0.17439315
152	0x3d9e0479	0.07715697
153	0xbdb6618f	-0.089053266
154	0x3ea6097f	0.3242912
155	0x3ec6b188	0.3880732
156	0x3e54b68e	0.20772764
157	0xbee0a485	-0.43875518
158	0x3cacf0de	0.021110948
159	0x3c58608d	0.013206613
160	0xbdb65d6e	-0.08904539
161	0xbea28fac	-0.31750238
162	0x3c3baeba	0.011455232
163	0xbde6971d	-0.11259291
164	0xbdeaef2e	-0.11471401
165	0x3e9e37a7	0.30901834
166	0x3c714904	0.014726881
167	0xbedc02b9	-0.42970827
168	0xbee117ca	-0.43963462
169	0x3dc52e4e	0.096279725
170	0x3e3f46cf	0.18679355
171	0x3dd43816	0.1036226
172	0x3db4e626	0.0883296
173	0xbe6ecb82	-0.2331982
174	0xbcc0d17f	-0.023537396
175	0xbd1a7b51	-0.03771526
176	0xbdab60f5	-0.083681025
177	0xbdb697e2	-0.08915688
178	0xbe2ec61d	-0.17067762
179	0x3ecad652	0.39616638
180	0x3e806cc7	0.2508299
181	0x3f1f22c7	0.6216244
182	0x3e64e24d	0.22351952
183	0x3b9fac92	0.004872867
184	0x3e95f02e	0.29284805
185	0xbe8f54e8	-0.27994466
186	0x3f0247cf	0.5089082
187	0x3e42c559	0.19020595
188	0xbeade25f	-0.3396177
189	0xbebf6122	-0.37378794
190	0x3e8a773b	0.2704409
191	0x3f1f8efc	0.6232755

rnn.bias_ih_l2 f4 [24]
0	0x3dad2693	0.08454623
1	0xbebcf114	-0.36902678
2	0x3c0abf28	0.008468427
3	0xbd8a49b0	-0.06752336
4	0xbd93f070	-0.07223594
5	0x3aa1326c	0.0012298352
6	0xbd05c68b	-0.03266005
7	0x3eba4ec5	0.3638822
8	0xbf4b4774	-0.79405904
9	0xbef864e1	-0.48514464
10	0xbf4095aa	-0.7522837
11	0xbf4d6571	-0.8023291
12	0xbefeefa0	-0.49792194
13	0xbf13c155	-0.57716876
14	0xbe352b82	-0.17692378
15	0xbf84247f	-1.0323638
16	0x3e55ff1c	0.20898098
17	0xbdbbb0d4	-0.09164587
18	0xbde3f3b6	-0.111304685
19	0x3df1e630	0.11811483
20	0xbb8d2fb8	-0.004308667
21	0xbbb28107	-0.00544751
22	0xbe574a59	-0.21024455
23	0x3ea5e1dd	0.32398883

rnn.bias_hh_l2 f4 [24]
0	0x3dad2693	0.08454623
1	0xbebcf114	-0.36902678
2	0x3c0abf28	0.008468427
3	0xbd8a49b0	-0.06752336
4	0xbd93f070	-0.07223594
5	0x3aa1326c	0.0012298352
6	0xbd05c68b	-0.03266005
7	0x3eba4ec5	0.3638822
8	0xbf4b4774	-0.79405904
9	0xbef864e1	-0.48514464
10	0xbf4095aa	-0.7522837
11	0xbf4d6571	-0.8023291
12	0xbefeefa0	-0.49792194
13	0xbf13c155	-0.57716876
14	0xbe352b82	-0.17692378
15	0xbf84247f	-1.0323638
16	0x3e6bcc69	0.23027195
17	0x3cd0674b	0.025439879
18	0xbde26ab9	-0.11055512
19	0x3e41f84a	0.18942371
20	0xbcbe6e34	-0.023245908
21	0xbc8ae835	-0.016956428
22	0xbe1a9b0b	-0.15098207
23	0x3ef3e958	0.47638965

rnn.weight_ih_l3 f4 [24, 8]
0	0x3d7d8752	0.06189663
1	0xbe196d64	-0.14983135
2	0xbb9feb2b	-0.004880329
3	0xbf37bf8c	-0.7177665
4	0x3bb86c7a	0.005628166
5	0xbedc46db	-0.43022808
6	0xbe881b75	-0.26583448
7	0xbe17de46	-0.14830884
8	0xbe8d6177	-0.27613422
9	0x3ef3c6b9	0.4761255
10	0x3f788766	0.970816
11	0x3ecd3272	0.4007755
12	0x3d1fb7e3	0.038993727
13	0x3f38b8d4	0.72157025
14	0xbdfe2091	-0.12408555
15	0x3e9b67c7	0.30352613
16	0x3f4c30d8	0.7976203
17	0x3ed71b91	0.4201322
18	0x3f12d0a2	0.573496
19	0x3e943c46	0.28952235
20	0x3e253af2	0.16135767
21	0x3ece737e	0.4032249
22	0x3e5fcc26	0.2185522
23	0x3f216ae5	0.63053733
24	0x3edf822b	0.43653998
25	0xbd64653b	-0.055760603
26	0x3db46158	0.08807629
27	0x3e823035	0.25427404
28	0xbe7f76d9	-0.2494768
29	0xbde5a145	-0.112124
30	0xbf2e64ae	-0.68122375
31	0x3e90d35b	0.2828625
32	0xbe99ed99	-0.30064085
33	0x3e29b4f7	0.16572939
34	0x3f58656f	0.84529775
35	0x3e1b4fa9	0.15167107
36	0xbf283e05	-0.65719634
37	0x3eb3c9ab	0.35114798
38	0x3e0c232e	0.13685295
39	0x3eda0e2c	0.42588937
40	0x3f2f7d36	0.6855043
41	0x3c6a2d00	0.014292955
42	0x3f3d0c62	0.7384702
43	0x3f0805b3	0.53133696
44	0xbead8d67	-0.33896944
45	0x3ef6e471	0.48221162
46	0xbecf0611	-0.40434316
47	0x3f1994ec	0.5999286
48	0x3f1993f6	0.59991395
49	0x3e8e9851	0.27850583
50	0xbbe2216e	-0.006900958
51	0xba455e1e	-0.0007528978
52	0xbea1cb16	-0.31600255
53	0x3dbb5cdd	0.09148572
54	0xbe9394fc	-0.28824604
55	0x3f573830	0.8407011
56	0xbe945266	-0.28969115
57	0x3f2112d5	0.6291936
58	0x3f803c54	1.0018411
59	0x3e5b9d16	0.21446642
60	0xbf12bdbf	-0.5732078
61	0x3f81475c	1.0099902
62	0x3e6531eb	0.22382323
63	0xbedd7930	-0.4325652
64	0xbfaa1b6b	-1.3289617
65	0xbf26347c	-0.64923835
66	0xbecc3490	-0.39883852
67	0xbf2ca91d	-0.67445546
68	0x3f506108	0.8139806
69	0xbf225e00	-0.6342468
70	0x3f29d411	0.6633921
71	0xbfa964b8	-1.3233862
72	0xbfa10243	-1.2578815
73	0xbf5861a3	-0.8452398
74	0xbe7aaf7c	-0.24481004
75	0xbf017121	-0.50563246
76	0x3f2e8d96	0.68184793
77	0xbec68395	-0.38772264
78	0x3e1e1609	0.15438093
79	0xbfb589d2	-1.4182684
80	0xbfac07db	-1.3439897
81	0xbf9e1b99	-1.2352172
82	0xbf492fc3	-0.78588504
83	0xbf88a562	-1.0675471
84	0x3f8b993d	1.090614
85	0xbf4e7144	-0.8064158
86	0xbe53633a	-0.2064332
87	0xc003cf66	-2.0595336
88	0x3ec0ff5f	0.37694833
89	0xbf30fbd7	-0.6913428
90	0xbf9bb83c	-1.2165599
91	0xbfaefe50	-1.367136
92	0x3f8c979b	1.0983766
93	0xbf9e8899	-1.2385436
94	0x401ca2bf	2.4474332
95	0xbd80570f	-0.06266605
96	0xbf5cdbd7	-0.8627295
97	0xbea45c65	-0.3210174
98	0xbf239cd3	-0.6391117
99	0xbdf72925	-0.120683946
100	0x3f62c808	0.88586473
101	0xbf1f6f21	-0.62278944
102	0x3ecb2d70	0.39683104
103	0xbf96d31e	-1.1783178
104	0xbfb71e00	-1.430603
105	0xbf2c1497	-0.6721892
106	0xbfb5bd66	-1.4198425
107	0xbf3083e1	-0.6895123
108	0x3ef9182a	0.48651248
109	0xbfb2fd5b	-1.3983568
110	0xbe8f21fe	-0.2795562
111	0xc00d1c81	-2.2048647
112	0xbf8ef77d	-1.1169277
113	0xbf57394f	-0.8407182
114	0xbfb950b6	-1.4477756
115	0xbf6846b2	-0.9073287
116	0x3ebebcfd	0.37253562
117	0xbf4441d3	-0.7666294
118	0x3eb0ae31	0.34507897
119	0xbfe4b7d6	-1.7868602
120	0xbeab2ba4	-0.33431733
121	0x3d53444f	0.051578816
122	0xbf22ab54	-0.63542676
123	0xbf297064	-0.6618712
124	0x3ec8d2e4	0.39223397
125	0xbecf7ada	-0.40523416
126	0x3f7791d7	0.9670691
127	0xbf912f00	-1.1342468
128	0xbf592b21	-0.84831434
129	0xbe3a8aec	-0.18217057
130	0xbe01d3f8	-0.12678516
131	0x3d8fe506	0.07026105
132	0x3e942305	0.28932968
133	0xbee80af4	-0.45320857
134	0x3eca6333	0.39528808
135	0xbf49413f	-0.7861518
136	0xbf24989f	-0.6429538
137	0x3cc0ff96	0.023559373
138	0xbf7fac24	-0.9987204
139	0xbf13b71e	-0.5770129
140	0x3f07bbbc	0.53020835
141	0xbeb5c3f0	-0.3550105
142	0x3ea1edba	0.31626683
143	0xbf0878a7	-0.533091
144	0xbf389edd	-0.72117406
145	0xbf309531	-0.6897765
146	0xbe1fb049	-0.15594591
147	0xbf33077e	-0.6993331
148	0x3f2eeef5	0.6833337
149	0x3ba07ce2	0.0048976997
150	0xbeee669e	-0.46562666
151	0xbf7f1165	-0.99635917
152	0xbc826c53	-0.015920794
153	0x3ef79035	0.4835221
154	0x3e98fe5d	0.29881564
155	0x3f314338	0.6924319
156	0xbf2e1cdb	-0.6801278
157	0x3f3c5785	0.73571044
158	0xbe40baab	-0.18821208
159	0x3e98750e	0.29776806
160	0xbe033d88	-0.12816441
161	0xbf038f1c	-0.5139024
162	0xbfaec3c8	-1.3653498
163	0xbf167b8e	-0.5878228
164	0x3f2b608e	0.66944206
165	0xbf11faee	-0.57023513
166	0x3f0cb0ac	0.5495708
167	0x3dc2bf9f	0.09509205
168	0xbf28e6c0	-0.65977097
169	0xbe764070	-0.24048018
170	0xbdd0faff	-0.10204124
171	0xbeeedadb	-0.46651348
172	0x3eb22855	0.34796396
173	0xbdf0dc3b	-0.11760756
174	0xbeb249b4	-0.34821856
175	0xbfb6618e	-1.4248521
176	0xbeffd839	-0.49969652
177	0xbc6d30f4	-0.014477003
178	0x3bf0c141	0.0073472564
179	0xbe64e2b6	-0.22352108
180	0x3f060c7e	0.5236281
181	0xbe6d2cce	-0.23161623
182	0xbdb1ddf1	-0.0868491
183	0xbf4ceca3	-0.8004858
184	0xbe9cbf37	-0.30614635
185	0x3f142485	0.57868224
186	0x3faafc51	1.3358251
187	0x3ee01b0b	0.43770632
188	0xbf3bd8e2	-0.7337781
189	0x3f84e3a1	1.0381967
190	0xbd97d0f8	-0.074129045
191	0xbea5d608	-0.32389855

rnn.weight_hh_l3 f4 [24, 8]
0	0xbf0a6829	-0.54065186
1	0xbd58bbbf	-0.052913424
2	0x3d73429f	0.059389707
3	0x3ece2013	0.40258846
4	0x3dd8c2c8	0.105840266
5	0xbdd3e96c	-0.10347256
6	0xbec07356	-0.37587994
7	0xbeb4d5ec	-0.3531946
8	0xbe307bce	-0.17234728
9	0xbd859ddc	-0.0652425
10	0xba4fe05a	-0.00079298543
11	0x3ea11c9b	0.31467137
12	0x3decb8ab	0.1155866
13	0xbe966028	-0.29370236
14	0xbe6b074b	-0.22952001
15	0xbe3eda9d	-0.18638082
16	0xbf3883b9	-0.7207599
17	0xbebb84a6	-0.3662464
18	0xbe54460b	-0.20729844
19	0x3e85d8e2	0.2614203
20	0xbe8f3874	-0.27972758
21	0xbeefc1fa	-0.4682768
22	0x3d5e8c11	0.054332796
23	0xbdc20826	-0.094742104
24	0xbef2fc7a	-0.4745825
25	0xbf32b55b	-0.69807976
26	0xbf215c83	-0.63031787
27	0x3e8d64ce	0.2761597
28	0xbe526cb3	-0.20549278
29	0xbf0c7b9d	-0.5487612
30	0xbf13d48b	-0.5774619
31	0x3da60875	0.08107082
32	0x3e88a128	0.26685452
33	0x3e9b2ad7	0.30306122
34	0xbd73292b	-0.059365433
35	0xbe13bace	-0.14426729
36	0xbd9f8bfd	-0.077903725
37	0x3e405c81	0.18785287
38	0x3dcae03a	0.09906049
39	0x3ea70e27	0.32627985
40	0xbf523200	-0.82107544
41	0xbf53a3ba	-0.826717
42	0x3cc858a3	0.024456328
43	0x3f0e9345	0.55693465
44	0xbec35ca7	-0.38156626
45	0xbd902e27	-0.07040053
46	0xbe83493f	-0.2564182
47	0x3df49677	0.119427614
48	0xbeb46880	-0.35235977
49	0xbe5fd648	-0.21859086
50	0xbed5fbe8	-0.41793752
51	0x3e8ec36e	0.27883476
52	0x3d8d7304	0.06906703
53	0xbd8d0911	-0.06886495
54	0xbedd2366	-0.4319107
55	0x3e421253	0.18952303
56	0xbebeb50f	-0.37247512
57	0x3e5b36e7	0.21407662
58	0xbce521e6	-0.027970266
59	0x3dda7239	0.106663175
60	0x3ebb8f57	0.36632797
61	0xbd57bd25	-0.052670617
62	0x3eac6e55	0.33677927
63	0x3ef322a3	0.47487363
64	0x3e6c3ec6	0.23070821
65	0x3ee196bd	0.44060317
66	0x3e822aaf	0.2542319
67	0xbed33bd8	-0.41256595
68	0x3d9745fb	0.073863946
69	0x3e568adf	0.20951413
70	0x3e279790	0.1636641
71	0x3d0514d9	0.032490585
72	0x3f272140	0.6528511
73	0x3eea99f7	0.4582059
74	0x3e7e7868	0.24850619
75	0xbeb700ef	-0.357429
76	0x3de7f2c9	0.113256045
77	0x3ecd5cc4	0.40109837
78	0x3efac354	0.4897715
79	0x3de38a03	0.11110308
80	0xbe88b0a2	-0.2669726
81	0x3e4d3fe8	0.2004391
82	0x3e40906e	0.18805096
83	0x3e5d39ba	0.21604052
84	0x3ecf1a99	0.4044998
85	0xbe09c0ac	-0.13452405
86	0xbe81930e	-0.25307506
87	0xbecc7a67	-0.39937136
88	0x3f13c610	0.57724094
89	0x3c7f7316	0.0155914035
90	0x3e2293b8	0.15876663
91	0x3ee6b3d3	0.4505907
92	0xbdff3aa0	-0.12462354
93	0x3d275ede	0.040861957
94	0x3ec5415c	0.38526428
95	0x3f0f048b	0.5586631
96	0x3f90bf82	1.1308444
97	0x3f9316c2	1.149132
98	0x3ed2f62b	0.41203436
99	0xbf726722	-0.9468862
100	0x3f269ffa	0.65087855
101	0x3f17a9c8	0.5924344
102	0x3f013a96	0.5048002
103	0x3db9514e	0.09048711
104	0x3d30b8a8	0.043144852
105	0xbd8d9849	-0.06913812
106	0x3e59432a	0.21217027
107	0xbddd93c5	-0.108192004
108	0xbd7ef4af	-0.062245067
109	0xbc845419	-0.016153382
110	0x3eba8dc6	0.3643629
111	0xbea36974	-0.31916392
112	0xbd91dea0	-0.071225405
113	0x3e043711	0.12911631
114	0x3d37b9f1	0.044855062
115	0x3ea50027	0.3222668
116	0x3f0eea70	0.55826473
117	0x3e9a6bcb	0.30160365
118	0xbd1a58ed	-0.037682462
119	0xbf1c65d1	-0.6109286
120	0x3f1516a7	0.5823769
121	0x3f7a0af6	0.97672975
122	0x3ea20ea3	0.31651792
123	0xbf106ddb	-0.56417626
124	0x3ee7a231	0.4524093
125	0x3e7f81f5	0.24951918
126	0x3f574108	0.84083605
127	0xbf01a142	-0.50636685
128	0x3ef5ec2c	0.48031747
129	0x3eb4426a	0.3520692
130	0x3edebefc	0.43505085
131	0xbf1e1e0d	-0.61764604
132	0x3d28c3cf	0.041202363
133	0x3d9d517b	0.07681557
134	0x3e160882	0.14651683
135	0x3e20c0de	0.15698573
136	0x3eba9870	0.36444426
137	0x3eb144ad	0.34622708
138	0xbea52245	-0.32252708
139	0xbdd4a059	-0.103821464
140	0xbcd1551e	-0.025553282
141	0x3f1204ba	0.5703846
142	0x3e9aa34a	0.30202705
143	0xbdff93d5	-0.124793686
144	0x3f297324	0.66191316
145	0x3f263968	0.64931345
146	0x3ecfb5e0	0.40568447
147	0xbf54dfc7	-0.8315396
148	0x3f105612	0.5638133
149	0x3e15d2cc	0.14631194
150	0x3f1cb650	0.61215687
151	0x3ba13496	0.004919599
152	0xbf2cffce	-0.67577827
153	0xbea18848	-0.31549287
154	0xbec4b0f8	-0.38416266
155	0x3f1f703d	0.6228064
156	0xbef70dad	-0.4825262
157	0xbed2c0f5	-0.4116284
158	0xbf1c1b3f	-0.60979074
159	0xbe14c39f	-0.14527749
160	0xbe5b2fce	-0.21404955
161	0xbe8707a8	-0.2637303
162	0x3d89da31	0.0673107
163	0x3d1e611b	0.038666826
164	0x3dc84884	0.09779456
165	0x3ef03ab8	0.469198
166	0x3eb45989	0.3522456
167	0x3d5df14e	0.054185204
168	0x3f09f881	0.5389481
169	0x3ee19b5d	0.44063845
170	0x3db972a0	0.09055066
171	0xbf497a37	-0.7870211
172	0x3edbad59	0.4290569
173	0x3f1468d7	0.5797247
174	0x3ed0b8b6	0.40765923
175	0xbe1252cf	-0.14289401
176	0x3f709111	0.93971354
177	0x3d8740ac	0.06604132
178	0x3e70ccfc	0.23515695
179	0xbed97a9d	-0.4247636
180	0x3ea90b32	0.33016354
181	0x3ea32fae	0.31872314
182	0x3eb2de0d	0.34935036
183	0x3b250337	0.0025178918
184	0xbe152dec	-0.14568299
185	0xbeaa54e3	-0.33267888
186	0xbe8b3d17	-0.27195045
187	0xbdd93c57	-0.10607212
188	0xbd76ea17	-0.06028184
189	0xbe757fc8	-0.23974526
190	0x3e274c30	0.16337657
191	0xbece141c	-0.40249717

rnn.bias_ih_l3 f4 [24]
0	0x3e4ab579	0.19795789
1	0x3cc2fcd7	0.023802204
2	0x3f09a27f	0.53763574
3	0x3e6d45e3	0.23171191
4	0x3a12bde8	0.0005597756
5	0x3f286b9d	0.65789205
6	0x3e337a46	0.17527112
7	0xbdfa51dc	-0.12222645
8	0xbfa86161	-1.3154718
9	0xbf560577	-0.8360209
10	0xbf968561	-1.1759454
11	0x3eac1c9c	0.33615577
12	0xbf598e06	-0.84982336
13	0xbf877716	-1.0583217
14	0xbefd32d2	-0.49452835
15	0xbf076a17	-0.52896255
16	0xbeb556cd	-0.35417786
17	0xbe610978	-0.21976268
18	0xbf064856	-0.52454126
19	0x3e2e5066	0.17022857
20	0x3d997219	0.074924655
21	0xbea25dc5	-0.31712165
22	0xbe131ef9	-0.14367284
23	0xbe3784b3	-0.17921714

rnn.bias_hh_l3 f4 [24]
0	0x3e4ab579	0.19795789
1	0x3cc2fcd7	0.023802204
2	0x3f09a27f	0.53763574
3	0x3e6d45e3	0.23171191
4	0x3a12bde8	0.0005597756
5	0x3f286b9d	0.65789205
6	0x3e337a46	0.17527112
7	0xbdfa51dc	-0.12222645
8	0xbfa86161	-1.3154718
9	0xbf560577	-0.8360209
10	0xbf968561	-1.1759454
11	0x3eac1c9c	0.33615577
12	0xbf598e06	-0.84982336
13	0xbf877716	-1.0583217
14	0xbefd32d2	-0.49452835
15	0xbf076a17	-0.52896255
16	0xbe9f8122	-0.31153208
17	0xbe83a994	-0.25715315
18	0xbf3fb2dd	-0.748823
19	0x3e900546	0.28129023
20	0xbd04b1ca	-0.032396115
21	0xbf1a8d5f	-0.60371965
22	0xbe3fffaa	-0.18749872
23	0x3cc78a20	0.024357855

fc.weight f4 [8, 8]
0	0x402096f1	2.5092127
1	0x3fd49ac7	1.6609734
2	0x3f58b228	0.84646845
3	0xc009dbb1	-2.154034
4	0x3f6ef7d3	0.933469
5	0x3fc7b506	1.5602119
6	0x3fa2dd30	1.2723751
7	0xbf12cf01	-0.5734711
8	0x3ea5f344	0.3241216
9	0x3f274d01	0.65351874
10	0xbdf1a1b9	-0.11798424
11	0xbf238684	-0.6387713
12	0x3f947ecb	1.1601194
13	0xbda5f001	-0.08102418
14	0x3e85f1d0	0.2616105
15	0xbfa83bb7	-1.3143224
16	0x40116b9d	2.2721932
17	0x3fafb29d	1.3726383
18	0x3fd92b3e	1.6966321
19	0xc01a3ddc	-2.4100256
20	0x3f9640f9	1.1738578
21	0x3fad3a16	1.3533351
22	0x3f777e06	0.9667667
23	0xbf578708	-0.84190416
24	0x3fb983da	1.4493363
25	0x3ffa8f9f	1.957508
26	0x3fd29936	1.6453006
27	0xbf9d72a9	-1.2300617
28	0x3f40198a	0.7503897
29	0x3f94463c	1.1583934
30	0x3fbc7e4c	1.4726043
31	0xbf491922	-0.78553975
32	0x400254b2	2.0364194
33	0x3fc8658d	1.5655991
34	0x3f59e4cc	0.8511474
35	0xbfaea036	-1.3642642
36	0x3f963480	1.1734772
37	0x3fdeed51	1.7416173
38	0x3fd63d9a	1.6737549
39	0xbed103b9	-0.40823153
40	0x40027310	2.0382729
41	0x3fa6edf6	1.304137
42	0x3f1b3780	0.6063156
43	0xbffbac86	-1.9662025
44	0x3ea8fdae	0.33006042
45	0x3faf63b4	1.3702302
46	0x3fce0720	1.6095924
47	0xbf37c67b	-0.7178723
48	0x3ffe86bf	1.9884871
49	0x3fe2a11f	1.770542
50	0x3f64adee	0.89327896
51	0xc00f8806	-2.2426772
52	0x3f51b0c5	0.81910354
53	0x3f7d323c	0.98904777
54	0x3fc6cef2	1.5531905
55	0xbf221d09	-0.63325554
56	0x3ffd96f6	1.9811695
57	0x3f6aa53f	0.91658396
58	0x3f805452	1.0025733
59	0xbfb094f9	-1.3795463
60	0x3eccda5b	0.40010342
61	0x3f7a2f82	0.9772874
62	0x3ff51839	1.9148017
63	0xbf7b8bbb	-0.98260087

fc.bias f4 [8]
0	0xbf36e826	-0.7144798
1	0xbe9c59ad	-0.30537167
2	0xbf68bf6a	-0.90917075
3	0xbf8c33e9	-1.0953342
4	0xbf683f2e	-0.90721405
5	0xbf3ff996	-0.7499021
6	0xbf4af27d	-0.7927626
7	0xbf973bbc	-1.1815104
