output/TimeGAN/stock/train/weights/netS.pth (torch, 418943 bytes, 18 tensors)

rnn.weight_ih_l0 f4 [192, 64]
0.14610341 -0.0019367794 0.07442584 0.091961876 0.14522916 0.07906487 0.0038658916 0.12365344
0.039566502 -0.11733025 -0.056639023 0.11229744 -0.077492826 -0.058994636 0.0068583093 0.12592699
0.18567334 0.08202973 0.15830038 0.106438056 -0.0669729 0.14646171 -0.011885908 0.1755997
0.014513205 0.035804246 0.18959582 0.07288028 -0.013885349 -0.06576707 0.1630681 -0.040588062
0.15680899 -0.057510875 -0.09589531 -0.008076019 0.1100352 -0.0904187 0.0012936601 0.010593208
-0.06692544 0.13208766 -0.05593064 -0.106591806 0.1040944 0.10650541 0.16306704 -0.054350488
-0.050931174 -0.06256347 0.12772964 0.021399321 0.1290513 0.13467397 0.05352022 -0.05156372
0.05336355 0.13737647 -0.01586232 0.068307765 0.032193 -0.007307721 -0.032110065 -0.07935454
-0.07690359 -0.085282266 0.09571945 -0.18661019 -0.09229767 -0.014385524 -0.09857622 -0.022727072
-0.0032789402 -0.12523642 -0.0033615704 0.0007654815 -0.002236197 0.063096054 0.023580858 -0.12135519
-0.02717245 -0.13106935 -0.034431837 -0.049405117 -0.12177884 0.004226629 -0.03742261 -0.0013076449
0.04116039 -0.06393748 0.07231845 -0.076686 0.115757346 0.035310674 0.113604076 0.08717799
-0.045036048 -0.0458412 -0.06520672 -0.12754038 0.08154122 0.05799249 -0.15765592 0.12243579
0.079916455 -0.08814729 0.09957647 -0.15819567 -0.0012995838 -0.045491852 0.06372767 -0.15642294
0.06435153 -0.03458905 -0.12094713 0.06908445 0.0024501868 -0.12577666 -0.13565369 0.06813451
0.1103975 -0.1537173 0.1020047 0.0016958424 0.0630646 -0.15230164 -0.16523476 -0.17517501
0.14332725 0.11755173 0.01112098 -0.05304687 -0.008565895 0.0191941 -0.07074806 0.066548645
-0.036658123 0.077508695 -0.10191323 0.07303484 0.15207797 0.11749261 -0.0048498423 0.13005498
-0.083038904 0.009881356 -0.026711406 0.0064229155 0.14224514 -0.022992099 -0.07724837 -0.0039534713
0.17950597 -0.11102186 0.07253093 0.07951819 -0.06721168 -0.054001838 0.10753816 -0.08594535
0.1233943 0.046736345 0.10349781 0.17934468 0.12333911 0.12070676 0.12977348 -0.023630694
0.10696431 0.12814002 0.032912694 0.010446968 -0.02544545 -0.10640305 -0.019490141 0.0649274
0.14486937 -0.07878345 -0.084738426 0.01934162 -0.06937629 0.015988043 -0.0789954 0.05246186
-0.11120015 -0.10790819 0.077090114 -0.039674737 -0.04712017 -0.0791277 0.10459585 0.058143906
-0.049189724 0.07569429 -0.059171148 -0.1275497 0.046250623 0.11270178 -0.11397474 -0.10363823
0.044151776 -0.1095791 0.1498736 0.12390396 -0.10820271 -0.051509928 0.06552629 -0.06802319
-0.13287051 -0.10036448 0.033871755 0.08540326 -0.061633486 -0.14640127 0.020202 -0.028830448
0.087138236 0.053348187 -0.017253378 0.13034773 -0.06407017 0.0059882235 0.03232653 0.111243606
0.14237274 0.092541374 -0.027176155 -0.0044501564 -0.1312223 0.11193809 -0.012228583 -0.050678585
0.054150395 -0.11346567 -0.10219382 -0.060914766 -0.09429011 0.05683662 -0.024012467 -0.0037465019
0.048637804 -0.104993366 -0.051740844 0.07373283 0.0020116933 -0.14976624 0.05104717 -0.06023147
0.14082788 -0.0786238 -0.08235449 0.1264639 0.097499736 0.009504049 0.15162754 -0.07015494
00000000: 229c 153e 88db fdba 936c 983d 8256 bc3d
00000010: f4b6 143e c3ec a13d e65a 7d3b 043e fd3d
00000020: 7c10 223d d84a f0bd 52fe 67bd 33fc e53d
00000030: 8fb4 9ebd 5ca4 71bd abbb e03b 01f3 003e
00000040: 2721 3e3e 34ff a73d 7f19 223e 32fc d93d
00000050: 1629 89bd 0ffa 153e 1dbd 42bc 68d0 333e
00000060: cbc8 6d3c 79a7 123d 6825 423e 4242 953d
00000070: 607f 63bc e3b0 86bd 53fb 263e ab3f 26bd
00000080: 8992 203e 8690 6bbd c364 c4bd 4751 04bc
00000090: 235a e13d 702d b9bd 0890 a93a 228f 2d3c
000000a0: 3510 89bd fd41 073e 8717 65bd ce4c dabd
000000b0: 722f d53d 821f da3d 0cfb 263e 9e9e 5ebd
000000c0: 359d 50bd 4721 80bd 8fcb 023e a14d af3c
000000d0: 0626 043e f9e7 093e 0538 5b3d 7b34 53bd
000000e0: bd93 5a3d 6bac 0c3e b2f1 81bc f1e4 8b3d
000000f0: cfdc 033d 9b75 efbb d885 03bd a284 a2bd
00000100: a17f 9dbd 78a8 aebd 8f08 c43d be16 3fbe
00000110: 9006 bdbd 43b1 6bbc 54e2 c9bd 202e babc
00000120: 7de3 56bb fa3d 00be cb4d 5cbb 98aa 483a
00000130: 298d 12bb 8138 813d a52c c13c 1289 f8bd
00000140: c298 debc 0b37 06be 6608 0dbd 055d 4abd
00000150: 2f67 f9bd 897f 8a3b 7348 19bd 4865 abba
00000160: cc97 283d a7f1 82bd b21b 943d 8d0d 9dbd
00000170: 3012 ed3d eda1 103d 41a9 e83d 608a b23d
00000180: b877 38bd fbc3 3bbd 1a8b 85bd f299 02be
00000190: 15ff a63d 8889 6d3d 8e70 21be 9ebf fa3d
000001a0: 3dab a33d 9186 b4bd c0ee cb3d 0cfe 21be
000001b0: cc56 aaba aa55 3abd a783 823d 562d 20be
000001c0: bcca 833d 3fad 0dbd 21b3 f7bd 267c 8d3d
000001d0: 5093 203b 99cb 00be cde8 0abe 1b8a 8b3d
000001e0: 1618 e23d 1168 1dbe d7e7 d03d 0747 de3a
000001f0: 0328 813d f6f4 1bbe 4d33 29be 1461 33be
00000200: 61c4 123e f6be f03d c534 363c ad47 59bd
00000210: f857 0cbc f23c 9d3c 5ce4 90bd a84a 883d
00000220: d426 16bd e1bc 9e3d e2b7 d0bd 4a93 953d
00000230: 54ba 1b3e f79f f03d 6deb 9ebb 222d 053e
00000240: 4d10 aabd 69e5 213c e1d1 dabc 5277 d23b
00000250: b6a8 113e ed59 bcbc 6534 9ebd 1f8c 81bb
00000260: 6ad0 373e 6e5f e3bd 198b 943d 6fda a23d
00000270: 47a6 89bd 0831 5dbd f83c dc3d 1e04 b0bd
00000280: 27b6 fc3d 9c6e 3f3d a9f6 d33d 22a6 373e
00000290: 3799 fc3d 1b35 f73d 57e3 043e 2895 c1bc
000002a0: 1b10 db3d 2337 033e 76cf 063d c229 2b3c
000002b0: fa72 d0bc d8e9 d9bd caa9 9fbc a8f8 843d
000002c0: a358 143e 3859 a1bd 578b adbd 5172 9e3c
000002d0: 2815 8ebd 5bf9 823c 57c8 a1bd 3fe2 563d
000002e0: e7bc e3bd f8fe dcbd 6ce1 9d3d fa81 22bd
000002f0: 1401 41bd b40d a2bd 5936 d63d 4e28 6e3d
00000300: 2a7b 49bd 9c05 9b3d 725d 72bd 639c 02be
00000310: 4b71 3d3d 31d0 e63d 976b e9bd 4840 d4bd
00000320: 7ed8 343d 026b e0bd 7778 193e 5cc1 fd3d
00000330: 6299 ddbd 13fc 52bd a632 863d be4f 8bbd
00000340: 350f 08be e48b cdbd 1cbd 0a3d e8e7 ae3d
00000350: 6573 7cbd 37ea 15be aa7e a53c d52d ecbc
00000360: 8875 b23d a183 5a3d f556 8dbc e079 053e
00000370: 3937 83bd dc38 c43b d368 043d b0d3 e33d
00000380: 29ca 113e 5586 bd3d 87a0 debc 9ed2 91bb
00000390: 235f 06be cc3f e53d 655a 48bc 5994 4fbd
000003a0: cecc 5d3d b060 e8bd fe4a d1bd c381 79bd
000003b0: 2c1b c1bd 84cd 683d cbb5 c4bc df87 75bb
000003c0: 6f38 473d c306 d7bd 35ee 53bd 3d01 973d
000003d0: 9dd6 033b 525c 19be d616 513d 46b5 76bd
000003e0: 2f35 103e 8405 a1bd 79a9 a8bd c17f 013e
000003f0: f1ad c73d dfb6 1b3c 4044 1b3e 65ad 8fbd

rnn.weight_hh_l0 f4 [192, 64]
-0.007855844 0.041733302 -0.2469606 0.021899046 0.06481096 0.13037284 -0.10788105 -0.039117776
0.08813916 -0.1271302 -0.11106163 0.10944336 -0.13377425 -0.02161668 0.08188056 0.049470186
0.14072143 -0.030177083 0.02294355 0.1168366 -0.08093853 -0.043445285 0.02556567 -0.06460668
-0.047241107 -0.024914073 -0.10452258 -0.026826285 0.08869207 -0.17409657 -0.06066106 -0.13726886
0.0850952 0.0007310919 0.005778623 -0.039187104 0.17412257 -0.12074361 -0.05745631 -0.069903955
-0.04635097 0.06717203 0.13947839 0.0061304183 -0.20216817 0.12353585 0.21945274 0.17223573
-0.008573338 -0.041157253 0.15936753 -0.029990448 -0.020539153 -0.19744517 -0.060914505 0.030552233
0.15321651 0.024432486 0.104555465 0.111725055 -0.046972625 0.03668916 -0.04653663 0.12264304
0.13032629 -0.04083318 -0.04008862 -0.17139132 -0.029275559 -0.15511365 -0.04637775 0.021484166
0.015393965 -0.11420976 0.06380455 -0.010491167 0.096698605 0.004620501 -0.12778813 -0.05022193
-0.009223446 0.049363993 0.10901051 0.1248494 0.05119769 0.11415022 -0.07230226 0.053382557
0.10395229 -0.007046954 0.040775772 0.065386094 0.062152673 0.045879226 -0.018388804 0.07462058
-0.18868212 0.11455084 0.04866437 0.06412047 -0.038440358 0.13424407 0.08093079 -0.066553056
0.056431644 0.03185601 -0.030167788 -0.045080874 -0.10718993 -0.08832503 0.13786449 0.008903599
-0.10508728 0.044457003 -0.017139716 0.009690827 -0.051373154 0.019416688 -0.12487823 0.033640306
-0.07862956 -0.038059507 -0.19208688 0.122689 0.031910136 0.032652296 0.12423478 0.10959441
0.03167191 0.051325187 -0.07195525 0.06693218 0.069112144 0.0011463743 0.062063817 -0.080292925
0.10586183 -0.026780505 0.048628476 -0.029590106 -0.08492453 -0.005159483 -0.04643344 0.0043340004
-0.15606338 -0.20360252 -0.0065993145 -0.016195182 -0.052398413 -0.076866075 0.021463608 0.08184011
-0.097238384 -0.09109474 -0.061059326 0.026036207 -0.059564278 -0.02567699 -0.09128222 0.07058018
0.06940278 0.057708457 0.10966258 0.11645602 0.14917246 0.2068653 0.08938926 0.007185811
0.0429313 0.0019699666 -0.011783027 -0.05042873 0.058892965 0.16029856 -0.102990985 -0.0625396
-0.0033370692 -0.086671926 0.05405382 0.030470595 -0.054071065 -0.011529309 -0.017480494 0.040125746
0.15900344 0.18358146 -0.07834793 -0.0854944 -0.016263098 0.16290705 0.005456739 0.016537344
-0.13090442 0.109729886 -0.015777303 0.08820843 0.10596736 0.14763694 0.027890781 -0.10329587
-0.12190065 0.11740352 -0.1030888 0.109808356 -0.08910941 -0.036577385 -0.00096177217 0.12843752
0.07843548 -0.083407134 -0.15887874 -0.075158484 -0.06763495 0.04732314 0.012648157 0.10108149
-0.07863134 0.061529774 -0.020679554 0.108225755 -0.084975295 -0.052780345 0.11618996 -0.003462308
-0.058483146 0.08052124 0.020323137 -0.010929137 -0.014283205 0.015197587 0.022546684 0.060840953
-0.0058427793 -0.020794513 0.03808621 -0.008247441 -0.06677673 0.0876909 -0.039063986 0.011452802
0.0687239 0.041306023 -0.014676355 -0.09358487 -0.024173219 -0.10406495 -0.013116687 -0.0906577
0.08305257 -0.10062773 0.016846264 -0.027190661 -0.07809715 -0.0013149221 -0.07488552 -0.08319559
00000000: ccb5 00bc 8af0 2a3d 3de3 7cbe a165 b33c
00000010: 9cbb 843d 7580 053e bdf0 dcbd f639 20bd
00000020: 4e82 b43d 6b2e 02be 4874 e3bd d723 e03d
00000030: 1efc 08be 7715 b1bc ffb0 a73d 40a1 4a3d
00000040: 4719 103e ee35 f7bc 1df4 bb3c 0748 ef3d
00000050: 1ac3 a5bd aff3 31bd 196f d13c 8250 84bd
00000060: e47f 41bd 9918 ccbc ef0f d6bd ccc2 dbbc
00000070: 30a4 b53d 5f46 32be bb77 78bd 3590 0cbe
00000080: 6446 ae3d bfa6 3f3a 9a5a bd3b a882 20bd
00000090: 304d 323e 6d48 f7bd 4f57 6bbd ce29 8fbd
000000a0: 84da 3dbd 7d91 893d 6cd3 0e3e ade1 c83b
000000b0: 2c05 4fbe 5d00 fd3d 38b8 603e 905e 303e
000000c0: 3077 0cbc 8294 28bd 3e31 233e 87ae f5bc
000000d0: ba41 a8bc 112f 4abe 7d81 79bd ad48 fa3c
000000e0: cae4 1c3e a326 c83c 2d21 d63d 1bd0 e43d
000000f0: 5e66 40bd 5f47 163d 319d 3ebd 462c fb3d
00000100: 4174 053e b140 27bd f733 24bd 3581 2fbe
00000110: 4cd3 efbc 1dd6 1ebe 98f6 3dbd 90ff af3c
00000120: f836 7c3c cfe6 e9bd f6ab 823d 25e3 2bbc
00000130: eb09 c63d 9267 973b e4da 02be 83b5 4dbd
00000140: f01d 17bc e631 4a3d e740 df3d 0bb1 ff3d
00000150: abb4 513d 97c7 e93d 3513 94bd aba7 5a3d
00000160: f0e4 d43d 22ea e6bb 7f04 273d 25e9 853d
00000170: cd93 7e3d dbeb 3b3d 1ea4 96bc add2 983d
00000180: e335 41be a199 ea3d 4a54 473d 9851 833d
00000190: a373 1dbd 4777 093e 0bbf a53d f84c 88bd
000001a0: de24 673d 737b 023d 7022 f7bc b9a6 38bd
000001b0: 6586 dbbd c1e3 b4bd 592c 0d3e 67e0 113c
000001c0: 0038 d7bd 8c18 363d 9768 8cbc 46c6 1e3c
000001d0: a86c 52bd bf0f 9f3c 28c0 ffbd 6bca 093d
000001e0: 8908 a1bd 49e4 1bbd 6cb2 44be 5f44 fb3d
000001f0: 34b4 023d 6abe 053d ce6e fe3d 0973 e03d
00000200: 68ba 013d 5c3a 523d 465d 93bd bd13 893d
00000210: ab8a 8d3d f041 963a a136 7e3d 9e70 a4bd
00000220: 16ce d83d ca62 dbbc a72e 473d f366 f2bc
00000230: e9ec adbd e110 a9bb fe30 3ebd 3b04 8e3b
00000240: 14cf 1fbe 2e7d 50be 103f d8bb c2ab 84bc
00000250: b89f 56bd f66b 9dbd 73d4 af3c ca9b a73d
00000260: eb24 c7bd e18f babd 5819 7abd e249 d53c
00000270: acf9 73bd 8d58 d2bc 2cf2 babd 578c 903d
00000280: 0b23 8e3d b45f 6c3d c696 e03d 7e80 ee3d
00000290: aac0 183e 7fd4 533e b711 b73d f476 eb3b
000002a0: bbd8 2f3d 8e1a 013b 990d 41bc 5b8e 4ebd
000002b0: c039 713d 4e25 243e f0ec d2bd c314 80bd
000002c0: bbb2 5abb 0d81 b1bd 8a67 5d3d 789d f93c
000002d0: 9f79 5dbd 6de5 3cbc 4133 8fbc e55a 243d
000002e0: ccd1 223e c7fc 3b3e e174 a0bd b017 afbd
000002f0: 303a 85bc 1bd1 263e 72ce b23b 5379 873c
00000300: cf0b 06be 10ba e03d 673f 81bc 9fa6 b43d
00000310: 6a05 d93d 232e 173e 357b e43c c98c d3bd
00000320: 0ca7 f9bd 4271 f03d 3920 d3bd 34e3 e03d
00000330: ff7e b6bd 2bd2 15bd 701f 7cba 2085 033e
00000340: c8a2 a03d 5cd1 aabd 1cb1 22be b1ec 99bd
00000350: 3184 8abd e9d5 413d 373a 4f3c d003 cf3d
00000360: 7809 a1bd a506 7c3d 2b68 a9bc 77a5 dd3d
00000370: 8707 aebd 3430 58bd 00f5 ed3d e4e7 62bb
00000380: 068c 6fbd 52e8 a43d b57c a63c 1f10 33bc
00000390: 1b04 6abc 4dff 783c d3b3 b83c 5d34 793d
000003a0: c974 bfbb 4159 aabc 4900 1c3d 4620 07bc
000003b0: 3dc2 88bd 4997 b33d 8f01 20bd 89a4 3b3c
000003c0: 1ebf 8c3d 8130 293d 1875 70bc 6da9 bfbd
000003d0: ea06 c6bc 0120 d5bd 5fe7 56bc bfaa b9bd
000003e0: 7717 aa3d e915 cebd 2d01 8a3c f3be debc
000003f0: 66f1 9fbd 7759 acba 945d 99bd 7362 aabd

rnn.bias_ih_l0 f4 [192]
0.038137846 -0.038170435 0.046536196 -0.0019048959 -0.044448424 -0.016453218 -0.02521092 0.00515287
-0.027084876 0.018562486 -0.0058535505 -0.014998968 0.045643058 -0.04855805 -0.014884334 -0.012946731
-0.05378986 -0.017256351 -0.008927993 -0.022315271 0.013261855 -0.018927993 -0.0030313474 -0.028143035
-0.049649566 0.022417052 -0.039446842 -0.050948422 -0.056801338 0.056913644 -0.030792784 -0.02705796
0.02138937 -0.009174677 -0.02108653 0.0644372 0.010017009 0.03331182 0.05360565 -0.0029620784
0.06690999 0.026893912 -0.022227524 -0.01839691 0.007944158 0.049914293 0.026087137 -0.041748617
0.046230692 -0.012183992 -0.051287245 0.0017355127 0.0044639357 -0.004817235 -0.018323138 -0.011446658
0.034410786 -0.013760927 -0.019514399 0.013328074 0.06685102 -0.013880958 -0.056462716 0.046876725
-0.2550244 -0.19082272 -0.14803296 -0.18927075 -0.019252451 0.13971269 0.02659368 -0.1885743
-0.103854954 -0.19145828 0.103719644 0.029637424 -0.19942318 -0.012824957 -0.16989236 -0.23586202
-0.27979934 0.1337251 -0.17601363 -0.18394728 -0.22942027 0.056002848 0.033081654 -0.14233126
-0.12318224 -0.11893073 0.1156346 0.021279017 -0.22387667 -0.2417843 -0.0024402565 -0.009555086
0.0886832 -0.15838043 -0.053031653 -0.15776417 0.07768686 -0.11648094 0.07743913 -0.20981663
0.108290136 -0.18657753 0.032517355 -0.14266288 -0.1631852 -0.21715698 -0.18842989 -0.04794462
-0.09823719 -0.05836196 0.06658555 0.08572145 -0.20686758 -0.19186747 0.21879801 -0.27397773
0.08292642 -0.15737487 0.03388537 -0.22735666 -0.21513195 0.08458387 -0.12753999 -0.28005943
-0.054916184 0.06362594 -0.066007555 0.030255234 0.02718788 -0.016051698 0.0032743148 -0.06713948
-0.019800032 0.041113887 0.014927119 0.018164836 -0.045427885 0.0039589372 0.03290889 0.04410335
-0.05888979 0.031724356 -0.04324096 -0.03278085 -0.05248995 -0.04496571 -0.010848652 0.030126331
-0.05667133 0.047217168 0.03181725 -0.012759794 -0.0697278 -0.06719918 -0.04738409 0.015185893
-0.02557246 -0.045355193 0.04139412 -0.03860619 -0.03243783 0.034429837 0.032495398 0.033675365
0.04161138 -0.046294436 -0.0025820327 0.04715932 0.047998503 0.061397653 -0.059958305 0.03587656
0.0613026 0.020156456 -0.018000813 -0.0032367306 -0.057424933 0.03494084 0.032372568 0.029550996
-0.03667241 0.036612947 0.023719419 -0.042455103 -0.05203808 -0.044297054 -0.0012694804 0.044812858
00000000: 6e36 1c3d 9a58 1cbd bd9c 3e3d b3ad f9ba
00000010: 8d0f 36bd e6c8 86bc 2287 cebc 68d9 a83b
00000020: 1ae1 ddbc 5b10 983c 24cf bfbb 3bbe 75bc
00000030: 37f4 3a3d cee4 46bd 6cdd 73bc 871e 54bc
00000040: c252 5cbd 315d 8dbc b746 12bc 84ce b6bc
00000050: 4048 593c e10e 9bbc 92a9 46bb 398c e6bc
00000060: 585d 4bbd f7a3 b73c 0393 21bd 4baf 50bd
00000070: 85a8 68bd 481e 693d 2641 fcbc a8a8 ddbc
00000080: c338 af3c 6251 16bc a9bd acbc a7f7 833d
00000090: 621e 243c fa71 083d 9991 5b3d 6e1f 42bb
000000a0: 1b08 893d 9f50 dc3c 7f16 b6bc 1eb5 96bc
000000b0: 3728 023c ee72 4c3d b1b4 d53c 9900 2bbd
000000c0: 655c 3d3d 5e9f 47bc 9312 52bd 257a e33a
000000d0: 3546 923b e5d9 9dbb 681a 96bc c38a 3bbc
000000e0: 53f2 0c3d 8375 61bc a9dc 9fbc fe5d 5a3c
000000f0: 30e9 883d f56c 63bc 7345 67bd cf01 403d
00000100: 8f92 82be 0867 43be f495 17be 31d0 41be
00000110: 51b7 9dbc d810 0f3e fdda d93c 9f19 41be
00000120: e8b1 d4bd a40d 44be f76a d43d 2fca f23c
00000130: 9735 4cbe c51f 52bc 43f8 2dbe d085 71be
00000140: dc41 8fbe 3cef 083e eb3c 34be ad5c 3cbe
00000150: 26ed 6abe 3e63 653d a180 073d 49bf 11be
00000160: f846 fcbd f491 f3bd d5d1 ec3d 5551 ae3c
00000170: ed3f 65be 4e96 77be b6ec 1fbb ef8c 1cbc
00000180: 8a9f b53d 7b2e 22be b837 59bd ee8c 21be
00000190: 4a1a 9f3d 8f8d eebd 6898 9e3d 2cda 56be
000001a0: 38c7 dd3d 2e0e 3fbe eb30 053d 3816 12be
000001b0: 051a 27be 665e 5ebe c4f3 40be 9461 44bd
000001c0: 9430 c9bd f30c 6fbd 015e 883d ba8e af3d
000001d0: 18d5 53be e878 44be 960c 603e cf46 8cbe
000001e0: 54d5 a93d e126 21be 63cb 0a3d 2fd0 68be
000001f0: 8d4b 5cbe 4f3a ad3d d899 02be f363 8fbe
00000200: cbef 60bd 514e 823d f82e 87bd d3d9 f73c
00000210: 1eb9 de3c da7e 83bc e395 563b 6c80 89bd
00000220: ad33 a2bc 0967 283d e090 743c 6cce 943c
00000230: 9712 3abd f9b9 813b 79cb 063d b7a5 343d
00000240: 6c36 71bd 66f1 013d 6f1d 31bd 3645 06bd
00000250: b4ff 56bd f72d 38bd 8bbe 31bc 7fcb f63c
00000260: 3220 68bd ca66 413d ce52 023d 740e 51bc
00000270: 73cd 8ebd b99f 89bd d215 42bd 40ce 783c
00000280: 567d d1bc 5ec6 39bd e18c 293d 8621 1ebd
00000290: 88dd 04bd 4d06 0d3d e519 053d 2eef 093d
000002a0: b270 2a3d 3c9f 3dbd 5237 29bb 222a 413d
000002b0: 149a 443d 1b7c 7b3d d796 75bd 4df3 123d
000002c0: 6f18 7b3d 271f a53c 7176 93bc 541f 54bb
000002d0: 6836 6bbd 201e 0f3d 1999 043d ee14 f23c
000002e0: cf35 16bd 75f7 153d 3a4f c23c 67e5 2dbd
000002f0: e225 55bd d470 35bd b264 a6ba b08d 373d

rnn.bias_hh_l0 f4 [192]
0.038137846 -0.038170435 0.046536196 -0.0019048959 -0.044448424 -0.016453218 -0.02521092 0.00515287
-0.027084876 0.018562486 -0.0058535505 -0.014998968 0.045643058 -0.04855805 -0.014884334 -0.012946731
-0.05378986 -0.017256351 -0.008927993 -0.022315271 0.013261855 -0.018927993 -0.0030313474 -0.028143035
-0.049649566 0.022417052 -0.039446842 -0.050948422 -0.056801338 0.056913644 -0.030792784 -0.02705796
0.02138937 -0.009174677 -0.02108653 0.0644372 0.010017009 0.03331182 0.05360565 -0.0029620784
0.06690999 0.026893912 -0.022227524 -0.01839691 0.007944158 0.049914293 0.026087137 -0.041748617
0.046230692 -0.012183992 -0.051287245 0.0017355127 0.0044639357 -0.004817235 -0.018323138 -0.011446658
0.034410786 -0.013760927 -0.019514399 0.013328074 0.06685102 -0.013880958 -0.056462716 0.046876725
-0.2550244 -0.19082272 -0.14803296 -0.18927075 -0.019252451 0.13971269 0.02659368 -0.1885743
-0.103854954 -0.19145828 0.103719644 0.029637424 -0.19942318 -0.012824957 -0.16989236 -0.23586202
-0.27979934 0.1337251 -0.17601363 -0.18394728 -0.22942027 0.056002848 0.033081654 -0.14233126
-0.12318224 -0.11893073 0.1156346 0.021279017 -0.22387667 -0.2417843 -0.0024402565 -0.009555086
0.0886832 -0.15838043 -0.053031653 -0.15776417 0.07768686 -0.11648094 0.07743913 -0.20981663
0.108290136 -0.18657753 0.032517355 -0.14266288 -0.1631852 -0.21715698 -0.18842989 -0.04794462
-0.09823719 -0.05836196 0.06658555 0.08572145 -0.20686758 -0.19186747 0.21879801 -0.27397773
0.08292642 -0.15737487 0.03388537 -0.22735666 -0.21513195 0.08458387 -0.12753999 -0.28005943
-0.05722503 0.061078973 -0.073893815 0.0345483 0.032453608 -0.015943862 -0.0018709122 -0.056666333
-0.015982509 0.04389359 0.021153495 0.020930571 -0.046155207 0.007832515 0.03198706 0.041809086
-0.05394256 0.030991556 -0.037750736 -0.0341499 -0.07913437 -0.045360103 -0.0123648485 0.030935438
-0.052361477 0.054796748 0.034691054 -0.024313198 -0.05624666 -0.071501076 -0.050635997 0.017846424
-0.027307715 -0.04439602 0.037973188 -0.038378466 -0.031343188 0.033459216 0.032195304 0.030566651
0.039679762 -0.055759553 0.0011048533 0.045582686 0.043934148 0.06267107 -0.06654148 0.03502037
0.06382023 0.02279739 -0.02058872 0.0015760968 -0.0520296 0.03175125 0.035688587 0.026980132
-0.035609435 0.027223272 0.02359691 -0.04651907 -0.055893447 -0.040591147 0.006077011 0.042181525
00000000: 6e36 1c3d 9a58 1cbd bd9c 3e3d b3ad f9ba
00000010: 8d0f 36bd e6c8 86bc 2287 cebc 68d9 a83b
00000020: 1ae1 ddbc 5b10 983c 24cf bfbb 3bbe 75bc
00000030: 37f4 3a3d cee4 46bd 6cdd 73bc 871e 54bc
00000040: c252 5cbd 315d 8dbc b746 12bc 84ce b6bc
00000050: 4048 593c e10e 9bbc 92a9 46bb 398c e6bc
00000060: 585d 4bbd f7a3 b73c 0393 21bd 4baf 50bd
00000070: 85a8 68bd 481e 693d 2641 fcbc a8a8 ddbc
00000080: c338 af3c 6251 16bc a9bd acbc a7f7 833d
00000090: 621e 243c fa71 083d 9991 5b3d 6e1f 42bb
000000a0: 1b08 893d 9f50 dc3c 7f16 b6bc 1eb5 96bc
000000b0: 3728 023c ee72 4c3d b1b4 d53c 9900 2bbd
000000c0: 655c 3d3d 5e9f 47bc 9312 52bd 257a e33a
000000d0: 3546 923b e5d9 9dbb 681a 96bc c38a 3bbc
000000e0: 53f2 0c3d 8375 61bc a9dc 9fbc fe5d 5a3c
000000f0: 30e9 883d f56c 63bc 7345 67bd cf01 403d
00000100: 8f92 82be 0867 43be f495 17be 31d0 41be
00000110: 51b7 9dbc d810 0f3e fdda d93c 9f19 41be
00000120: e8b1 d4bd a40d 44be f76a d43d 2fca f23c
00000130: 9735 4cbe c51f 52bc 43f8 2dbe d085 71be
00000140: dc41 8fbe 3cef 083e eb3c 34be ad5c 3cbe
00000150: 26ed 6abe 3e63 653d a180 073d 49bf 11be
00000160: f846 fcbd f491 f3bd d5d1 ec3d 5551 ae3c
00000170: ed3f 65be 4e96 77be b6ec 1fbb ef8c 1cbc
00000180: 8a9f b53d 7b2e 22be b837 59bd ee8c 21be
00000190: 4a1a 9f3d 8f8d eebd 6898 9e3d 2cda 56be
000001a0: 38c7 dd3d 2e0e 3fbe eb30 053d 3816 12be
000001b0: 051a 27be 665e 5ebe c4f3 40be 9461 44bd
000001c0: 9430 c9bd f30c 6fbd 015e 883d ba8e af3d
000001d0: 18d5 53be e878 44be 960c 603e cf46 8cbe
000001e0: 54d5 a93d e126 21be 63cb 0a3d 2fd0 68be
000001f0: 8d4b 5cbe 4f3a ad3d d899 02be f363 8fbe
00000200: cb64 6abd f22d 7a3d a455 97bd 8582 0d3d
00000210: 13ee 043d b49c 82bc 6539 f5ba f51a 68bd
00000220: c0ed 82bc c4c9 333d 184a ad3c 9776 ab3c
00000230: 3e0d 3dbd f353 003c dd04 033d 0140 2b3d
00000240: e0f2 5cbd 01e2 fd3c 84a0 1abd c4e0 0bbd
00000250: 3311 a2bd 84cb 39bd ef95 4abc 516c fd3c
00000260: fd78 56bd 8e72 603d 3518 0e3d 792c c7bc
00000270: e662 66bd 286f 92bd b167 4fbd aa32 923c
00000280: 6eb4 dfbc 9ad8 35bd c689 1b3d bd32 1dbd
00000290: b761 00bd 880c 093d 39df 033d ea66 fa3c
000002a0: 3f87 223d 2164 64bd bad0 903a e9b4 3a3d
000002b0: 4bf4 333d b159 803d e646 88bd 8571 0f3d
000002c0: 2eb4 823d 98c1 ba3c ada9 a8bc 0895 ce3a
000002d0: fd1c 55bd 990d 023d 322e 123d 7005 dd3c
000002e0: 33db 11bd 5703 df3c 4f4e c13c c88a 3ebd
000002f0: 87f0 64bd e742 26bd aa21 c73b 89c6 2c3d

rnn.weight_ih_l1 f4 [192, 64]
0.0026477373 0.06724441 -0.22931105 -0.049005806 -0.09336588 -0.18998325 0.015399436 0.080967784
0.024975942 0.20625891 0.11423234 -0.054422896 -0.13062331 0.097078696 0.07827947 0.09713584
-0.032785345 -0.025652882 -0.059650827 -0.07841032 0.043533806 -0.11099935 -0.18320814 0.047670998
0.04506117 0.074228734 0.23296776 -0.10817296 -0.20382825 -0.09636577 -0.19038384 0.026399806
-0.1355095 0.030480307 0.15402502 -0.24338886 -0.05907865 -0.00071731984 0.04773945 0.0010563169
0.040814415 -0.10011647 -0.17762324 0.14319587 -0.02895986 -0.101551466 0.04911433 0.18356451
0.13380662 0.18539238 -0.12094231 0.036759697 -0.2014988 0.21530016 -0.055569347 0.09132207
-0.1791444 0.154577 -0.08109765 -0.05328386 0.039881717 -0.15130842 -0.0886025 0.1548524
-0.08752116 -0.05335825 -0.073475115 -0.15832618 0.12081219 -0.0696597 0.07149571 0.023422694
0.030877296 -0.045514327 -0.17477942 0.020369735 0.15963034 0.10853973 -0.10560058 0.06915953
-0.06426303 0.023419758 0.12093906 -0.09489037 0.022041317 0.11164315 0.07035299 -0.05123971
-0.12105451 -0.04392074 -0.13858032 0.067005016 0.15637541 -0.13325542 0.120849505 0.085273184
-0.11058256 0.004217502 0.017781323 0.025931872 0.10906916 0.06366882 -0.19000253 0.024030395
0.060770217 0.22025335 0.15819423 -0.030531274 -0.076835945 0.04178293 0.05467865 0.08433863
0.048891768 0.072532974 0.021569932 0.12902129 0.2048563 -0.18941846 0.018907318 -0.06349949
0.0119069405 -0.15235686 0.014350084 -0.062107734 -0.03904028 0.180053 0.11050176 -0.16020699
-0.13399798 -0.012484475 0.08973475 -0.07886125 -0.056305926 -0.00885992 -0.077401385 -0.14541268
0.052208424 0.05727995 -0.111105755 0.13817951 -0.13453048 -0.0983592 -0.021765186 0.100723095
0.091161184 -0.0473346 0.11820447 -0.07808478 -0.0006023106 0.08562545 0.21742387 -0.15798382
-0.137055 0.07593182 -0.058486618 0.016306296 -0.10928196 0.08852651 0.13284142 -0.15155637
-0.015701337 -0.03250549 -0.050667677 -0.040771708 0.08072288 -0.09556844 -0.11120613 0.02597707
-0.17267323 0.047630336 0.1515944 -0.028382191 0.055943616 -0.070872955 -0.018208412 0.079818815
0.049512178 -0.08610125 -0.0013732918 -0.021411836 -0.03026032 0.06320595 0.17536235 0.09955994
0.11864127 0.04546668 0.029377883 -0.16184305 0.009398948 0.18221986 0.03649774 0.11900919
0.037148558 0.08681362 -0.14478369 -0.09653051 0.12054222 -0.17530212 -0.05818361 0.04831437
-0.14375973 -0.069440976 0.05892551 0.13801141 -0.14529635 -0.028640868 0.034633964 0.13132842
-0.0540474 0.14226124 -0.16510281 0.045866016 -0.11531198 0.02434329 -0.07295411 -0.09144522
0.003033794 0.019920038 -0.09194717 0.0050778785 -0.05530695 0.029089611 -0.2004332 0.013114641
-0.014931426 -0.19100985 -0.030095482 0.09013079 0.03806827 -0.13599858 0.17424306 0.046585083
0.0790977 -0.11923171 0.03110259 -0.0663831 0.007802319 0.15133275 -0.19754668 -0.05681916
0.17165522 -0.0050387983 0.13895804 -0.09870792 0.049360845 0.048150305 0.07924467 -0.095029674
0.102488205 0.19023548 0.13876107 -0.15936315 0.06591659 0.16587588 -0.018623522 0.05625748
00000000: a985 2d3b 70b7 893d 84d0 6abe 50ba 48bd
00000010: 9c36 bfbd f88a 42be ea4d 7c3c 70d2 a53d
00000020: 599a cc3c 8935 533e a5f2 e93d 8bea 5ebd
00000030: 1ec2 05be 32d1 c63d fd50 a03d 28ef c63d
00000040: ed49 06bd fe25 d2bc 6d54 74bd 9795 a0bd
00000050: 8150 323d a153 e3bd ea9a 3bbe aa42 433d
00000060: 1092 383d 3c05 983d 1a8f 6e3e c989 ddbd
00000070: 5ab8 50be 6b5b c5bd fbf3 42be 6844 d83c
00000080: 01c3 0abe d6b1 f93c bcb8 1d3e ee3a 79be
00000090: 74fc 71bd 850a 3cba 718a 433d 1d74 8a3a
000000a0: 042d 273d dd09 cdbd dee2 35be f0a1 123e
000000b0: 3a3d edbc 37fa cfbd 1c2c 493d 56f8 3b3e
000000c0: 9a04 093e 80d7 3d3e 9ab0 f7bd 5691 163d
000000d0: b455 4ebe a577 5c3e af9c 63bd 1107 bb3d
000000e0: a171 37be 6f49 1e3e 8616 a6bd 2d40 5abd
000000f0: 035b 233d 98f0 1abe 3a75 b5bd a191 1e3e
00000100: 4b3e b3bd 2e8e 5abd 1f7a 96bd 4220 22be
00000110: 626c f73d bfa9 8ebd 586c 923d f3e0 bf3c
00000120: 62f2 fc3c 3b6d 3abd 60f9 32be 6ede a63c
00000130: 2376 233e 144a de3d 1e45 d8bd 83a3 8d3d
00000140: 569c 83bd cbda bf3c e6ae f73d e255 c2bd
00000150: fe8f b43c 2aa5 e43d 3a15 903d bbe0 51bd
00000160: 6deb f7bd 3ce6 33bd 00e8 0dbe ed39 893d
00000170: e020 203e 1c74 08be f27f f73d b5a3 ae3d
00000180: 1c79 e2bd f932 8a3b 23aa 913c 146f d43c
00000190: a75f df3d cc64 823d 0690 42be 64db c43c
000001a0: 31ea 783d 188a 613e abfd 213e b91c fabc
000001b0: 2a5c 9dbd 9424 2b3d b8f6 5f3d bbb9 ac3d
000001c0: bc42 483d 2b8c 943d 6db3 b03c 281e 043e
000001d0: dac5 513e eaf6 41be 85e3 9a3c 050c 82bd
000001e0: 5415 433c 7003 1cbe 9d1c 6b3c ae64 7ebd
000001f0: b3e8 1fbd d05f 383e bf4e e23d 4d0d 24be
00000200: c436 09be af8b 4cbc dac6 b73d 0282 a1bd
00000210: 0ba1 66bd 3329 11bc 9e84 9ebd 10e7 14be
00000220: 80d8 553d 619e 6a3d 6a8b e3bd ee7e 0d3e
00000230: 5cc2 09be 8c70 c9bd e74c b2bc e947 ce3d
00000240: b7b2 ba3d ede1 41bd 2f15 f23d eaea 9fbd
00000250: 61e4 1dba 655c af3d 5da4 5e3e 83c6 21be
00000260: 2558 0cbe 2482 9b3d aa8f 6fbd c894 853c
00000270: 38cf dfbd 634d b53d 9507 083e 9831 1bbe
00000280: 17a0 80bc 7a24 05bd e988 4fbd 3c00 27bd
00000290: 0a52 a53d 63b9 c3bd 0ac0 e3bd ddcd d43c
000002a0: 40d1 30be 0718 433d 903b 1b3e c581 e8bc
000002b0: 2225 653d d725 91bd cf29 95bc 0c78 a33d
000002c0: 48cd 4a3d da55 b0bd 0700 b4ba e067 afbc
000002d0: 7ee4 f7bc 1f72 813d 3092 333e 15e6 cb3d
000002e0: 32fa f23d 453b 3a3d e3a9 f03c 2fba 25be
000002f0: 0cfe 193c d897 3a3e a77e 153d 17bb f33d
00000300: 1629 183d 57cb b13d 2d42 14be cab1 c5bd
00000310: d7de f63d 6682 33be f051 6ebd 4ae5 453d
00000320: c035 13be 1237 8ebd e05b 713d dd52 0d3e
00000330: 91c8 14be 41a0 eabc 58dc 0d3d f57a 063e
00000340: ce60 5dbd eeac 113e b610 29be 01de 3b3d
00000350: b028 ecbd 946b c73c f768 95bd a247 bbbd
00000360: 9ed2 463b 592f a33c cc4e bcbd 5564 a63b
00000370: 8a89 62bd 564d ee3c 5c3e 4dbe cbde 563c
00000380: f1a2 74bc 1698 43be cd8a f6bc 7e96 b83d
00000390: 79ed 1b3d 3643 0bbe c66c 323e 00d0 3e3d
000003a0: fafd a13d c12f f4bd dcca fe3c ddf3 87bd
000003b0: 98aa ff3b f9f6 1a3e ad49 4abe 35bb 68bd
000003c0: 63c6 2f3e 811c a5bb 044b 0e3e 6127 cabd
000003d0: 992e 4a3d 4139 453d 084b a23d eb9e c2bd
000003e0: 56e5 d13d 17cd 423e 6217 0e3e 1830 23be
000003f0: 47ff 863d 5edb 293e 5b90 98bc 3e6e 663d

rnn.weight_hh_l1 f4 [192, 64]
0.045619972 -0.10504551 0.09185825 0.13476497 -0.13505417 -0.16604114 0.027296692 -0.07362173
-0.1547815 0.12513025 -0.09921633 -0.043116108 0.18495005 -0.1194197 -0.027312342 -0.051349837
-0.035325784 0.0148345735 -0.0012987877 -0.20189533 -0.13044508 0.041784205 -0.035884336 0.034766093
-0.06043379 -0.15794492 -0.06440466 -0.11047547 0.12263804 0.06907636 -0.117838584 0.12834674
-0.02563992 -0.023898337 -0.023667777 0.03647282 0.07761402 -0.037580136 0.08162979 -0.1068281
0.015616298 -0.010351539 -0.02678371 0.003299768 0.011579077 -0.069203086 -0.22714446 -0.0023855937
0.16651164 -0.0050403215 0.19718365 0.02273139 -0.036764752 0.08733917 0.0047869114 -0.059647348
-0.100938134 0.0008707644 -0.16484457 -0.10776745 -0.067782566 0.05414602 -0.046723478 0.0602997
-0.058341563 0.024540555 -0.020576721 -0.0010711822 -0.04942462 0.08577541 -0.10191504 0.10495244
0.05839895 -0.15185569 0.11021124 -0.066141576 -0.107841514 -0.16609871 0.0008758786 -0.065807045
-0.029611226 -0.097796574 -0.083049454 0.117303096 0.024530021 -0.02741586 0.07682298 0.093547896
0.057585016 0.057079732 0.085413665 0.15129949 -0.008624132 -0.20709182 -0.01966501 0.08042573
0.124165505 0.085094474 -0.053286355 0.08632835 -0.021379665 0.14722444 -0.052010696 0.024588574
-0.02833168 -0.03421413 -0.07990903 0.038758457 -0.050292302 -0.0060410555 -0.05235984 0.10002501
-0.12245259 0.051537775 -0.011338786 0.064563334 -0.06594566 0.06368527 0.009095677 -0.03922871
0.16842349 -0.060672008 0.021073192 0.025333192 0.1307825 0.0725252 0.08437991 0.08099949
-0.11884042 0.07061926 0.06811244 0.15308344 -0.13076256 0.13851246 -0.061341275 -0.13203213
-0.18649702 0.061906338 0.00053998287 0.055162504 0.02221928 0.013024668 -0.019344633 0.14076205
-0.09512487 -0.020765852 -0.011243306 -0.07373541 -0.12534365 0.025973953 -0.005070826 0.106043056
0.050541423 -0.049834497 0.12880726 0.044734605 0.04113805 0.040405836 -0.060010515 0.08149446
0.03863548 -0.011229851 -0.0023381119 -0.088841975 0.029199637 0.010088209 -0.09136368 0.08944354
-0.10397556 0.083458014 0.07567311 -0.06677852 0.103297316 -0.21412684 -0.048277564 -0.13870287
0.031241056 0.08250201 -0.03377804 0.017990844 0.08143944 -0.14981772 0.048750542 0.08583143
0.05506343 0.007817966 0.01840577 -0.09212028 -0.050150458 -0.023533823 -0.036222953 -0.020624764
-0.20232548 0.034198966 0.08996784 0.015388329 0.055046514 0.094793245 0.011291712 -0.0062339115
-0.016948504 0.12124967 0.021278858 0.003010516 0.012081697 0.07943404 -0.13372722 -0.08029568
0.0037822833 0.14830858 -0.095053494 -0.07488325 -0.02621156 0.029101595 0.15597266 0.038303964
-0.081080005 0.0077632507 -0.059776895 -0.045551892 0.12215485 -0.033715036 -0.061685164 0.05364513
-0.12008517 0.03724243 0.053109497 -0.11352212 0.006205078 -0.059001077 -0.013200213 -0.013433108
0.09466407 -0.1319915 -0.11563446 -0.14629628 0.0006789071 -0.15846795 -0.07514939 0.084555596
0.04512682 -0.11559042 -0.0884513 0.08850155 0.07537636 -0.051325753 0.01921139 0.064703904
0.013436925 0.05874528 -0.05920326 -0.16232316 -0.19752428 0.039277866 -0.079105884 -0.022163492
00000000: 02dc 3a3d 1a22 d7bd 2e20 bc3d d4ff 093e
00000010: a44b 0abe b006 2abe 509d df3c fdc6 96bd
00000020: 0b7f 1ebe 2522 003e ee31 cbbd 849a 30bd
00000030: 8c63 3d3e 5192 f4bd 22be dfbc 3554 52bd
00000040: c5b1 10bd b60c 733c 153c aaba a6bd 4ebe
00000050: 6593 05be ea25 2b3d 74fb 12bd e466 0e3d
00000060: 6c89 77bd 50bc 21be 97e6 83bd f740 e2bd
00000070: a729 fb3d e877 8d3d 5b55 f1bd 546d 033e
00000080: cf0a d2bc 72c6 c3bc ede2 c1bc 8664 153d
00000090: 19f4 9e3d a1ed 19bd 852d a73d b1c8 dabd
000000a0: 80db 7f3c 8099 29bc 8369 dbbc ec40 583b
000000b0: 2bb6 3d3c 59ba 8dbd 8f98 68be 9f57 1cbb
000000c0: 0782 2a3e 4829 a5bb 83ea 493e 2e37 ba3c
000000d0: a396 16bd e1de b23d 86db 9c3b c750 74bd
000000e0: a7b8 cebd 0244 643a 04cd 28be 2eb5 dcbd
000000f0: 96d1 8abd 38c8 5d3d 1e61 3fbd d1fc 763d
00000100: 90f7 6ebd 4609 c93c 8390 a8bc e966 8cba
00000110: 7871 4abd 05ab af3d d5b8 d0bd 4ef1 d63d
00000120: bd33 6f3d 0f80 1bbe 6eb6 e13d 3c75 87bd
00000130: 03dc dcbd c815 2abe 389b 653a d8c5 86bd
00000140: 3e93 f2bc 9249 c8bd d515 aabd 9b3c f03d
00000150: 2ff3 c83c 3a97 e0bc 5e55 9d3d 0a96 bf3d
00000160: 44de 6b3d 70cc 693d 5ced ae3d 41ee 1a3e
00000170: 3b4c 0dbc e10f 54be 8418 a1bc 3fb6 a43d
00000180: 7c4a fe3d 0346 ae3d cb42 5abd ebcc b03d
00000190: 6824 afbc 01c2 163e 2b09 55bd fa6d c93c
000001a0: d717 e8bc 1e24 0cbd 58a7 a3bd 30c1 1e3d
000001b0: 4dff 4dbd 0cf4 c5bb 4677 56bd ead9 cc3d
000001c0: 6cc8 fabd 4619 533d 51c6 39bc c839 843d
000001d0: 850e 87bd 6c6d 823d 0906 153c 49ae 20bd
000001e0: 3577 2c3e 3683 78bd b0a1 ac3c 8e87 cf3c
000001f0: d9eb 053e 1888 943d 60cf ac3d 10e3 a53d
00000200: 9b62 f3bd d5a0 903d 897e 8b3d e8c1 1c3e
00000210: 9fe6 05be 36d6 0d3e fd40 7bbd 6e33 07be
00000220: 13f9 3ebe 8091 7d3d a38d 0d3a 14f2 613d
00000230: 3505 b63c 6b65 553c a378 9ebc ed23 103e
00000240: d4d0 c2bd 261d aabc d835 38bc 9702 97bd
00000250: 165a 00be 54c7 d43c 2c29 a6bb 1a2d d93d
00000260: 8604 4f3d 421f 4cbd 0de6 033e a23b 373d
00000270: 5f80 283d 9780 253d 96cd 75bd 91e6 a63d
00000280: 3d40 1e3d 69fd 37bc 023b 19bb c8f2 b5bd
00000290: 1434 ef3c 0449 253c e21c bbbd 2d2e b73d
000002a0: 23f1 d4bd 09ec aa3d 81fa 9a3d 2dc3 88bd
000002b0: 8b8d d33d 1144 5bbe b2be 45bd 2008 0ebe
000002c0: 3eed ff3c d0f6 a83d d85a 0abd 8961 933c
000002d0: b9c9 a63d d169 19be a6ae 473d 64c8 af3d
000002e0: 318a 613d ed16 003c b3c7 963c 8fa9 bcbd
000002f0: 916a 4dbd 01ca c0bc 855e 14bd 44f5 a8bc
00000300: 692e 4fbe 3714 0c3d 0f41 b83d 541f 7c3c
00000310: 7478 613d f622 c23d df00 393c d745 ccbb
00000320: 97d7 8abc bf51 f83d 0051 ae3c 144c 453b
00000330: 4ff2 453c 50ae a23d caef 08be 1072 a4bd
00000340: 2fe0 773b 34de 173e 68ab c2bd 645c 99bd
00000350: a0b9 d6bc 7866 ee3c 4cb7 1f3e 9ee4 1c3d
00000360: 460d a6bd de62 fe3b 9ed8 74bd 9f94 3abd
00000370: 522c fa3d c718 0abd 95a9 7cbd ffba 5b3d
00000380: 37ef f5bd 858b 183d 5889 593d 497e e8bd
00000390: f853 cb3b 1dab 71bd b545 58bc 8a16 5cbc
000003a0: 3cdf c13d c828 07be c2d1 ecbd b1ce 15be
000003b0: aff8 313a 6c45 22be ece7 99bd 7c2b ad3d
000003c0: e7d6 383d acba ecbd f525 b5bd 4d40 b53d
000003d0: ec5e 9a3d f43a 52bd 3461 9d3c 7b83 843d
000003e0: 8c26 5c3c e49e 703d 1e7f 72bd 0b38 26be
000003f0: ce43 4abe d4e1 203d 4402 a2bd 3690 b5bc

rnn.bias_ih_l1 f4 [192]
-0.013083226 0.029348208 0.064267196 0.017931214 0.06093377 -0.058210853 0.01600601 0.020303609
0.0038599542 -0.049049765 0.026845112 -0.038686026 -0.035104405 -0.037559412 0.03739224 0.054416493
0.026224593 0.018077489 -0.009656234 -0.008858127 0.01897469 -0.035349227 0.034710836 -0.026850801
-0.04351404 0.03864297 0.046544228 -0.021928689 0.0070169196 -0.026199289 -0.041998398 0.026958717
0.0068976404 -0.022124821 -0.039394185 -0.07311291 0.04307781 -0.014765845 0.014201445 0.008977942
0.031269107 -0.05835877 -0.01686691 0.031896707 -0.047708184 0.041361224 0.070746616 0.05396869
0.023775017 0.029269658 0.0057739797 -0.035323787 0.045192793 0.03656283 0.06572174 0.03858929
0.025758957 0.022477461 0.054678842 0.074645154 -0.03604535 -0.03474845 -0.0025576493 0.03438547
-0.08554725 0.019082313 -0.12884444 -0.11065851 -0.052310314 -0.10566889 -0.10385934 -0.24126333
-0.11469184 -0.11345665 -0.13070464 -0.056413442 -0.13650343 -0.016891483 -0.11664316 -0.120337315
0.00050923455 -0.13035962 0.03111328 -0.106466815 -0.11746916 0.059066713 -0.01824241 0.060565725
-7.572034e-05 -0.042049248 -0.11355184 -0.0859557 0.012447901 -0.093093276 -0.09488272 -0.14208731
0.07598688 -0.24700508 0.0363565 0.03597827 -0.12544869 0.03548863 -0.15391389 0.059651628
-0.09409955 0.0037026019 -0.08817996 0.020616863 -0.045778856 -0.11348069 -0.105546035 -0.12655155
-0.019799594 -0.09673465 0.09569228 -0.0046443273 0.005829405 -0.14244577 -0.10057031 -0.1323325
-0.07355306 -0.11297372 -0.27485335 -0.15610605 -0.026375303 0.047786802 0.04439284 -0.14308809
-0.037301525 -0.00998843 0.06478245 0.031056749 -0.028097494 0.014358956 0.052973654 -0.052781697
-0.04102685 0.05051444 -0.042250894 -0.020158656 0.04417393 -0.0462341 -0.03771992 -0.043021034
0.05607824 0.029331958 0.024577236 -0.06219977 -0.03191647 0.06391539 -0.004654254 0.024261594
-0.033655133 -0.027810015 -0.051840413 -0.026144523 -0.014703958 0.0871697 -0.05533872 0.05811597
-0.0056422707 0.05442439 0.01785819 -0.037619058 0.06637693 -0.0075709154 -0.05323576 0.002911367
0.04686899 -0.0037956783 0.081808545 -0.008858196 0.051672805 -0.05560149 -0.07172762 -0.06492439
0.007599946 0.04933962 0.015610772 0.007065356 0.009208033 -0.025347915 0.051687457 0.05151644
-0.027626695 0.06084665 -0.052348807 -0.033010248 -0.056937568 0.0008479261 -0.013853818 -0.054212708
00000000: 075b 56bc a76b f03c 859e 833d 7be4 923c
00000010: b095 793d 816e 6ebd 091f 833c c153 a63c
00000020: 49f7 7c3b 68e8 48bd 48ea db3c 3d75 1ebd
00000030: a3c9 0fbd e6d7 19bd 9b28 193d d4e3 5e3d
00000040: f5d4 d63c 3e17 943c 2e35 1ebc ad21 11bc
00000050: cf70 9b3c 5aca 10bd f32c 0e3d 36f6 dbbc
00000060: c73b 32bd 1748 1e3d 29a5 3e3d cba3 b3bc
00000070: 30ee e53b e49f d6bc 8306 2cbd 87d8 dc3c
00000080: 9a05 e23b 1d3f b5bc cc5b 21bd 39bc 95bd
00000090: 5c72 303d 71ec 71bc 2dad 683c 3818 133c
000000a0: 0914 003d 9b09 6fbd 792c 8abc 1fa6 023d
000000b0: a869 43bd 636a 293d 9ae3 903d 460e 5d3d
000000c0: d3c3 c23c ecc6 ef3c a733 bd3b adaf 10bd
000000d0: 141c 393d e8c2 153d 1f99 863d ce0f 1e3d
000000e0: 7304 d33c a722 b83c ecf6 5f3d 8fdf 983d
000000f0: 4aa4 13bd 6454 0ebd 3c9e 27bb c7d7 0c3d
00000100: 6633 afbd 8352 9c3c ccef 03be eea0 e2bd
00000110: 5743 56bd ee68 d8bd 35b4 d4bd bc0d 77be
00000120: 8ee3 eabd f65b e8bd 70d7 05be c811 67bd
00000130: 8ec7 0bbe 0260 8abc 9ce2 eebd 6973 f6bd
00000140: 277e 053a fe7c 05be 47e1 fe3c 460b dabd
00000150: ac93 f0bd f0ef 713d 1b71 95bc c413 783d
00000160: 0ccc 9eb8 d53b 2cbd de8d e8bd 8b09 b0bd
00000170: 48f2 4b3c b0a7 bebd df51 c2bd 567f 11be
00000180: 029f 9b3d e6ee 7cbe 8eea 143d f35d 133d
00000190: 9f75 00be 875c 113d 9a9b 1dbe 4455 743d
000001a0: 44b7 c0bd 5aa7 723b b297 b4bd b2e4 a83c
000001b0: 9c82 3bbd 9068 e8bd 8528 d8bd bb96 01be
000001c0: c232 a2bc d11c c6bd 50fa c33d 712f 98bb
000001d0: 9804 bf3b 4edd 11be cff7 cdbd 2c82 07be
000001e0: fda2 96bd c45e e7bd 94b9 8cbe 44da 1fbe
000001f0: 0511 d8bc 18bc 433d 44d5 353d af85 12be
00000200: 7cc9 18bd 83a6 23bc a9ac 843d b96a fe3c
00000210: b72c e6bc d441 6b3c e7fa 583d 9f31 58bd
00000220: c50b 28bd 3be8 4e3d 460f 2dbd c423 a5bc
00000230: b9ef 343d f85f 3dbd 3480 1abd d336 30bd
00000240: 4cb2 653d 9349 f03c 3356 c93c 30c5 7ebd
00000250: d8ba 02bd 12e6 823d b682 98bb 40c0 c63c
00000260: f7d9 09bd d4d1 e3bc 9d56 54bd 0a2d d6bc
00000270: dfe8 70bc 0786 b23d dbaa 62bd 030b 6e3d
00000280: cce2 b8bb 1cec 5e3d 574b 923c 7116 1abd
00000290: a1f0 873d 7115 f8bb be0d 5abd a2cc 3e3b
000002a0: b3f9 3f3d eac0 78bb 3d8b a73d f821 11bc
000002b0: dda6 533d 63be 63bd eee5 92bd 14f7 84bd
000002c0: f808 f93b 5718 4a3d 53c4 7f3c 8084 e73b
000002d0: 4add 163c 6ea6 cfbc 3ab6 533d e702 533d
000002e0: 6151 e2bc 563a 793d b46b 56bd c135 07bd
000002f0: 5e37 69bd 5b47 5e3a 20fb 62bc 250e 5ebd

rnn.bias_hh_l1 f4 [192]
-0.013083226 0.029348208 0.064267196 0.017931214 0.06093377 -0.058210853 0.01600601 0.020303609
0.0038599542 -0.049049765 0.026845112 -0.038686026 -0.035104405 -0.037559412 0.03739224 0.054416493
0.026224593 0.018077489 -0.009656234 -0.008858127 0.01897469 -0.035349227 0.034710836 -0.026850801
-0.04351404 0.03864297 0.046544228 -0.021928689 0.0070169196 -0.026199289 -0.041998398 0.026958717
0.0068976404 -0.022124821 -0.039394185 -0.07311291 0.04307781 -0.014765845 0.014201445 0.008977942
0.031269107 -0.05835877 -0.01686691 0.031896707 -0.047708184 0.041361224 0.070746616 0.05396869
0.023775017 0.029269658 0.0057739797 -0.035323787 0.045192793 0.03656283 0.06572174 0.03858929
0.025758957 0.022477461 0.054678842 0.074645154 -0.03604535 -0.03474845 -0.0025576493 0.03438547
-0.08554725 0.019082313 -0.12884444 -0.11065851 -0.052310314 -0.10566889 -0.10385934 -0.24126333
-0.11469184 -0.11345665 -0.13070464 -0.056413442 -0.13650343 -0.016891483 -0.11664316 -0.120337315
0.00050923455 -0.13035962 0.03111328 -0.106466815 -0.11746916 0.059066713 -0.01824241 0.060565725
-7.572034e-05 -0.042049248 -0.11355184 -0.0859557 0.012447901 -0.093093276 -0.09488272 -0.14208731
0.07598688 -0.24700508 0.0363565 0.03597827 -0.12544869 0.03548863 -0.15391389 0.059651628
-0.09409955 0.0037026019 -0.08817996 0.020616863 -0.045778856 -0.11348069 -0.105546035 -0.12655155
-0.019799594 -0.09673465 0.09569228 -0.0046443273 0.005829405 -0.14244577 -0.10057031 -0.1323325
-0.07355306 -0.11297372 -0.27485335 -0.15610605 -0.026375303 0.047786802 0.04439284 -0.14308809
-0.040262487 -0.006549059 0.071149305 0.032688364 -0.032568894 0.010585389 0.05652449 -0.062051915
-0.044877164 0.04851211 -0.04340152 -0.0074115274 0.042259954 -0.032983746 -0.037969656 -0.043614797
0.064506955 0.030141564 0.01038986 -0.06379195 -0.036114648 0.052745566 0.015619078 0.0061690677
-0.035340894 -0.028451884 -0.053644516 -0.023929834 -0.008360211 0.09334688 -0.040179696 0.062496383
-0.0022367097 0.040757485 0.023686972 -0.014738979 0.07457726 -0.00993771 -0.061315216 -0.0021057678
0.05485393 -0.006418663 0.08066956 -0.010422103 0.059799857 -0.05391483 -0.07485019 -0.07666235
0.01322863 0.05083778 0.013738214 0.010159369 0.012599397 -0.019233888 0.05448654 0.06389571
-0.02893256 0.06808594 -0.06313742 -0.026204107 -0.051690955 0.0022018114 -0.010978525 -0.05005943
00000000: 075b 56bc a76b f03c 859e 833d 7be4 923c
00000010: b095 793d 816e 6ebd 091f 833c c153 a63c
00000020: 49f7 7c3b 68e8 48bd 48ea db3c 3d75 1ebd
00000030: a3c9 0fbd e6d7 19bd 9b28 193d d4e3 5e3d
00000040: f5d4 d63c 3e17 943c 2e35 1ebc ad21 11bc
00000050: cf70 9b3c 5aca 10bd f32c 0e3d 36f6 dbbc
00000060: c73b 32bd 1748 1e3d 29a5 3e3d cba3 b3bc
00000070: 30ee e53b e49f d6bc 8306 2cbd 87d8 dc3c
00000080: 9a05 e23b 1d3f b5bc cc5b 21bd 39bc 95bd
00000090: 5c72 303d 71ec 71bc 2dad 683c 3818 133c
000000a0: 0914 003d 9b09 6fbd 792c 8abc 1fa6 023d
000000b0: a869 43bd 636a 293d 9ae3 903d 460e 5d3d
000000c0: d3c3 c23c ecc6 ef3c a733 bd3b adaf 10bd
000000d0: 141c 393d e8c2 153d 1f99 863d ce0f 1e3d
000000e0: 7304 d33c a722 b83c ecf6 5f3d 8fdf 983d
000000f0: 4aa4 13bd 6454 0ebd 3c9e 27bb c7d7 0c3d
00000100: 6633 afbd 8352 9c3c ccef 03be eea0 e2bd
00000110: 5743 56bd ee68 d8bd 35b4 d4bd bc0d 77be
00000120: 8ee3 eabd f65b e8bd 70d7 05be c811 67bd
00000130: 8ec7 0bbe 0260 8abc 9ce2 eebd 6973 f6bd
00000140: 277e 053a fe7c 05be 47e1 fe3c 460b dabd
00000150: ac93 f0bd f0ef 713d 1b71 95bc c413 783d
00000160: 0ccc 9eb8 d53b 2cbd de8d e8bd 8b09 b0bd
00000170: 48f2 4b3c b0a7 bebd df51 c2bd 567f 11be
00000180: 029f 9b3d e6ee 7cbe 8eea 143d f35d 133d
00000190: 9f75 00be 875c 113d 9a9b 1dbe 4455 743d
000001a0: 44b7 c0bd 5aa7 723b b297 b4bd b2e4 a83c
000001b0: 9c82 3bbd 9068 e8bd 8528 d8bd bb96 01be
000001c0: c232 a2bc d11c c6bd 50fa c33d 712f 98bb
000001d0: 9804 bf3b 4edd 11be cff7 cdbd 2c82 07be
000001e0: fda2 96bd c45e e7bd 94b9 8cbe 44da 1fbe
000001f0: 0511 d8bc 18bc 433d 44d5 353d af85 12be
00000200: 47ea 24bd 7d99 d6bb bab6 913d 3ce4 053d
00000210: f666 05bd 576e 2d3c 3986 673d 262a 7ebd
00000220: 1ed1 37bd a2b4 463d cbc5 31bd 66dc f2bb
00000230: c618 2d3d f719 07bd 1286 1bbd 6ea5 32bd
00000240: 391c 843d 71eb f63c 3b3a 2a3c 5ba5 82bd
00000250: f4ec 13bd bc0b 583d 29e7 7f3c e425 ca3b
00000260: 9dc1 10bd ed13 e9bc 5aba 5bbd 8008 c4bc
00000270: 44f9 08bc a62c bf3d 7793 24bd 35fc 7f3d
00000280: c395 12bb 52f1 263d 2e0b c23c c27b 71bc
00000290: f6bb 983d c7d1 22bc aa25 7bbd ec00 0abb
000002a0: 84ae 603d a653 d2bb 1536 a53d 78c1 2abc
000002b0: b2f0 743d ccd5 5cbd 0e4b 99bd 2601 9dbd
000002c0: e5bc 583c 473b 503d 3f16 613c 7b73 263c
000002d0: b46d 4e3c 6390 9dbc 472d 5f3d c1db 823d
000002e0: fa03 edbc a470 8b3d 314e 81bd ffa9 d6bc
000002f0: e5b9 53bd 444c 103b 45df 33bc 1e0b 4dbd
